…
  name: "data"
  type: "ImageData"
  top: "data"
  top: "label"
  transform_param {
    scale: 0.0078125
    mirror: true
    mean_value: 127.5
    mean_value: 127.5
    mean_value: 127.5
    contrast_brightness_adjustment: true
    smooth_filtering: true
    min_contrast: 0.8
    max_contrast: 1.2
    max_smooth: 6
    apply_probability: 0.5
    max_color_shift: 20
  }
  image_data_param {
    source: "data/train_list.txt"
    batch_size: 128
    rand_skip: 10000
    shuffle: true
    root_folder: "/media/deep/t5/trillionpairs/aligned-112X96/"
  }
}
layer {
  name: "conv1_1"
  type: "Convolution"
  bottom: "data"
  top: "conv1_1"
  param {
    lr_mult: 1
    decay_mult: 1
  }
  param {
    lr_mult: 2
    decay_mult: 0
  }
  convolution_param {
    num_output: 64
    pad: 1
    kernel_size: 3
    stride: 2
    weight_filler {
      type: "xavier"
    }
    bias_filler {
      type: "constant"
      value: 0
    }
  }
}
layer {
  name: "bn1_1"
  type: "BatchNorm"
  bottom: "conv1_1"
  top: "conv1_1"
}
layer {
  name: "scale_conv1_1"
  type: "Scale"
  bottom: "conv1_1"
  top: "conv1_1"
  scale_param {
    bias_term: true
  }
}
layer {
  name: "relu1_1"
  type: "PReLU"
  bottom: "conv1_1"
  top: "conv1_1"
}
layer {
  name: "conv1_2"
  type: "Convolution"
  bottom: "conv1_1"
  top: "conv1_2"
  param {
    lr_mult: 1
    decay_mult: 1
  }
  param {
    lr_mult: 0
    decay_mult: 0
  }
  convolution_param {
    num_output: 64
    pad: 1
    kernel_size: 3
    stride: 1
    weight_filler {
      type: "gaussian"
      std: 0.01
    }
    bias_filler {
      type: "constant"
      value: 0
    }
  }
}
layer {
  name: "bn1_2"
  type: "BatchNorm"
  bottom: "conv1_2"
  top: "conv1_2"
}
layer {
  name: "scale_conv1_2"
  type: "Scale"
  bottom: "conv1_2"
  top: "conv1_2"
  scale_param {
    bias_term: true
  }
}
layer {
  name: "relu1_2"
  type: "PReLU"
  bottom: "conv1_2"
  top: "conv1_2"
}
layer {
  name: "conv1_3"
  type: "Convolution"
  bottom: "conv1_2"
  top: "conv1_3"
  param {
    lr_mult: 1
    decay_mult: 1
  }
  param {
    lr_mult: 0
    decay_mult: 0
  }
  convolution_param {
    num_output: 64
    pad: 1
    kernel_size: 3
    stride: 1
    weight_filler {
      type: "gaussian"
      std: 0.01
    }
    bias_filler {
      type: "constant"
      value: 0
    }
  }
}
layer {
  name: "bn1_3"
  type: "BatchNorm"
  bottom: "conv1_3"
  top: "conv1_3"
}
layer {
  name: "scale_conv1_3"
  type: "Scale"
  bottom: "conv1_3"
  top: "conv1_3"
  scale_param {
    bias_term: true
  }
}
layer {
  name: "relu1_3"
  type: "PReLU"
  bottom: "conv1_3"
  top: "conv1_3"
}
layer {
  name: "res1_3"
  type: "Eltwise"
  bottom: "conv1_1"
  bottom: "conv1_3"
  top: "res1_3"
  eltwise_param {
    operation: SUM
  }
}
layer {
  name: "conv1_4"
  type: "Convolution"
  bottom: "res1_3"
  top: "conv1_4"
  param {
    lr_mult: 1
    decay_mult: 1
  }
  param {
    lr_mult: 0
    decay_mult: 0
  }
  convolution_param {
    num_output: 64
    pad: 1
    kernel_size: 3
    stride: 1
    weight_filler {
      type: "gaussian"
      std: 0.01
    }
    bias_filler {
      type: "constant"
      value: 0
    }
  }
}
layer {
  name: "bn1_4"
  type: "BatchNorm"
  bottom: "conv1_4"
  top: "conv1_4"
}
layer {
  name: "scale_conv1_4"
  type: "Scale"
  bottom: "conv1_4"
  top: "conv1_4"
  scale_param {
    bias_term: true
  }
}
layer {
  name: "relu1_4"
  type: "PReLU"
  bottom: "conv1_4"
  top: "conv1_4"
}
layer {
  name: "conv1_5"
  type: "Convolution"
  bottom: "conv1_4"
  top: "conv1_5"
  param {
    lr_mult: 1
    decay_mult: 1
  }
  param {
    lr_mult: 0
    decay_mult: 0
  }
  convolution_param {
    num_output: 64
    pad: 1
    kernel_size: 3
    stride: 1
    weight_filler {
      type: "gaussian"
      std: 0.01
    }
    bias_filler {
      type: "constant"
      value: 0
    }
  }
}
layer {
  name: "bn1_5"
  type: "BatchNorm"
  bottom: "conv1_5"
  top: "conv1_5"
}
layer {
  name: "scale_conv1_5"
  type: "Scale"
  bottom: "conv1_5"
  top: "conv1_5"
  scale_param {
    bias_term: true
  }
}
layer {
  name: "relu1_5"
  type: "PReLU"
  bottom: "conv1_5"
  top: "conv1_5"
}
layer {
  name: "res1_5"
  type: "Eltwise"
  bottom: "res1_3"
  bottom: "conv1_5"
  top: "res1_5"
  eltwise_param {
    operation: SUM
  }
}
layer {
  name: "conv2_1"
  type: "Convolution"
  bottom: "res1_5"
  top: "conv2_1"
  param {
    lr_mult: 1
    decay_mult: 1
  }
  param {
    lr_mult: 2
    decay_mult: 0
  }
  convolution_param {
    num_output: 128
    pad: 1
    kernel_size: 3
    stride: 2
    weight_filler {
      type: "xavier"
    }
    bias_filler {
      type: "constant"
      value: 0
    }
  }
}
layer {
  name: "bn2_1"
  type: "BatchNorm"
  bottom: "conv2_1"
  top: "conv2_1"
}
layer {
  name: "scale_conv2_1"
  type: "Scale"
  bottom: "conv2_1"
  top: "conv2_1"
  scale_param {
    bias_term: true
  }
}
layer {
  name: "relu2_1"
  type: "PReLU"
  bottom: "conv2_1"
  top: "conv2_1"
}
layer {
  name: "conv2_2"
  type: "Convolution"
  bottom: "conv2_1"
  top: "conv2_2"
  param {
    lr_mult: 1
    decay_mult: 1
  }
  param {
    lr_mult: 0
    decay_mult: 0
  }
  convolution_param {
    num_output: 128
    pad: 1
    kernel_size: 3
    stride: 1
    weight_filler {
      type: "gaussian"
      std: 0.01
    }
    bias_filler {
      type: "constant"
      value: 0
    }
  }
}
layer {
  name: "bn2_2"
  type: "BatchNorm"
  bottom: "conv2_2"
  top: "conv2_2"
}
layer {
  name: "scale_conv2_2"
  type: "Scale"
  bottom: "conv2_2"
  top: "conv2_2"
  scale_param {
    bias_term: true
  }
}
layer {
  name: "relu2_2"
  type: "PReLU"
  bottom: "conv2_2"
  top: "conv2_2"
}
layer {
  name: "conv2_3"
  type: "Convolution"
  bottom: "conv2_2"
  top: "conv2_3"
  param {
    lr_mult: 1
    decay_mult: 1
  }
  param {
    lr_mult: 0
    decay_mult: 0
  }
  convolution_param {
    num_output: 128
    pad: 1
    kernel_size: 3
    stride: 1
    weight_filler {
      type: "gaussian"
      std: 0.01
    }
    bias_filler {
      type: "constant"
      value: 0
    }
  }
}
layer {
  name: "bn2_3"
  type: "BatchNorm"
  bottom: "conv2_3"
  top: "conv2_3"
}
layer {
  name: "scale_conv2_3"
  type: "Scale"
  bottom: "conv2_3"
  top: "conv2_3"
  scale_param {
    bias_term: true
  }
}
layer {
  name: "relu2_3"
  type: "PReLU"
  bottom: "conv2_3"
  top: "conv2_3"
}
layer {
  name: "res2_3"
  type: "Eltwise"
  bottom: "conv2_1"
  bottom: "conv2_3"
  top: "res2_3"
  eltwise_param {
    operation: SUM
  }
}
layer {
  name: "conv2_4"
  type: "Convolution"
  bottom: "res2_3"
  top: "conv2_4"
  param {
    lr_mult: 1
    decay_mult: 1
  }
  param {
    lr_mult: 0
    decay_mult: 0
  }
  convolution_param {
    num_output: 128
    pad: 1
    kernel_size: 3
    stride: 1
    weight_filler {
      type: "gaussian"
      std: 0.01
    }
    bias_filler {
      type: "constant"
      value: 0
    }
  }
}
layer {
  name: "bn2_4"
  type: "BatchNorm"
  bottom: "conv2_4"
  top: "conv2_4"
}
layer {
  name: "scale_conv2_4"
  type: "Scale"
  bottom: "conv2_4"
  top: "conv2_4"
  scale_param {
    bias_term: true
  }
}
layer {
  name: "relu2_4"
  type: "PReLU"
  bottom: "conv2_4"
  top: "conv2_4"
}
layer {
  name: "conv2_5"
  type: "Convolution"
  bottom: "conv2_4"
  top: "conv2_5"
  param {
    lr_mult: 1
    decay_mult: 1
  }
  param {
    lr_mult: 0
    decay_mult: 0
  }
  convolution_param {
    num_output: 128
    pad: 1
    kernel_size: 3
    stride: 1
    weight_filler {
      type: "gaussian"
      std: 0.01
    }
    bias_filler {
      type: "constant"
      value: 0
    }
  }
}
layer {
  name: "bn2_5"
  type: "BatchNorm"
  bottom: "conv2_5"
  top: "conv2_5"
}
layer {
  name: "scale_conv2_5"
  type: "Scale"
  bottom: "conv2_5"
  top: "conv2_5"
  scale_param {
    bias_term: true
  }
}
layer {
  name: "relu2_5"
  type: "PReLU"
  bottom: "conv2_5"
  top: "conv2_5"
}
layer {
  name: "res2_5"
  type: "Eltwise"
  bottom: "res2_3"
  bottom: "conv2_5"
  top: "res2_5"
  eltwise_param {
    operation: SUM
  }
}
layer {
  name: "conv2_6"
  type: "Convolution"
  bottom: "res2_5"
  top: "conv2_6"
  param {
    lr_mult: 1
    decay_mult: 1
  }
  param {
    lr_mult: 0
    decay_mult: 0
  }
  convolution_param {
    num_output: 128
    pad: 1
    kernel_size: 3
    stride: 1
    weight_filler {
      type: "gaussian"
      std: 0.01
    }
    bias_filler {
      type: "constant"
      value: 0
    }
  }
}
layer {
  name: "bn2_6"
  type: "BatchNorm"
  bottom: "conv2_6"
  top: "conv2_6"
}
layer {
  name: "scale_conv2_6"
  type: "Scale"
  bottom: "conv2_6"
  top: "conv2_6"
  scale_param {
    bias_term: true
  }
}
layer {
  name: "relu2_6"
  type: "PReLU"
  bottom: "conv2_6"
  top: "conv2_6"
}
layer {
  name: "conv2_7"
  type: "Convolution"
  bottom: "conv2_6"
  top: "conv2_7"
  param {
    lr_mult: 1
    decay_mult: 1
  }
  param {
    lr_mult: 0
    decay_mult: 0
  }
  convolution_param {
    num_output: 128
    pad: 1
    kernel_size: 3
    stride: 1
    weight_filler {
      type: "gaussian"
      std: 0.01
    }
    bias_filler {
      type: "constant"
      value: 0
    }
  }
}
layer {
  name: "bn2_7"
  type: "BatchNorm"
  bottom: "conv2_7"
  top: "conv2_7"
}
layer {
  name: "scale_conv2_7"
  type: "Scale"
  bottom: "conv2_7"
  top: "conv2_7"
  scale_param {
    bias_term: true
  }
}
layer {
  name: "relu2_7"
  type: "PReLU"
  bottom: "conv2_7"
  top: "conv2_7"
}
layer {
  name: "res2_7"
  type: "Eltwise"
  bottom: "res2_5"
  bottom: "conv2_7"
  top: "res2_7"
  eltwise_param {
    operation: SUM
  }
}
layer {
  name: "conv2_8"
  type: "Convolution"
  bottom: "res2_7"
  top: "conv2_8"
  param {
    lr_mult: 1
    decay_mult: 1
  }
  param {
    lr_mult: 0
    decay_mult: 0
  }
  convolution_param {
    num_output: 128
    pad: 1
    kernel_size: 3
    stride: 1
    weight_filler {
      type: "gaussian"
      std: 0.01
    }
    bias_filler {
      type: "constant"
      value: 0
    }
  }
}
layer {
  name: "bn2_8"
  type: "BatchNorm"
  bottom: "conv2_8"
  top: "conv2_8"
}
layer {
  name: "scale_conv2_8"
  type: "Scale"
  bottom: "conv2_8"
  top: "conv2_8"
  scale_param {
    bias_term: true
  }
}
layer {
  name: "relu2_8"
  type: "PReLU"
  bottom: "conv2_8"
  top: "conv2_8"
}
layer {
  name: "conv2_9"
  type: "Convolution"
  bottom: "conv2_8"
  top: "conv2_9"
  param {
    lr_mult: 1
    decay_mult: 1
  }
  param {
    lr_mult: 0
    decay_mult: 0
  }
  convolution_param {
    num_output: 128
    pad: 1
    kernel_size: 3
    stride: 1
    weight_filler {
      type: "gaussian"
      std: 0.01
    }
    bias_filler {
      type: "constant"
      value: 0
    }
  }
}
layer {
  name: "bn2_9"
  type: "BatchNorm"
  bottom: "conv2_9"
  top: "conv2_9"
}
layer {
  name: "scale_conv2_9"
  type: "Scale"
  bottom: "conv2_9"
  top: "conv2_9"
  scale_param {
    bias_term: true
  }
}
layer {
  name: "relu2_9"
  type: "PReLU"
  bottom: "conv2_9"
  top: "conv2_9"
}
layer {
  name: "res2_9"
  type: "Eltwise"
  bottom: "res2_7"
  bottom: "conv2_9"
  top: "res2_9"
  eltwise_param {
    operation: SUM
  }
}
layer {
  name: "conv3_1"
  type: "Convolution"
  bottom: "res2_9"
  top: "conv3_1"
  param {
    lr_mult: 1
    decay_mult: 1
  }
  param {
    lr_mult: 2
    decay_mult: 0
  }
  convolution_param {
    num_output: 256
    pad: 1
    kernel_size: 3
    stride: 2
    weight_filler {
      type: "xavier"
    }
    bias_filler {
      type: "constant"
      value: 0
    }
  }
}
layer {
  name: "bn3_1"
  type: "BatchNorm"
  bottom: "conv3_1"
  top: "conv3_1"
}
layer {
  name: "scale_conv3_1"
  type: "Scale"
  bottom: "conv3_1"
  top: "conv3_1"
  scale_param {
    bias_term: true
  }
}
layer {
  name: "relu3_1"
  type: "PReLU"
  bottom: "conv3_1"
  top: "conv3_1"
}
layer {
  name: "conv3_2"
  type: "Convolution"
  bottom: "conv3_1"
  top: "conv3_2"
  param {
    lr_mult: 1
    decay_mult: 1
  }
  param {
    lr_mult: 0
    decay_mult: 0
  }
  convolution_param {
    num_output: 256
    pad: 1
    kernel_size: 3
    stride: 1
    weight_filler {
      type: "gaussian"
      std: 0.01
    }
    bias_filler {
      type: "constant"
      value: 0
    }
  }
}
layer {
  name: "bn3_2"
  type: "BatchNorm"
  bottom: "conv3_2"
  top: "conv3_2"
}
layer {
  name: "scale_conv3_2"
  type: "Scale"
  bottom: "conv3_2"
  top: "conv3_2"
  scale_param {
    bias_term: true
  }
}
layer {
  name: "relu3_2"
  type: "PReLU"
  bottom: "conv3_2"
  top: "conv3_2"
}
layer {
  name: "conv3_3"
  type: "Convolution"
  bottom: "conv3_2"
  top: "conv3_3"
  param {
    lr_mult: 1
    decay_mult: 1
  }
  param {
    lr_mult: 0
    decay_mult: 0
  }
  convolution_param {
    num_output: 256
    pad: 1
    kernel_size: 3
    stride: 1
    weight_filler {
      type: "gaussian"
      std: 0.01
    }
    bias_filler {
      type: "constant"
      value: 0
    }
  }
}
layer {
  name: "bn3_3"
  type: "BatchNorm"
  bottom: "conv3_3"
  top: "conv3_3"
}
layer {
  name: "scale_conv3_3"
  type: "Scale"
  bottom: "conv3_3"
  top: "conv3_3"
  scale_param {
    bias_term: true
  }
}
layer {
  name: "relu3_3"
  type: "PReLU"
  bottom: "conv3_3"
  top: "conv3_3"
}
layer {
  name: "res3_3"
  type: "Eltwise"
  bottom: "conv3_1"
  bottom: "conv3_3"
  top: "res3_3"
  eltwise_param {
    operation: SUM
  }
}
layer {
  name: "conv3_4"
  type: "Convolution"
  bottom: "res3_3"
  top: "conv3_4"
  param {
    lr_mult: 1
    decay_mult: 1
  }
  param {
    lr_mult: 0
    decay_mult: 0
  }
  convolution_param {
    num_output: 256
    pad: 1
    kernel_size: 3
    stride: 1
    weight_filler {
      type: "gaussian"
      std: 0.01
    }
    bias_filler {
      type: "constant"
      value: 0
    }
  }
}
layer {
  name: "bn3_4"
  type: "BatchNorm"
  bottom: "conv3_4"
  top: "conv3_4"
}
layer {
  name: "scale_conv3_4"
  type: "Scale"
  bottom: "conv3_4"
  top: "conv3_4"
  scale_param {
    bias_term: true
  }
}
layer {
  name: "relu3_4"
  type: "PReLU"
  bottom: "conv3_4"
  top: "conv3_4"
}
layer {
  name: "conv3_5"
  type: "Convolution"
  bottom: "conv3_4"
  top: "conv3_5"
  param {
    lr_mult: 1
    decay_mult: 1
  }
  param {
    lr_mult: 0
    decay_mult: 0
  }
  convolution_param {
    num_output: 256
    pad: 1
    kernel_size: 3
    stride: 1
    weight_filler {
      type: "gaussian"
      std: 0.01
    }
    bias_filler {
      type: "constant"
      value: 0
    }
  }
}
layer {
  name: "bn3_5"
  type: "BatchNorm"
  bottom: "conv3_5"
  top: "conv3_5"
}
layer {
  name: "scale_conv3_5"
  type: "Scale"
  bottom: "conv3_5"
  top: "conv3_5"
  scale_param {
    bias_term: true
  }
}
layer {
  name: "relu3_5"
  type: "PReLU"
  bottom: "conv3_5"
  top: "conv3_5"
}
layer {
  name: "res3_5"
  type: "Eltwise"
  bottom: "res3_3"
  bottom: "conv3_5"
  top: "res3_5"
  eltwise_param {
    operation: SUM
  }
}
layer {
  name: "conv3_6"
  type: "Convolution"
  bottom: "res3_5"
  top: "conv3_6"
  param {
    lr_mult: 1
    decay_mult: 1
  }
  param {
    lr_mult: 0
    decay_mult: 0
  }
  convolution_param {
    num_output: 256
    pad: 1
    kernel_size: 3
    stride: 1
    weight_filler {
      type: "gaussian"
      std: 0.01
    }
    bias_filler {
      type: "constant"
      value: 0
    }
  }
}
layer {
  name: "bn3_6"
  type: "BatchNorm"
  bottom: "conv3_6"
  top: "conv3_6"
}
layer {
  name: "scale_conv3_6"
  type: "Scale"
  bottom: "conv3_6"
  top: "conv3_6"
  scale_param {
    bias_term: true
  }
}
layer {
  name: "relu3_6"
  type: "PReLU"
  bottom: "conv3_6"
  top: "conv3_6"
}
layer {
  name: "conv3_7"
  type: "Convolution"
  bottom: "conv3_6"
  top: "conv3_7"
  param {
    lr_mult: 1
    decay_mult: 1
  }
  param {
    lr_mult: 0
    decay_mult: 0
  }
  convolution_param {
    num_output: 256
    pad: 1
    kernel_size: 3
    stride: 1
    weight_filler {
      type: "gaussian"
      std: 0.01
    }
    bias_filler {
      type: "constant"
      value: 0
    }
  }
}
layer {
  name: "bn3_7"
  type: "BatchNorm"
  bottom: "conv3_7"
  top: "conv3_7"
}
layer {
  name: "scale_conv3_7"
  type: "Scale"
  bottom: "conv3_7"
  top: "conv3_7"
  scale_param {
    bias_term: true
  }
}
layer {
  name: "relu3_7"
  type: "PReLU"
  bottom: "conv3_7"
  top: "conv3_7"
}
layer {
  name: "res3_7"
  type: "Eltwise"
  bottom: "res3_5"
  bottom: "conv3_7"
  top: "res3_7"
  eltwise_param {
    operation: SUM
  }
}
layer {
  name: "conv3_8"
  type: "Convolution"
  bottom: "res3_7"
  top: "conv3_8"
  param {
    lr_mult: 1
    decay_mult: 1
  }
  param {
    lr_mult: 0
    decay_mult: 0
  }
  convolution_param {
    num_output: 256
    pad: 1
    kernel_size: 3
    stride: 1
    weight_filler {
      type: "gaussian"
      std: 0.01
    }
    bias_filler {
      type: "constant"
      value: 0
    }
  }
}
layer {
  name: "bn3_8"
  type: "BatchNorm"
  bottom: "conv3_8"
  top: "conv3_8"
}
layer {
  name: "scale_conv3_8"
  type: "Scale"
  bottom: "conv3_8"
  top: "conv3_8"
  scale_param {
    bias_term: true
  }
}
layer {
  name: "relu3_8"
  type: "PReLU"
  bottom: "conv3_8"
  top: "conv3_8"
}
layer {
  name: "conv3_9"
  type: "Convolution"
  bottom: "conv3_8"
  top: "conv3_9"
  param {
    lr_mult: 1
    decay_mult: 1
  }
  param {
    lr_mult: 0
    decay_mult: 0
  }
  convolution_param {
    num_output: 256
    pad: 1
    kernel_size: 3
    stride: 1
    weight_filler {
      type: "gaussian"
      std: 0.01
    }
    bias_filler {
      type: "constant"
      value: 0
    }
  }
}
layer {
  name: "bn3_9"
  type: "BatchNorm"
  bottom: "conv3_9"
  top: "conv3_9"
}
layer {
  name: "scale_conv3_9"
  type: "Scale"
  bottom: "conv3_9"
  top: "conv3_9"
  scale_param {
    bias_term: true
  }
}
layer {
  name: "relu3_9"
  type: "PReLU"
  bottom: "conv3_9"
  top: "conv3_9"
}
layer {
  name: "res3_9"
  type: "Eltwise"
  bottom: "res3_7"
  bottom: "conv3_9"
  top: "res3_9"
  eltwise_param {
    operation: SUM
  }
}
layer {
  name: "conv3_10"
  type: "Convolution"
  bottom: "res3_9"
  top: "conv3_10"
  param {
    lr_mult: 1
    decay_mult: 1
  }
  param {
    lr_mult: 0
    decay_mult: 0
  }
  convolution_param {
    num_output: 256
    pad: 1
    kernel_size: 3
    stride: 1
    weight_filler {
      type: "gaussian"
      std: 0.01
    }
    bias_filler {
      type: "constant"
      value: 0
    }
  }
}
layer {
  name: "bn3_10"
  type: "BatchNorm"
  bottom: "conv3_10"
  top: "conv3_10"
}
layer {
  name: "scale_conv3_10"
  type: "Scale"
  bottom: "conv3_10"
  top: "conv3_10"
  scale_param {
    bias_term: true
  }
}
layer {
  name: "relu3_10"
  type: "PReLU"
  bottom: "conv3_10"
  top: "conv3_10"
}
layer {
  name: "conv3_11"
  type: "Convolution"
  bottom: "conv3_10"
  top: "conv3_11"
  param {
    lr_mult: 1
    decay_mult: 1
  }
  param {
    lr_mult: 0
    decay_mult: 0
  }
  convolution_param {
    num_output: 256
    pad: 1
    kernel_size: 3
    stride: 1
    weight_filler {
      type: "gaussian"
      std: 0.01
    }
    bias_filler {
      type: "constant"
      value: 0
    }
  }
}
layer {
  name: "bn3_11"
  type: "BatchNorm"
  bottom: "conv3_11"
  top: "conv3_11"
}
layer {
  name: "scale_conv3_11"
  type: "Scale"
  bottom: "conv3_11"
  top: "conv3_11"
  scale_param {
    bias_term: true
  }
}
layer {
  name: "relu3_11"
  type: "PReLU"
  bottom: "conv3_11"
  top: "conv3_11"
}
layer {
  name: "res3_11"
  type: "Eltwise"
  bottom: "res3_9"
  bottom: "conv3_11"
  top: "res3_11"
  eltwise_param {
    operation: SUM
  }
}
layer {
  name: "conv3_12"
  type: "Convolution"
  bottom: "res3_11"
  top: "conv3_12"
  param {
    lr_mult: 1
    decay_mult: 1
  }
  param {
    lr_mult: 0
    decay_mult: 0
  }
  convolution_param {
    num_output: 256
    pad: 1
    kernel_size: 3
    stride: 1
    weight_filler {
      type: "gaussian"
      std: 0.01
    }
    bias_filler {
      type: "constant"
      value: 0
    }
  }
}
layer {
  name: "bn3_12"
  type: "BatchNorm"
  bottom: "conv3_12"
  top: "conv3_12"
}
layer {
  name: "scale_conv3_12"
  type: "Scale"
  bottom: "conv3_12"
  top: "conv3_12"
  scale_param {
    bias_term: true
  }
}
layer {
  name: "relu3_12"
  type: "PReLU"
  bottom: "conv3_12"
  top: "conv3_12"
}
layer {
  name: "conv3_13"
  type: "Convolution"
  bottom: "conv3_12"
  top: "conv3_13"
  param {
    lr_mult: 1
    decay_mult: 1
  }
  param {
    lr_mult: 0
    decay_mult: 0
  }
  convolution_param {
    num_output: 256
    pad: 1
    kernel_size: 3
    stride: 1
    weight_filler {
      type: "gaussian"
      std: 0.01
    }
    bias_filler {
      type: "constant"
      value: 0
    }
  }
}
layer {
  name: "bn3_13"
  type: "BatchNorm"
  bottom: "conv3_13"
  top: "conv3_13"
}
layer {
  name: "scale_conv3_13"
  type: "Scale"
  bottom: "conv3_13"
  top: "conv3_13"
  scale_param {
    bias_term: true
  }
}
layer {
  name: "relu3_13"
  type: "PReLU"
  bottom: "conv3_13"
  top: "conv3_13"
}
layer {
  name: "res3_13"
  type: "Eltwise"
  bottom: "res3_11"
  bottom: "conv3_13"
  top: "res3_13"
  eltwise_param {
    operation: SUM
  }
}
layer {
  name: "conv3_14"
  type: "Convolution"
  bottom: "res3_13"
  top: "conv3_14"
  param {
    lr_mult: 1
    decay_mult: 1
  }
  param {
    lr_mult: 0
    decay_mult: 0
  }
  convolution_param {
    num_output: 256
    pad: 1
    kernel_size: 3
    stride: 1
    weight_filler {
      type: "gaussian"
      std: 0.01
    }
    bias_filler {
      type: "constant"
      value: 0
    }
  }
}
layer {
  name: "bn3_14"
  type: "BatchNorm"
  bottom: "conv3_14"
  top: "conv3_14"
}
layer {
  name: "scale_conv3_14"
  type: "Scale"
  bottom: "conv3_14"
  top: "conv3_14"
  scale_param {
    bias_term: true
  }
}
layer {
  name: "relu3_14"
  type: "PReLU"
  bottom: "conv3_14"
  top: "conv3_14"
}
layer {
  name: "conv3_15"
  type: "Convolution"
  bottom: "conv3_14"
  top: "conv3_15"
  param {
    lr_mult: 1
    decay_mult: 1
  }
  param {
    lr_mult: 0
    decay_mult: 0
  }
  convolution_param {
    num_output: 256
    pad: 1
    kernel_size: 3
    stride: 1
    weight_filler {
      type: "gaussian"
      std: 0.01
    }
    bias_filler {
      type: "constant"
      value: 0
    }
  }
}
layer {
  name: "bn3_15"
  type: "BatchNorm"
  bottom: "conv3_15"
  top: "conv3_15"
}
layer {
  name: "scale_conv3_15"
  type: "Scale"
  bottom: "conv3_15"
  top: "conv3_15"
  scale_param {
    bias_term: true
  }
}
layer {
  name: "relu3_15"
  type: "PReLU"
  bottom: "conv3_15"
  top: "conv3_15"
}
layer {
  name: "res3_15"
  type: "Eltwise"
  bottom: "res3_13"
  bottom: "conv3_15"
  top: "res3_15"
  eltwise_param {
    operation: SUM
  }
}
layer {
  name: "conv3_16"
  type: "Convolution"
  bottom: "res3_15"
  top: "conv3_16"
  param {
    lr_mult: 1
    decay_mult: 1
  }
  param {
    lr_mult: 0
    decay_mult: 0
  }
  convolution_param {
    num_output: 256
    pad: 1
    kernel_size: 3
    stride: 1
    weight_filler {
      type: "gaussian"
      std: 0.01
    }
    bias_filler {
      type: "constant"
      value: 0
    }
  }
}
layer {
  name: "bn3_16"
  type: "BatchNorm"
  bottom: "conv3_16"
  top: "conv3_16"
}
layer {
  name: "scale_conv3_16"
  type: "Scale"
  bottom: "conv3_16"
  top: "conv3_16"
  scale_param {
    bias_term: true
  }
}
layer {
  name: "relu3_16"
  type: "PReLU"
  bottom: "conv3_16"
  top: "conv3_16"
}
layer {
  name: "conv3_17"
  type: "Convolution"
  bottom: "conv3_16"
  top: "conv3_17"
  param {
    lr_mult: 1
    decay_mult: 1
  }
  param {
    lr_mult: 0
    decay_mult: 0
  }
  convolution_param {
    num_output: 256
    pad: 1
    kernel_size: 3
    stride: 1
    weight_filler {
      type: "gaussian"
      std: 0.01
    }
    bias_filler {
      type: "constant"
      value: 0
    }
  }
}
layer {
  name: "bn3_17"
  type: "BatchNorm"
  bottom: "conv3_17"
  top: "conv3_17"
}
layer {
  name: "scale_conv3_17"
  type: "Scale"
  bottom: "conv3_17"
  top: "conv3_17"
  scale_param {
    bias_term: true
  }
}
layer {
  name: "relu3_17"
  type: "PReLU"
  bottom: "conv3_17"
  top: "conv3_17"
}
layer {
  name: "res3_17"
  type: "Eltwise"
  bottom: "res3_15"
  bottom: "conv3_17"
  top: "res3_17"
  eltwise_param {
    operation: SUM
  }
}
layer {
  name: "conv4_1"
  type: "Convolution"
  bottom: "res3_17"
  top: "conv4_1"
  param {
    lr_mult: 1
    decay_mult: 1
  }
  param {
    lr_mult: 2
    decay_mult: 0
  }
  convolution_param {
    num_output: 512
    pad: 1
    kernel_size: 3
    stride: 2
    weight_filler {
      type: "xavier"
    }
    bias_filler {
      type: "constant"
      value: 0
    }
  }
}
layer {
  name: "bn4_1"
  type: "BatchNorm"
  bottom: "conv4_1"
  top: "conv4_1"
}
layer {
  name: "scale_conv4_1"
  type: "Scale"
  bottom: "conv4_1"
  top: "conv4_1"
  scale_param {
    bias_term: true
  }
}
layer {
  name: "relu4_1"
  type: "PReLU"
  bottom: "conv4_1"
  top: "conv4_1"
}
layer {
  name: "conv4_2"
  type: "Convolution"
  bottom: "conv4_1"
  top: "conv4_2"
  param {
    lr_mult: 1
    decay_mult: 1
  }
  param {
    lr_mult: 0
    decay_mult: 0
  }
  convolution_param {
    num_output: 512
    pad: 1
    kernel_size: 3
    stride: 1
    weight_filler {
      type: "gaussian"
      std: 0.01
    }
    bias_filler {
      type: "constant"
      value: 0
    }
  }
}
layer {
  name: "bn4_2"
  type: "BatchNorm"
  bottom: "conv4_2"
  top: "conv4_2"
}
layer {
  name: "scale_conv4_2"
  type: "Scale"
  bottom: "conv4_2"
  top: "conv4_2"
  scale_param {
    bias_term: true
  }
}
layer {
  name: "relu4_2"
  type: "PReLU"
  bottom: "conv4_2"
  top: "conv4_2"
}
layer {
  name: "conv4_3"
  type: "Convolution"
  bottom: "conv4_2"
  top: "conv4_3"
  param {
    lr_mult: 1
    decay_mult: 1
  }
  param {
    lr_mult: 0
    decay_mult: 0
  }
  convolution_param {
    num_output: 512
    pad: 1
    kernel_size: 3
    stride: 1
    weight_filler {
      type: "gaussian"
      std: 0.01
    }
    bias_filler {
      type: "constant"
      value: 0
    }
  }
}
layer {
  name: "bn4_3"
  type: "BatchNorm"
  bottom: "conv4_3"
  top: "conv4_3"
}
layer {
  name: "scale_conv4_3"
  type: "Scale"
  bottom: "conv4_3"
  top: "conv4_3"
  scale_param {
    bias_term: true
  }
}
layer {
  name: "relu4_3"
  type: "PReLU"
  bottom: "conv4_3"
  top: "conv4_3"
}
layer {
  name: "res4_3"
  type: "Eltwise"
  bottom: "conv4_1"
  bottom: "conv4_3"
  top: "res4_3"
  eltwise_param {
    operation: SUM
  }
}
layer {
  name: "conv4_4"
  type: "Convolution"
  bottom: "res4_3"
  top: "conv4_4"
  param {
    lr_mult: 1
    decay_mult: 1
  }
  param {
    lr_mult: 0
    decay_mult: 0
  }
  convolution_param {
    num_output: 512
    pad: 1
    kernel_size: 3
    stride: 1
    weight_filler {
      type: "gaussian"
      std: 0.01
    }
    bias_filler {
      type: "constant"
      value: 0
    }
  }
}
layer {
  name: "bn4_4"
  type: "BatchNorm"
  bottom: "conv4_4"
  top: "conv4_4"
}
layer {
  name: "scale_conv4_4"
  type: "Scale"
  bottom: "conv4_4"
  top: "conv4_4"
  scale_param {
    bias_term: true
  }
}
layer {
  name: "relu4_4"
  type: "PReLU"
  bottom: "conv4_4"
  top: "conv4_4"
}
layer {
  name: "conv4_5"
  type: "Convolution"
  bottom: "conv4_4"
  top: "conv4_5"
  param {
    lr_mult: 1
    decay_mult: 1
  }
  param {
    lr_mult: 0
    decay_mult: 0
  }
  convolution_param {
    num_output: 512
    pad: 1
    kernel_size: 3
    stride: 1
    weight_filler {
      type: "gaussian"
      std: 0.01
    }
    bias_filler {
      type: "constant"
      value: 0
    }
  }
}
layer {
  name: "bn4_5"
  type: "BatchNorm"
  bottom: "conv4_5"
  top: "conv4_5"
}
layer {
  name: "scale_conv4_5"
  type: "Scale"
  bottom: "conv4_5"
  top: "conv4_5"
  scale_param {
    bias_term: true
  }
}
layer {
  name: "relu4_5"
  type: "PReLU"
  bottom: "conv4_5"
  top: "conv4_5"
}
layer {
  name: "res4_5"
  type: "Eltwise"
  bottom: "res4_3"
  bottom: "conv4_5"
  top: "res4_5"
  eltwise_param {
    operation: SUM
  }
}
layer {
  name: "bn_pre_fc5"
  type: "BatchNorm"
  bottom: "res4_5"
  top: "pre_fc5"
}
layer {
  name: "scale_pre_fc5"
  type: "Scale"
  bottom: "pre_fc5"
  top: "pre_fc5"
  scale_param {
    bias_term: true
  }
}
layer {
  name: "dropout_pre_fc5"
  type: "Dropout"
  bottom: "pre_fc5"
  top: "pre_fc5"
  dropout_param {
    dropout_ratio: 0.4
  }
}
layer {
  name: "fc5"
  type: "InnerProduct"
  bottom: "pre_fc5"
  top: "fc5"
  param {
    lr_mult: 1
    decay_mult: 1
  }
  param {
    lr_mult: 2
    decay_mult: 0
  }
  inner_product_param {
    num_output: 512
    weight_filler {
      type: "xavier"
    }
    bias_filler {
      type: "constant"
      value: 0
    }
  }
}
layer {
  name: "bn5"
  type: "BatchNorm"
  bottom: "fc5"
  top: "fc5"
}
layer {
  name: "scale5"
  type: "Scale"
  bottom: "fc5"
  top: "fc5"
  scale_param {
    bias_term: true
  }
}
layer {
  name: "norm1"
  type: "Normalize"
  bottom: "fc5"
  top: "norm1"
}
layer {
  name: "fc6_l2"
  type: "InnerProduct"
  bottom: "norm1"
  top: "fc6"
  param {
    lr_mult: 1
  }
  inner_product_param {
    num_output: 180855
    bias_term: false
    weight_filler {
      type: "xavier"
    }
    normalize: true
  }
}
layer {
  name: "combined_margin"
  type: "CombinedMargin"
  bottom: "fc6"
  bottom: "label"
  top: "fc6_margin"
  combined_margin_param {
    m1: 1
    m2: 0.3
    m3: 0.2
  }
}
layer {
  name: "fc6_margin_scale"
  type: "Scale"
  bottom: "fc6_margin"
  top: "fc6_margin_scale"
  param {
    lr_mult: 0
    decay_mult: 0
  }
  scale_param {
    filler {
      type: "constant"
      value: 64
    }
  }
}
layer {
  name: "softmax_loss"
  type: "SoftmaxWithLoss"
  bottom: "fc6_margin_scale"
  bottom: "label"
  top: "softmax_loss"
  loss_weight: 1
}
mem_param {
  optimize_train: true
  optimize_test: true
  exclude_blob: "fc5"
}
I0827 16:13:35.645159  8827 layer_factory.hpp:77] Creating layer data
I0827 16:13:35.645207  8827 net.cpp:88] Creating Layer data
I0827 16:13:35.645220  8827 net.cpp:414] data -> data
I0827 16:13:35.645267  8827 net.cpp:414] data -> label
I0827 16:13:35.645714  8827 image_data_layer.cpp:38] Opening file data/train_list.txt
I0827 16:13:37.693437  8827 image_data_layer.cpp:53] Shuffling data
I0827 16:13:38.292866  8827 image_data_layer.cpp:63] A total of 6753545 images.
I0827 16:13:38.292939  8827 image_data_layer.cpp:70] Skipping first 3968 data points.
I0827 16:13:38.294914  8827 image_data_layer.cpp:90] output data size: 128,3,112,96
I0827 16:13:38.333730  8827 net.cpp:135] Setting up data
I0827 16:13:38.333890  8827 net.cpp:142] Top shape: 128 3 112 96 (4128768)
I0827 16:13:38.333925  8827 net.cpp:142] Top shape: 128 (128)
I0827 16:13:38.333932  8827 net.cpp:150] Memory required for data: 16515584
I0827 16:13:38.333959  8827 layer_factory.hpp:77] Creating layer label_data_1_split
I0827 16:13:38.333993  8827 net.cpp:88] Creating Layer label_data_1_split
I0827 16:13:38.334003  8827 net.cpp:440] label_data_1_split <- label
I0827 16:13:38.334055  8827 net.cpp:414] label_data_1_split -> label_data_1_split_0
I0827 16:13:38.334074  8827 net.cpp:414] label_data_1_split -> label_data_1_split_1
I0827 16:13:38.334194  8827 net.cpp:135] Setting up label_data_1_split
I0827 16:13:38.334208  8827 net.cpp:142] Top shape: 128 (128)
I0827 16:13:38.334214  8827 net.cpp:142] Top shape: 128 (128)
I0827 16:13:38.334219  8827 net.cpp:150] Memory required for data: 16516608
I0827 16:13:38.334225  8827 layer_factory.hpp:77] Creating layer conv1_1
I0827 16:13:38.334259  8827 net.cpp:88] Creating Layer conv1_1
I0827 16:13:38.334266  8827 net.cpp:440] conv1_1 <- data
I0827 16:13:38.334277  8827 net.cpp:414] conv1_1 -> conv1_1
I0827 16:13:38.728061  8827 net.cpp:135] Setting up conv1_1
I0827 16:13:38.728106  8827 net.cpp:142] Top shape: 128 64 56 48 (22020096)
I0827 16:13:38.728114  8827 net.cpp:150] Memory required for data: 104596992
I0827 16:13:38.728157  8827 layer_factory.hpp:77] Creating layer bn1_1
I0827 16:13:38.728186  8827 net.cpp:88] Creating Layer bn1_1
I0827 16:13:38.728199  8827 net.cpp:440] bn1_1 <- conv1_1
I0827 16:13:38.728247  8827 net.cpp:401] bn1_1 -> conv1_1 (in-place)
I0827 16:13:38.728480  8827 net.cpp:135] Setting up bn1_1
I0827 16:13:38.728495  8827 net.cpp:142] Top shape: 128 64 56 48 (22020096)
I0827 16:13:38.728504  8827 net.cpp:150] Memory required for data: 192677376
I0827 16:13:38.728549  8827 layer_factory.hpp:77] Creating layer scale_conv1_1
I0827 16:13:38.728574  8827 net.cpp:88] Creating Layer scale_conv1_1
I0827 16:13:38.728602  8827 net.cpp:440] scale_conv1_1 <- conv1_1
I0827 16:13:38.728615  8827 net.cpp:401] scale_conv1_1 -> conv1_1 (in-place)
I0827 16:13:38.728693  8827 layer_factory.hpp:77] Creating layer scale_conv1_1
I0827 16:13:38.728826  8827 net.cpp:135] Setting up scale_conv1_1
I0827 16:13:38.728842  8827 net.cpp:142] Top shape: 128 64 56 48 (22020096)
I0827 16:13:38.728849  8827 net.cpp:150] Memory required for data: 280757760
I0827 16:13:38.728863  8827 layer_factory.hpp:77] Creating layer relu1_1
I0827 16:13:38.728883  8827 net.cpp:88] Creating Layer relu1_1
I0827 16:13:38.728893  8827 net.cpp:440] relu1_1 <- conv1_1
I0827 16:13:38.728904  8827 net.cpp:401] relu1_1 -> conv1_1 (in-place)
I0827 16:13:38.729903  8827 net.cpp:135] Setting up relu1_1
I0827 16:13:38.729923  8827 net.cpp:142] Top shape: 128 64 56 48 (22020096)
I0827 16:13:38.729931  8827 net.cpp:150] Memory required for data: 368838144
I0827 16:13:38.729943  8827 layer_factory.hpp:77] Creating layer conv1_1_relu1_1_0_split
I0827 16:13:38.729976  8827 net.cpp:88] Creating Layer conv1_1_relu1_1_0_split
I0827 16:13:38.729986  8827 net.cpp:440] conv1_1_relu1_1_0_split <- conv1_1
I0827 16:13:38.729998  8827 net.cpp:414] conv1_1_relu1_1_0_split -> conv1_1_relu1_1_0_split_0
I0827 16:13:38.730029  8827 net.cpp:414] conv1_1_relu1_1_0_split -> conv1_1_relu1_1_0_split_1
I0827 16:13:38.730082  8827 net.cpp:135] Setting up conv1_1_relu1_1_0_split
I0827 16:13:38.730095  8827 net.cpp:142] Top shape: 128 64 56 48 (22020096)
I0827 16:13:38.730105  8827 net.cpp:142] Top shape: 128 64 56 48 (22020096)
I0827 16:13:38.730114  8827 net.cpp:150] Memory required for data: 544998912
I0827 16:13:38.730123  8827 layer_factory.hpp:77] Creating layer conv1_2
I0827 16:13:38.730145  8827 net.cpp:88] Creating Layer conv1_2
I0827 16:13:38.730154  8827 net.cpp:440] conv1_2 <- conv1_1_relu1_1_0_split_0
I0827 16:13:38.730166  8827 net.cpp:414] conv1_2 -> conv1_2
I0827 16:13:38.734781  8827 net.cpp:135] Setting up conv1_2
I0827 16:13:38.734802  8827 net.cpp:142] Top shape: 128 64 56 48 (22020096)
I0827 16:13:38.734810  8827 net.cpp:150] Memory required for data: 633079296
I0827 16:13:38.734832  8827 layer_factory.hpp:77] Creating layer bn1_2
I0827 16:13:38.734849  8827 net.cpp:88] Creating Layer bn1_2
I0827 16:13:38.734861  8827 net.cpp:440] bn1_2 <- conv1_2
I0827 16:13:38.734872  8827 net.cpp:401] bn1_2 -> conv1_2 (in-place)
I0827 16:13:38.735070  8827 net.cpp:135] Setting up bn1_2
I0827 16:13:38.735085  8827 net.cpp:142] Top shape: 128 64 56 48 (22020096)
I0827 16:13:38.735093  8827 net.cpp:150] Memory required for data: 721159680
I0827 16:13:38.735131  8827 layer_factory.hpp:77] Creating layer scale_conv1_2
I0827 16:13:38.735144  8827 net.cpp:88] Creating Layer scale_conv1_2
I0827 16:13:38.735153  8827 net.cpp:440] scale_conv1_2 <- conv1_2
I0827 16:13:38.735182  8827 net.cpp:401] scale_conv1_2 -> conv1_2 (in-place)
I0827 16:13:38.735236  8827 layer_factory.hpp:77] Creating layer scale_conv1_2
I0827 16:13:38.735357  8827 net.cpp:135] Setting up scale_conv1_2
I0827 16:13:38.735370  8827 net.cpp:142] Top shape: 128 64 56 48 (22020096)
I0827 16:13:38.735378  8827 net.cpp:150] Memory required for data: 809240064
I0827 16:13:38.735411  8827 layer_factory.hpp:77] Creating layer relu1_2
I0827 16:13:38.735424  8827 net.cpp:88] Creating Layer relu1_2
I0827 16:13:38.735432  8827 net.cpp:440] relu1_2 <- conv1_2
I0827 16:13:38.735460  8827 net.cpp:401] relu1_2 -> conv1_2 (in-place)
I0827 16:13:38.736394  8827 net.cpp:135] Setting up relu1_2
I0827 16:13:38.736413  8827 net.cpp:142] Top shape: 128 64 56 48 (22020096)
I0827 16:13:38.736421  8827 net.cpp:150] Memory required for data: 897320448
I0827 16:13:38.736433  8827 layer_factory.hpp:77] Creating layer conv1_3
I0827 16:13:38.736470  8827 net.cpp:88] Creating Layer conv1_3
I0827 16:13:38.736481  8827 net.cpp:440] conv1_3 <- conv1_2
I0827 16:13:38.736495  8827 net.cpp:414] conv1_3 -> conv1_3
I0827 16:13:38.740465  8827 net.cpp:135] Setting up conv1_3
I0827 16:13:38.740485  8827 net.cpp:142] Top shape: 128 64 56 48 (22020096)
I0827 16:13:38.740494  8827 net.cpp:150] Memory required for data: 985400832
I0827 16:13:38.740515  8827 layer_factory.hpp:77] Creating layer bn1_3
I0827 16:13:38.740531  8827 net.cpp:88] Creating Layer bn1_3
I0827 16:13:38.740543  8827 net.cpp:440] bn1_3 <- conv1_3
I0827 16:13:38.740555  8827 net.cpp:401] bn1_3 -> conv1_3 (in-place)
I0827 16:13:38.740777  8827 net.cpp:135] Setting up bn1_3
I0827 16:13:38.740790  8827 net.cpp:142] Top shape: 128 64 56 48 (22020096)
I0827 16:13:38.740798  8827 net.cpp:150] Memory required for data: 1073481216
I0827 16:13:38.740813  8827 layer_factory.hpp:77] Creating layer scale_conv1_3
I0827 16:13:38.740828  8827 net.cpp:88] Creating Layer scale_conv1_3
I0827 16:13:38.740839  8827 net.cpp:440] scale_conv1_3 <- conv1_3
I0827 16:13:38.740871  8827 net.cpp:401] scale_conv1_3 -> conv1_3 (in-place)
I0827 16:13:38.740934  8827 layer_factory.hpp:77] Creating layer scale_conv1_3
I0827 16:13:38.741068  8827 net.cpp:135] Setting up scale_conv1_3
I0827 16:13:38.741082  8827 net.cpp:142] Top shape: 128 64 56 48 (22020096)
I0827 16:13:38.741091  8827 net.cpp:150] Memory required for data: 1161561600
I0827 16:13:38.741103  8827 layer_factory.hpp:77] Creating layer relu1_3
I0827 16:13:38.741118  8827 net.cpp:88] Creating Layer relu1_3
I0827 16:13:38.741129  8827 net.cpp:440] relu1_3 <- conv1_3
I0827 16:13:38.741142  8827 net.cpp:401] relu1_3 -> conv1_3 (in-place)
I0827 16:13:38.742094  8827 net.cpp:135] Setting up relu1_3
I0827 16:13:38.742111  8827 net.cpp:142] Top shape: 128 64 56 48 (22020096)
I0827 16:13:38.742120  8827 net.cpp:150] Memory required for data: 1249641984
I0827 16:13:38.742133  8827 layer_factory.hpp:77] Creating layer res1_3
I0827 16:13:38.742172  8827 net.cpp:88] Creating Layer res1_3
I0827 16:13:38.742182  8827 net.cpp:440] res1_3 <- conv1_1_relu1_1_0_split_1
I0827 16:13:38.742192  8827 net.cpp:440] res1_3 <- conv1_3
I0827 16:13:38.742203  8827 net.cpp:414] res1_3 -> res1_3
I0827 16:13:38.742254  8827 net.cpp:135] Setting up res1_3
I0827 16:13:38.742267  8827 net.cpp:142] Top shape: 128 64 56 48 (22020096)
I0827 16:13:38.742275  8827 net.cpp:150] Memory required for data: 1337722368
I0827 16:13:38.742301  8827 layer_factory.hpp:77] Creating layer res1_3_res1_3_0_split
I0827 16:13:38.742318  8827 net.cpp:88] Creating Layer res1_3_res1_3_0_split
I0827 16:13:38.742329  8827 net.cpp:440] res1_3_res1_3_0_split <- res1_3
I0827 16:13:38.742342  8827 net.cpp:414] res1_3_res1_3_0_split -> res1_3_res1_3_0_split_0
I0827 16:13:38.742357  8827 net.cpp:414] res1_3_res1_3_0_split -> res1_3_res1_3_0_split_1
I0827 16:13:38.742413  8827 net.cpp:135] Setting up res1_3_res1_3_0_split
I0827 16:13:38.742425  8827 net.cpp:142] Top shape: 128 64 56 48 (22020096)
I0827 16:13:38.742435  8827 net.cpp:142] Top shape: 128 64 56 48 (22020096)
I0827 16:13:38.742444  8827 net.cpp:150] Memory required for data: 1513883136
I0827 16:13:38.742451  8827 layer_factory.hpp:77] Creating layer conv1_4
I0827 16:13:38.742486  8827 net.cpp:88] Creating Layer conv1_4
I0827 16:13:38.742496  8827 net.cpp:440] conv1_4 <- res1_3_res1_3_0_split_0
I0827 16:13:38.742509  8827 net.cpp:414] conv1_4 -> conv1_4
I0827 16:13:38.746484  8827 net.cpp:135] Setting up conv1_4
I0827 16:13:38.746503  8827 net.cpp:142] Top shape: 128 64 56 48 (22020096)
I0827 16:13:38.746512  8827 net.cpp:150] Memory required for data: 1601963520
I0827 16:13:38.746531  8827 layer_factory.hpp:77] Creating layer bn1_4
I0827 16:13:38.746546  8827 net.cpp:88] Creating Layer bn1_4
I0827 16:13:38.746554  8827 net.cpp:440] bn1_4 <- conv1_4
I0827 16:13:38.746589  8827 net.cpp:401] bn1_4 -> conv1_4 (in-place)
I0827 16:13:38.746810  8827 net.cpp:135] Setting up bn1_4
I0827 16:13:38.746825  8827 net.cpp:142] Top shape: 128 64 56 48 (22020096)
I0827 16:13:38.746865  8827 net.cpp:150] Memory required for data: 1690043904
I0827 16:13:38.746886  8827 layer_factory.hpp:77] Creating layer scale_conv1_4
I0827 16:13:38.746901  8827 net.cpp:88] Creating Layer scale_conv1_4
I0827 16:13:38.746912  8827 net.cpp:440] scale_conv1_4 <- conv1_4
I0827 16:13:38.746923  8827 net.cpp:401] scale_conv1_4 -> conv1_4 (in-place)
I0827 16:13:38.746979  8827 layer_factory.hpp:77] Creating layer scale_conv1_4
I0827 16:13:38.747114  8827 net.cpp:135] Setting up scale_conv1_4
I0827 16:13:38.747128  8827 net.cpp:142] Top shape: 128 64 56 48 (22020096)
I0827 16:13:38.747136  8827 net.cpp:150] Memory required for data: 1778124288
I0827 16:13:38.747149  8827 layer_factory.hpp:77] Creating layer relu1_4
I0827 16:13:38.747164  8827 net.cpp:88] Creating Layer relu1_4
I0827 16:13:38.747174  8827 net.cpp:440] relu1_4 <- conv1_4
I0827 16:13:38.747184  8827 net.cpp:401] relu1_4 -> conv1_4 (in-place)
I0827 16:13:38.748126  8827 net.cpp:135] Setting up relu1_4
I0827 16:13:38.748143  8827 net.cpp:142] Top shape: 128 64 56 48 (22020096)
I0827 16:13:38.748152  8827 net.cpp:150] Memory required for data: 1866204672
I0827 16:13:38.748162  8827 layer_factory.hpp:77] Creating layer conv1_5
I0827 16:13:38.748201  8827 net.cpp:88] Creating Layer conv1_5
I0827 16:13:38.748211  8827 net.cpp:440] conv1_5 <- conv1_4
I0827 16:13:38.748227  8827 net.cpp:414] conv1_5 -> conv1_5
I0827 16:13:38.752995  8827 net.cpp:135] Setting up conv1_5
I0827 16:13:38.753046  8827 net.cpp:142] Top shape: 128 64 56 48 (22020096)
I0827 16:13:38.753075  8827 net.cpp:150] Memory required for data: 1954285056
I0827 16:13:38.753116  8827 layer_factory.hpp:77] Creating layer bn1_5
I0827 16:13:38.753149  8827 net.cpp:88] Creating Layer bn1_5
I0827 16:13:38.753175  8827 net.cpp:440] bn1_5 <- conv1_5
I0827 16:13:38.753206  8827 net.cpp:401] bn1_5 -> conv1_5 (in-place)
I0827 16:13:38.753535  8827 net.cpp:135] Setting up bn1_5
I0827 16:13:38.753553  8827 net.cpp:142] Top shape: 128 64 56 48 (22020096)
I0827 16:13:38.753561  8827 net.cpp:150] Memory required for data: 2042365440
I0827 16:13:38.753576  8827 layer_factory.hpp:77] Creating layer scale_conv1_5
I0827 16:13:38.753617  8827 net.cpp:88] Creating Layer scale_conv1_5
I0827 16:13:38.753644  8827 net.cpp:440] scale_conv1_5 <- conv1_5
I0827 16:13:38.753672  8827 net.cpp:401] scale_conv1_5 -> conv1_5 (in-place)
I0827 16:13:38.753753  8827 layer_factory.hpp:77] Creating layer scale_conv1_5
I0827 16:13:38.753952  8827 net.cpp:135] Setting up scale_conv1_5
I0827 16:13:38.753991  8827 net.cpp:142] Top shape: 128 64 56 48 (22020096)
I0827 16:13:38.754016  8827 net.cpp:150] Memory required for data: 2130445824
I0827 16:13:38.754047  8827 layer_factory.hpp:77] Creating layer relu1_5
I0827 16:13:38.754076  8827 net.cpp:88] Creating Layer relu1_5
I0827 16:13:38.754101  8827 net.cpp:440] relu1_5 <- conv1_5
I0827 16:13:38.754133  8827 net.cpp:401] relu1_5 -> conv1_5 (in-place)
I0827 16:13:38.755316  8827 net.cpp:135] Setting up relu1_5
I0827 16:13:38.755362  8827 net.cpp:142] Top shape: 128 64 56 48 (22020096)
I0827 16:13:38.755388  8827 net.cpp:150] Memory required for data: 2218526208
I0827 16:13:38.755421  8827 layer_factory.hpp:77] Creating layer res1_5
I0827 16:13:38.755452  8827 net.cpp:88] Creating Layer res1_5
I0827 16:13:38.755479  8827 net.cpp:440] res1_5 <- res1_3_res1_3_0_split_1
I0827 16:13:38.755506  8827 net.cpp:440] res1_5 <- conv1_5
I0827 16:13:38.755534  8827 net.cpp:414] res1_5 -> res1_5
I0827 16:13:38.755601  8827 net.cpp:135] Setting up res1_5
I0827 16:13:38.755635  8827 net.cpp:142] Top shape: 128 64 56 48 (22020096)
I0827 16:13:38.755659  8827 net.cpp:150] Memory required for data: 2306606592
I0827 16:13:38.755684  8827 layer_factory.hpp:77] Creating layer conv2_1
I0827 16:13:38.755719  8827 net.cpp:88] Creating Layer conv2_1
I0827 16:13:38.755746  8827 net.cpp:440] conv2_1 <- res1_5
I0827 16:13:38.755781  8827 net.cpp:414] conv2_1 -> conv2_1
I0827 16:13:38.760076  8827 net.cpp:135] Setting up conv2_1
I0827 16:13:38.760133  8827 net.cpp:142] Top shape: 128 128 28 24 (11010048)
I0827 16:13:38.760171  8827 net.cpp:150] Memory required for data: 2350646784
I0827 16:13:38.760203  8827 layer_factory.hpp:77] Creating layer bn2_1
I0827 16:13:38.760239  8827 net.cpp:88] Creating Layer bn2_1
I0827 16:13:38.760265  8827 net.cpp:440] bn2_1 <- conv2_1
I0827 16:13:38.760296  8827 net.cpp:401] bn2_1 -> conv2_1 (in-place)
I0827 16:13:38.760603  8827 net.cpp:135] Setting up bn2_1
I0827 16:13:38.760643  8827 net.cpp:142] Top shape: 128 128 28 24 (11010048)
I0827 16:13:38.760669  8827 net.cpp:150] Memory required for data: 2394686976
I0827 16:13:38.760701  8827 layer_factory.hpp:77] Creating layer scale_conv2_1
I0827 16:13:38.760736  8827 net.cpp:88] Creating Layer scale_conv2_1
I0827 16:13:38.760763  8827 net.cpp:440] scale_conv2_1 <- conv2_1
I0827 16:13:38.760795  8827 net.cpp:401] scale_conv2_1 -> conv2_1 (in-place)
I0827 16:13:38.760872  8827 layer_factory.hpp:77] Creating layer scale_conv2_1
I0827 16:13:38.761061  8827 net.cpp:135] Setting up scale_conv2_1
I0827 16:13:38.761101  8827 net.cpp:142] Top shape: 128 128 28 24 (11010048)
I0827 16:13:38.761126  8827 net.cpp:150] Memory required for data: 2438727168
I0827 16:13:38.761157  8827 layer_factory.hpp:77] Creating layer relu2_1
I0827 16:13:38.761186  8827 net.cpp:88] Creating Layer relu2_1
I0827 16:13:38.761214  8827 net.cpp:440] relu2_1 <- conv2_1
I0827 16:13:38.761250  8827 net.cpp:401] relu2_1 -> conv2_1 (in-place)
I0827 16:13:38.761482  8827 net.cpp:135] Setting up relu2_1
I0827 16:13:38.761519  8827 net.cpp:142] Top shape: 128 128 28 24 (11010048)
I0827 16:13:38.761544  8827 net.cpp:150] Memory required for data: 2482767360
I0827 16:13:38.761572  8827 layer_factory.hpp:77] Creating layer conv2_1_relu2_1_0_split
I0827 16:13:38.761603  8827 net.cpp:88] Creating Layer conv2_1_relu2_1_0_split
I0827 16:13:38.761629  8827 net.cpp:440] conv2_1_relu2_1_0_split <- conv2_1
I0827 16:13:38.761657  8827 net.cpp:414] conv2_1_relu2_1_0_split -> conv2_1_relu2_1_0_split_0
I0827 16:13:38.761689  8827 net.cpp:414] conv2_1_relu2_1_0_split -> conv2_1_relu2_1_0_split_1
I0827 16:13:38.761773  8827 net.cpp:135] Setting up conv2_1_relu2_1_0_split
I0827 16:13:38.761811  8827 net.cpp:142] Top shape: 128 128 28 24 (11010048)
I0827 16:13:38.761839  8827 net.cpp:142] Top shape: 128 128 28 24 (11010048)
I0827 16:13:38.761863  8827 net.cpp:150] Memory required for data: 2570847744
I0827 16:13:38.761890  8827 layer_factory.hpp:77] Creating layer conv2_2
I0827 16:13:38.761927  8827 net.cpp:88] Creating Layer conv2_2
I0827 16:13:38.761956  8827 net.cpp:440] conv2_2 <- conv2_1_relu2_1_0_split_0
I0827 16:13:38.761991  8827 net.cpp:414] conv2_2 -> conv2_2
I0827 16:13:38.771137  8827 net.cpp:135] Setting up conv2_2
I0827 16:13:38.771158  8827 net.cpp:142] Top shape: 128 128 28 24 (11010048)
I0827 16:13:38.771167  8827 net.cpp:150] Memory required for data: 2614887936
I0827 16:13:38.771183  8827 layer_factory.hpp:77] Creating layer bn2_2
I0827 16:13:38.771206  8827 net.cpp:88] Creating Layer bn2_2
I0827 16:13:38.771219  8827 net.cpp:440] bn2_2 <- conv2_2
I0827 16:13:38.771230  8827 net.cpp:401] bn2_2 -> conv2_2 (in-place)
I0827 16:13:38.771456  8827 net.cpp:135] Setting up bn2_2
I0827 16:13:38.771471  8827 net.cpp:142] Top shape: 128 128 28 24 (11010048)
I0827 16:13:38.771478  8827 net.cpp:150] Memory required for data: 2658928128
I0827 16:13:38.771493  8827 layer_factory.hpp:77] Creating layer scale_conv2_2
I0827 16:13:38.771510  8827 net.cpp:88] Creating Layer scale_conv2_2
I0827 16:13:38.771520  8827 net.cpp:440] scale_conv2_2 <- conv2_2
I0827 16:13:38.771531  8827 net.cpp:401] scale_conv2_2 -> conv2_2 (in-place)
I0827 16:13:38.771581  8827 layer_factory.hpp:77] Creating layer scale_conv2_2
I0827 16:13:38.771714  8827 net.cpp:135] Setting up scale_conv2_2
I0827 16:13:38.771728  8827 net.cpp:142] Top shape: 128 128 28 24 (11010048)
I0827 16:13:38.771734  8827 net.cpp:150] Memory required for data: 2702968320
I0827 16:13:38.771747  8827 layer_factory.hpp:77] Creating layer relu2_2
I0827 16:13:38.771759  8827 net.cpp:88] Creating Layer relu2_2
I0827 16:13:38.771770  8827 net.cpp:440] relu2_2 <- conv2_2
I0827 16:13:38.771795  8827 net.cpp:401] relu2_2 -> conv2_2 (in-place)
I0827 16:13:38.771957  8827 net.cpp:135] Setting up relu2_2
I0827 16:13:38.771971  8827 net.cpp:142] Top shape: 128 128 28 24 (11010048)
I0827 16:13:38.771978  8827 net.cpp:150] Memory required for data: 2747008512
I0827 16:13:38.771991  8827 layer_factory.hpp:77] Creating layer conv2_3
I0827 16:13:38.772011  8827 net.cpp:88] Creating Layer conv2_3
I0827 16:13:38.772019  8827 net.cpp:440] conv2_3 <- conv2_2
I0827 16:13:38.772035  8827 net.cpp:414] conv2_3 -> conv2_3
I0827 16:13:38.780359  8827 net.cpp:135] Setting up conv2_3
I0827 16:13:38.780381  8827 net.cpp:142] Top shape: 128 128 28 24 (11010048)
I0827 16:13:38.780390  8827 net.cpp:150] Memory required for data: 2791048704
I0827 16:13:38.780405  8827 layer_factory.hpp:77] Creating layer bn2_3
I0827 16:13:38.780419  8827 net.cpp:88] Creating Layer bn2_3
I0827 16:13:38.780428  8827 net.cpp:440] bn2_3 <- conv2_3
I0827 16:13:38.780439  8827 net.cpp:401] bn2_3 -> conv2_3 (in-place)
I0827 16:13:38.780669  8827 net.cpp:135] Setting up bn2_3
I0827 16:13:38.780683  8827 net.cpp:142] Top shape: 128 128 28 24 (11010048)
I0827 16:13:38.780690  8827 net.cpp:150] Memory required for data: 2835088896
I0827 16:13:38.780706  8827 layer_factory.hpp:77] Creating layer scale_conv2_3
I0827 16:13:38.780719  8827 net.cpp:88] Creating Layer scale_conv2_3
I0827 16:13:38.780727  8827 net.cpp:440] scale_conv2_3 <- conv2_3
I0827 16:13:38.780761  8827 net.cpp:401] scale_conv2_3 -> conv2_3 (in-place)
I0827 16:13:38.780824  8827 layer_factory.hpp:77] Creating layer scale_conv2_3
I0827 16:13:38.780961  8827 net.cpp:135] Setting up scale_conv2_3
I0827 16:13:38.780974  8827 net.cpp:142] Top shape: 128 128 28 24 (11010048)
I0827 16:13:38.780982  8827 net.cpp:150] Memory required for data: 2879129088
I0827 16:13:38.780995  8827 layer_factory.hpp:77] Creating layer relu2_3
I0827 16:13:38.781010  8827 net.cpp:88] Creating Layer relu2_3
I0827 16:13:38.781021  8827 net.cpp:440] relu2_3 <- conv2_3
I0827 16:13:38.781033  8827 net.cpp:401] relu2_3 -> conv2_3 (in-place)
I0827 16:13:38.781195  8827 net.cpp:135] Setting up relu2_3
I0827 16:13:38.781208  8827 net.cpp:142] Top shape: 128 128 28 24 (11010048)
I0827 16:13:38.781216  8827 net.cpp:150] Memory required for data: 2923169280
I0827 16:13:38.781234  8827 layer_factory.hpp:77] Creating layer res2_3
I0827 16:13:38.781270  8827 net.cpp:88] Creating Layer res2_3
I0827 16:13:38.781281  8827 net.cpp:440] res2_3 <- conv2_1_relu2_1_0_split_1
I0827 16:13:38.781291  8827 net.cpp:440] res2_3 <- conv2_3
I0827 16:13:38.781306  8827 net.cpp:414] res2_3 -> res2_3
I0827 16:13:38.781349  8827 net.cpp:135] Setting up res2_3
I0827 16:13:38.781363  8827 net.cpp:142] Top shape: 128 128 28 24 (11010048)
I0827 16:13:38.781370  8827 net.cpp:150] Memory required for data: 2967209472
I0827 16:13:38.781399  8827 layer_factory.hpp:77] Creating layer res2_3_res2_3_0_split
I0827 16:13:38.781411  8827 net.cpp:88] Creating Layer res2_3_res2_3_0_split
I0827 16:13:38.781419  8827 net.cpp:440] res2_3_res2_3_0_split <- res2_3
I0827 16:13:38.781450  8827 net.cpp:414] res2_3_res2_3_0_split -> res2_3_res2_3_0_split_0
I0827 16:13:38.781462  8827 net.cpp:414] res2_3_res2_3_0_split -> res2_3_res2_3_0_split_1
I0827 16:13:38.781535  8827 net.cpp:135] Setting up res2_3_res2_3_0_split
I0827 16:13:38.781549  8827 net.cpp:142] Top shape: 128 128 28 24 (11010048)
I0827 16:13:38.781559  8827 net.cpp:142] Top shape: 128 128 28 24 (11010048)
I0827 16:13:38.781566  8827 net.cpp:150] Memory required for data: 3055289856
I0827 16:13:38.781592  8827 layer_factory.hpp:77] Creating layer conv2_4
I0827 16:13:38.781613  8827 net.cpp:88] Creating Layer conv2_4
I0827 16:13:38.781623  8827 net.cpp:440] conv2_4 <- res2_3_res2_3_0_split_0
I0827 16:13:38.781639  8827 net.cpp:414] conv2_4 -> conv2_4
I0827 16:13:38.790045  8827 net.cpp:135] Setting up conv2_4
I0827 16:13:38.790063  8827 net.cpp:142] Top shape: 128 128 28 24 (11010048)
I0827 16:13:38.790072  8827 net.cpp:150] Memory required for data: 3099330048
I0827 16:13:38.790115  8827 layer_factory.hpp:77] Creating layer bn2_4
I0827 16:13:38.790134  8827 net.cpp:88] Creating Layer bn2_4
I0827 16:13:38.790145  8827 net.cpp:440] bn2_4 <- conv2_4
I0827 16:13:38.790156  8827 net.cpp:401] bn2_4 -> conv2_4 (in-place)
I0827 16:13:38.790406  8827 net.cpp:135] Setting up bn2_4
I0827 16:13:38.790421  8827 net.cpp:142] Top shape: 128 128 28 24 (11010048)
I0827 16:13:38.790429  8827 net.cpp:150] Memory required for data: 3143370240
I0827 16:13:38.790447  8827 layer_factory.hpp:77] Creating layer scale_conv2_4
I0827 16:13:38.790463  8827 net.cpp:88] Creating Layer scale_conv2_4
I0827 16:13:38.790473  8827 net.cpp:440] scale_conv2_4 <- conv2_4
I0827 16:13:38.790484  8827 net.cpp:401] scale_conv2_4 -> conv2_4 (in-place)
I0827 16:13:38.790539  8827 layer_factory.hpp:77] Creating layer scale_conv2_4
I0827 16:13:38.790675  8827 net.cpp:135] Setting up scale_conv2_4
I0827 16:13:38.790689  8827 net.cpp:142] Top shape: 128 128 28 24 (11010048)
I0827 16:13:38.790696  8827 net.cpp:150] Memory required for data: 3187410432
I0827 16:13:38.790709  8827 layer_factory.hpp:77] Creating layer relu2_4
I0827 16:13:38.790722  8827 net.cpp:88] Creating Layer relu2_4
I0827 16:13:38.790732  8827 net.cpp:440] relu2_4 <- conv2_4
I0827 16:13:38.790750  8827 net.cpp:401] relu2_4 -> conv2_4 (in-place)
I0827 16:13:38.790911  8827 net.cpp:135] Setting up relu2_4
I0827 16:13:38.790925  8827 net.cpp:142] Top shape: 128 128 28 24 (11010048)
I0827 16:13:38.790932  8827 net.cpp:150] Memory required for data: 3231450624
I0827 16:13:38.790942  8827 layer_factory.hpp:77] Creating layer conv2_5
I0827 16:13:38.790984  8827 net.cpp:88] Creating Layer conv2_5
I0827 16:13:38.790994  8827 net.cpp:440] conv2_5 <- conv2_4
I0827 16:13:38.791007  8827 net.cpp:414] conv2_5 -> conv2_5
I0827 16:13:38.800048  8827 net.cpp:135] Setting up conv2_5
I0827 16:13:38.800071  8827 net.cpp:142] Top shape: 128 128 28 24 (11010048)
I0827 16:13:38.800081  8827 net.cpp:150] Memory required for data: 3275490816
I0827 16:13:38.800096  8827 layer_factory.hpp:77] Creating layer bn2_5
I0827 16:13:38.800113  8827 net.cpp:88] Creating Layer bn2_5
I0827 16:13:38.800122  8827 net.cpp:440] bn2_5 <- conv2_5
I0827 16:13:38.800137  8827 net.cpp:401] bn2_5 -> conv2_5 (in-place)
I0827 16:13:38.800374  8827 net.cpp:135] Setting up bn2_5
I0827 16:13:38.800390  8827 net.cpp:142] Top shape: 128 128 28 24 (11010048)
I0827 16:13:38.800397  8827 net.cpp:150] Memory required for data: 3319531008
I0827 16:13:38.800412  8827 layer_factory.hpp:77] Creating layer scale_conv2_5
I0827 16:13:38.800426  8827 net.cpp:88] Creating Layer scale_conv2_5
I0827 16:13:38.800434  8827 net.cpp:440] scale_conv2_5 <- conv2_5
I0827 16:13:38.800446  8827 net.cpp:401] scale_conv2_5 -> conv2_5 (in-place)
I0827 16:13:38.800508  8827 layer_factory.hpp:77] Creating layer scale_conv2_5
I0827 16:13:38.800643  8827 net.cpp:135] Setting up scale_conv2_5
I0827 16:13:38.800657  8827 net.cpp:142] Top shape: 128 128 28 24 (11010048)
I0827 16:13:38.800664  8827 net.cpp:150] Memory required for data: 3363571200
I0827 16:13:38.800676  8827 layer_factory.hpp:77] Creating layer relu2_5
I0827 16:13:38.800691  8827 net.cpp:88] Creating Layer relu2_5
I0827 16:13:38.800701  8827 net.cpp:440] relu2_5 <- conv2_5
I0827 16:13:38.800714  8827 net.cpp:401] relu2_5 -> conv2_5 (in-place)
I0827 16:13:38.800878  8827 net.cpp:135] Setting up relu2_5
I0827 16:13:38.800890  8827 net.cpp:142] Top shape: 128 128 28 24 (11010048)
I0827 16:13:38.800897  8827 net.cpp:150] Memory required for data: 3407611392
I0827 16:13:38.800907  8827 layer_factory.hpp:77] Creating layer res2_5
I0827 16:13:38.800922  8827 net.cpp:88] Creating Layer res2_5
I0827 16:13:38.800932  8827 net.cpp:440] res2_5 <- res2_3_res2_3_0_split_1
I0827 16:13:38.800942  8827 net.cpp:440] res2_5 <- conv2_5
I0827 16:13:38.800961  8827 net.cpp:414] res2_5 -> res2_5
I0827 16:13:38.801000  8827 net.cpp:135] Setting up res2_5
I0827 16:13:38.801012  8827 net.cpp:142] Top shape: 128 128 28 24 (11010048)
I0827 16:13:38.801020  8827 net.cpp:150] Memory required for data: 3451651584
I0827 16:13:38.801043  8827 layer_factory.hpp:77] Creating layer res2_5_res2_5_0_split
I0827 16:13:38.801056  8827 net.cpp:88] Creating Layer res2_5_res2_5_0_split
I0827 16:13:38.801067  8827 net.cpp:440] res2_5_res2_5_0_split <- res2_5
I0827 16:13:38.801079  8827 net.cpp:414] res2_5_res2_5_0_split -> res2_5_res2_5_0_split_0
I0827 16:13:38.801092  8827 net.cpp:414] res2_5_res2_5_0_split -> res2_5_res2_5_0_split_1
I0827 16:13:38.801151  8827 net.cpp:135] Setting up res2_5_res2_5_0_split
I0827 16:13:38.801163  8827 net.cpp:142] Top shape: 128 128 28 24 (11010048)
I0827 16:13:38.801173  8827 net.cpp:142] Top shape: 128 128 28 24 (11010048)
I0827 16:13:38.801182  8827 net.cpp:150] Memory required for data: 3539731968
I0827 16:13:38.801190  8827 layer_factory.hpp:77] Creating layer conv2_6
I0827 16:13:38.801239  8827 net.cpp:88] Creating Layer conv2_6
I0827 16:13:38.801252  8827 net.cpp:440] conv2_6 <- res2_5_res2_5_0_split_0
I0827 16:13:38.801266  8827 net.cpp:414] conv2_6 -> conv2_6
I0827 16:13:38.809203  8827 net.cpp:135] Setting up conv2_6
I0827 16:13:38.809223  8827 net.cpp:142] Top shape: 128 128 28 24 (11010048)
I0827 16:13:38.809239  8827 net.cpp:150] Memory required for data: 3583772160
I0827 16:13:38.809254  8827 layer_factory.hpp:77] Creating layer bn2_6
I0827 16:13:38.809270  8827 net.cpp:88] Creating Layer bn2_6
I0827 16:13:38.809280  8827 net.cpp:440] bn2_6 <- conv2_6
I0827 16:13:38.809319  8827 net.cpp:401] bn2_6 -> conv2_6 (in-place)
I0827 16:13:38.809557  8827 net.cpp:135] Setting up bn2_6
I0827 16:13:38.809571  8827 net.cpp:142] Top shape: 128 128 28 24 (11010048)
I0827 16:13:38.809579  8827 net.cpp:150] Memory required for data: 3627812352
I0827 16:13:38.809615  8827 layer_factory.hpp:77] Creating layer scale_conv2_6
I0827 16:13:38.809630  8827 net.cpp:88] Creating Layer scale_conv2_6
I0827 16:13:38.809639  8827 net.cpp:440] scale_conv2_6 <- conv2_6
I0827 16:13:38.809669  8827 net.cpp:401] scale_conv2_6 -> conv2_6 (in-place)
I0827 16:13:38.809731  8827 layer_factory.hpp:77] Creating layer scale_conv2_6
I0827 16:13:38.809870  8827 net.cpp:135] Setting up scale_conv2_6
I0827 16:13:38.809883  8827 net.cpp:142] Top shape: 128 128 28 24 (11010048)
I0827 16:13:38.809891  8827 net.cpp:150] Memory required for data: 3671852544
I0827 16:13:38.809921  8827 layer_factory.hpp:77] Creating layer relu2_6
I0827 16:13:38.809937  8827 net.cpp:88] Creating Layer relu2_6
I0827 16:13:38.809962  8827 net.cpp:440] relu2_6 <- conv2_6
I0827 16:13:38.809976  8827 net.cpp:401] relu2_6 -> conv2_6 (in-place)
I0827 16:13:38.810144  8827 net.cpp:135] Setting up relu2_6
I0827 16:13:38.810158  8827 net.cpp:142] Top shape: 128 128 28 24 (11010048)
I0827 16:13:38.810165  8827 net.cpp:150] Memory required for data: 3715892736
I0827 16:13:38.810175  8827 layer_factory.hpp:77] Creating layer conv2_7
I0827 16:13:38.810196  8827 net.cpp:88] Creating Layer conv2_7
I0827 16:13:38.810206  8827 net.cpp:440] conv2_7 <- conv2_6
I0827 16:13:38.810220  8827 net.cpp:414] conv2_7 -> conv2_7
I0827 16:13:38.820847  8827 net.cpp:135] Setting up conv2_7
I0827 16:13:38.820874  8827 net.cpp:142] Top shape: 128 128 28 24 (11010048)
I0827 16:13:38.820883  8827 net.cpp:150] Memory required for data: 3759932928
I0827 16:13:38.820930  8827 layer_factory.hpp:77] Creating layer bn2_7
I0827 16:13:38.820950  8827 net.cpp:88] Creating Layer bn2_7
I0827 16:13:38.820961  8827 net.cpp:440] bn2_7 <- conv2_7
I0827 16:13:38.820996  8827 net.cpp:401] bn2_7 -> conv2_7 (in-place)
I0827 16:13:38.821319  8827 net.cpp:135] Setting up bn2_7
I0827 16:13:38.821336  8827 net.cpp:142] Top shape: 128 128 28 24 (11010048)
I0827 16:13:38.821369  8827 net.cpp:150] Memory required for data: 3803973120
I0827 16:13:38.821388  8827 layer_factory.hpp:77] Creating layer scale_conv2_7
I0827 16:13:38.821404  8827 net.cpp:88] Creating Layer scale_conv2_7
I0827 16:13:38.821414  8827 net.cpp:440] scale_conv2_7 <- conv2_7
I0827 16:13:38.821429  8827 net.cpp:401] scale_conv2_7 -> conv2_7 (in-place)
I0827 16:13:38.821492  8827 layer_factory.hpp:77] Creating layer scale_conv2_7
I0827 16:13:38.821666  8827 net.cpp:135] Setting up scale_conv2_7
I0827 16:13:38.821696  8827 net.cpp:142] Top shape: 128 128 28 24 (11010048)
I0827 16:13:38.821705  8827 net.cpp:150] Memory required for data: 3848013312
I0827 16:13:38.821717  8827 layer_factory.hpp:77] Creating layer relu2_7
I0827 16:13:38.821732  8827 net.cpp:88] Creating Layer relu2_7
I0827 16:13:38.821741  8827 net.cpp:440] relu2_7 <- conv2_7
I0827 16:13:38.821751  8827 net.cpp:401] relu2_7 -> conv2_7 (in-place)
I0827 16:13:38.821969  8827 net.cpp:135] Setting up relu2_7
I0827 16:13:38.821982  8827 net.cpp:142] Top shape: 128 128 28 24 (11010048)
I0827 16:13:38.821990  8827 net.cpp:150] Memory required for data: 3892053504
I0827 16:13:38.822000  8827 layer_factory.hpp:77] Creating layer res2_7
I0827 16:13:38.822013  8827 net.cpp:88] Creating Layer res2_7
I0827 16:13:38.822023  8827 net.cpp:440] res2_7 <- res2_5_res2_5_0_split_1
I0827 16:13:38.822031  8827 net.cpp:440] res2_7 <- conv2_7
I0827 16:13:38.822043  8827 net.cpp:414] res2_7 -> res2_7
I0827 16:13:38.822083  8827 net.cpp:135] Setting up res2_7
I0827 16:13:38.822095  8827 net.cpp:142] Top shape: 128 128 28 24 (11010048)
I0827 16:13:38.822103  8827 net.cpp:150] Memory required for data: 3936093696
I0827 16:13:38.822110  8827 layer_factory.hpp:77] Creating layer res2_7_res2_7_0_split
I0827 16:13:38.822120  8827 net.cpp:88] Creating Layer res2_7_res2_7_0_split
I0827 16:13:38.822127  8827 net.cpp:440] res2_7_res2_7_0_split <- res2_7
I0827 16:13:38.822139  8827 net.cpp:414] res2_7_res2_7_0_split -> res2_7_res2_7_0_split_0
I0827 16:13:38.822150  8827 net.cpp:414] res2_7_res2_7_0_split -> res2_7_res2_7_0_split_1
I0827 16:13:38.822211  8827 net.cpp:135] Setting up res2_7_res2_7_0_split
I0827 16:13:38.822224  8827 net.cpp:142] Top shape: 128 128 28 24 (11010048)
I0827 16:13:38.822237  8827 net.cpp:142] Top shape: 128 128 28 24 (11010048)
I0827 16:13:38.822245  8827 net.cpp:150] Memory required for data: 4024174080
I0827 16:13:38.822252  8827 layer_factory.hpp:77] Creating layer conv2_8
I0827 16:13:38.822268  8827 net.cpp:88] Creating Layer conv2_8
I0827 16:13:38.822278  8827 net.cpp:440] conv2_8 <- res2_7_res2_7_0_split_0
I0827 16:13:38.822291  8827 net.cpp:414] conv2_8 -> conv2_8
I0827 16:13:38.831887  8827 net.cpp:135] Setting up conv2_8
I0827 16:13:38.831905  8827 net.cpp:142] Top shape: 128 128 28 24 (11010048)
I0827 16:13:38.831910  8827 net.cpp:150] Memory required for data: 4068214272
I0827 16:13:38.831919  8827 layer_factory.hpp:77] Creating layer bn2_8
I0827 16:13:38.831929  8827 net.cpp:88] Creating Layer bn2_8
I0827 16:13:38.831935  8827 net.cpp:440] bn2_8 <- conv2_8
I0827 16:13:38.831944  8827 net.cpp:401] bn2_8 -> conv2_8 (in-place)
I0827 16:13:38.832172  8827 net.cpp:135] Setting up bn2_8
I0827 16:13:38.832183  8827 net.cpp:142] Top shape: 128 128 28 24 (11010048)
I0827 16:13:38.832188  8827 net.cpp:150] Memory required for data: 4112254464
I0827 16:13:38.832197  8827 layer_factory.hpp:77] Creating layer scale_conv2_8
I0827 16:13:38.832204  8827 net.cpp:88] Creating Layer scale_conv2_8
I0827 16:13:38.832209  8827 net.cpp:440] scale_conv2_8 <- conv2_8
I0827 16:13:38.832216  8827 net.cpp:401] scale_conv2_8 -> conv2_8 (in-place)
I0827 16:13:38.832258  8827 layer_factory.hpp:77] Creating layer scale_conv2_8
I0827 16:13:38.832387  8827 net.cpp:135] Setting up scale_conv2_8
I0827 16:13:38.832397  8827 net.cpp:142] Top shape: 128 128 28 24 (11010048)
I0827 16:13:38.832401  8827 net.cpp:150] Memory required for data: 4156294656
I0827 16:13:38.832409  8827 layer_factory.hpp:77] Creating layer relu2_8
I0827 16:13:38.832422  8827 net.cpp:88] Creating Layer relu2_8
I0827 16:13:38.832427  8827 net.cpp:440] relu2_8 <- conv2_8
I0827 16:13:38.832432  8827 net.cpp:401] relu2_8 -> conv2_8 (in-place)
I0827 16:13:38.832588  8827 net.cpp:135] Setting up relu2_8
I0827 16:13:38.832597  8827 net.cpp:142] Top shape: 128 128 28 24 (11010048)
I0827 16:13:38.832602  8827 net.cpp:150] Memory required for data: 4200334848
I0827 16:13:38.832608  8827 layer_factory.hpp:77] Creating layer conv2_9
I0827 16:13:38.832623  8827 net.cpp:88] Creating Layer conv2_9
I0827 16:13:38.832641  8827 net.cpp:440] conv2_9 <- conv2_8
I0827 16:13:38.832653  8827 net.cpp:414] conv2_9 -> conv2_9
I0827 16:13:38.842295  8827 net.cpp:135] Setting up conv2_9
I0827 16:13:38.842319  8827 net.cpp:142] Top shape: 128 128 28 24 (11010048)
I0827 16:13:38.842335  8827 net.cpp:150] Memory required for data: 4244375040
I0827 16:13:38.842350  8827 layer_factory.hpp:77] Creating layer bn2_9
I0827 16:13:38.842365  8827 net.cpp:88] Creating Layer bn2_9
I0827 16:13:38.842376  8827 net.cpp:440] bn2_9 <- conv2_9
I0827 16:13:38.842386  8827 net.cpp:401] bn2_9 -> conv2_9 (in-place)
I0827 16:13:38.842703  8827 net.cpp:135] Setting up bn2_9
I0827 16:13:38.842720  8827 net.cpp:142] Top shape: 128 128 28 24 (11010048)
I0827 16:13:38.842725  8827 net.cpp:150] Memory required for data: 4288415232
I0827 16:13:38.842741  8827 layer_factory.hpp:77] Creating layer scale_conv2_9
I0827 16:13:38.842761  8827 net.cpp:88] Creating Layer scale_conv2_9
I0827 16:13:38.842769  8827 net.cpp:440] scale_conv2_9 <- conv2_9
I0827 16:13:38.842779  8827 net.cpp:401] scale_conv2_9 -> conv2_9 (in-place)
I0827 16:13:38.842840  8827 layer_factory.hpp:77] Creating layer scale_conv2_9
I0827 16:13:38.843016  8827 net.cpp:135] Setting up scale_conv2_9
I0827 16:13:38.843030  8827 net.cpp:142] Top shape: 128 128 28 24 (11010048)
I0827 16:13:38.843037  8827 net.cpp:150] Memory required for data: 4332455424
I0827 16:13:38.843050  8827 layer_factory.hpp:77] Creating layer relu2_9
I0827 16:13:38.843060  8827 net.cpp:88] Creating Layer relu2_9
I0827 16:13:38.843070  8827 net.cpp:440] relu2_9 <- conv2_9
I0827 16:13:38.843081  8827 net.cpp:401] relu2_9 -> conv2_9 (in-place)
I0827 16:13:38.843289  8827 net.cpp:135] Setting up relu2_9
I0827 16:13:38.843304  8827 net.cpp:142] Top shape: 128 128 28 24 (11010048)
I0827 16:13:38.843312  8827 net.cpp:150] Memory required for data: 4376495616
I0827 16:13:38.843320  8827 layer_factory.hpp:77] Creating layer res2_9
I0827 16:13:38.843331  8827 net.cpp:88] Creating Layer res2_9
I0827 16:13:38.843340  8827 net.cpp:440] res2_9 <- res2_7_res2_7_0_split_1
I0827 16:13:38.843348  8827 net.cpp:440] res2_9 <- conv2_9
I0827 16:13:38.843358  8827 net.cpp:414] res2_9 -> res2_9
I0827 16:13:38.843401  8827 net.cpp:135] Setting up res2_9
I0827 16:13:38.843415  8827 net.cpp:142] Top shape: 128 128 28 24 (11010048)
I0827 16:13:38.843422  8827 net.cpp:150] Memory required for data: 4420535808
I0827 16:13:38.843430  8827 layer_factory.hpp:77] Creating layer conv3_1
I0827 16:13:38.843446  8827 net.cpp:88] Creating Layer conv3_1
I0827 16:13:38.843456  8827 net.cpp:440] conv3_1 <- res2_9
I0827 16:13:38.843468  8827 net.cpp:414] conv3_1 -> conv3_1
I0827 16:13:38.850023  8827 net.cpp:135] Setting up conv3_1
I0827 16:13:38.850049  8827 net.cpp:142] Top shape: 128 256 14 12 (5505024)
I0827 16:13:38.850056  8827 net.cpp:150] Memory required for data: 4442555904
I0827 16:13:38.850069  8827 layer_factory.hpp:77] Creating layer bn3_1
I0827 16:13:38.850088  8827 net.cpp:88] Creating Layer bn3_1
I0827 16:13:38.850098  8827 net.cpp:440] bn3_1 <- conv3_1
I0827 16:13:38.850111  8827 net.cpp:401] bn3_1 -> conv3_1 (in-place)
I0827 16:13:38.850436  8827 net.cpp:135] Setting up bn3_1
I0827 16:13:38.850452  8827 net.cpp:142] Top shape: 128 256 14 12 (5505024)
I0827 16:13:38.850461  8827 net.cpp:150] Memory required for data: 4464576000
I0827 16:13:38.850474  8827 layer_factory.hpp:77] Creating layer scale_conv3_1
I0827 16:13:38.850486  8827 net.cpp:88] Creating Layer scale_conv3_1
I0827 16:13:38.850495  8827 net.cpp:440] scale_conv3_1 <- conv3_1
I0827 16:13:38.850507  8827 net.cpp:401] scale_conv3_1 -> conv3_1 (in-place)
I0827 16:13:38.850565  8827 layer_factory.hpp:77] Creating layer scale_conv3_1
I0827 16:13:38.850741  8827 net.cpp:135] Setting up scale_conv3_1
I0827 16:13:38.850756  8827 net.cpp:142] Top shape: 128 256 14 12 (5505024)
I0827 16:13:38.850764  8827 net.cpp:150] Memory required for data: 4486596096
I0827 16:13:38.850775  8827 layer_factory.hpp:77] Creating layer relu3_1
I0827 16:13:38.850788  8827 net.cpp:88] Creating Layer relu3_1
I0827 16:13:38.850814  8827 net.cpp:440] relu3_1 <- conv3_1
I0827 16:13:38.850824  8827 net.cpp:401] relu3_1 -> conv3_1 (in-place)
I0827 16:13:38.851014  8827 net.cpp:135] Setting up relu3_1
I0827 16:13:38.851030  8827 net.cpp:142] Top shape: 128 256 14 12 (5505024)
I0827 16:13:38.851037  8827 net.cpp:150] Memory required for data: 4508616192
I0827 16:13:38.851048  8827 layer_factory.hpp:77] Creating layer conv3_1_relu3_1_0_split
I0827 16:13:38.851063  8827 net.cpp:88] Creating Layer conv3_1_relu3_1_0_split
I0827 16:13:38.851071  8827 net.cpp:440] conv3_1_relu3_1_0_split <- conv3_1
I0827 16:13:38.851080  8827 net.cpp:414] conv3_1_relu3_1_0_split -> conv3_1_relu3_1_0_split_0
I0827 16:13:38.851094  8827 net.cpp:414] conv3_1_relu3_1_0_split -> conv3_1_relu3_1_0_split_1
I0827 16:13:38.851155  8827 net.cpp:135] Setting up conv3_1_relu3_1_0_split
I0827 16:13:38.851168  8827 net.cpp:142] Top shape: 128 256 14 12 (5505024)
I0827 16:13:38.851177  8827 net.cpp:142] Top shape: 128 256 14 12 (5505024)
I0827 16:13:38.851186  8827 net.cpp:150] Memory required for data: 4552656384
I0827 16:13:38.851192  8827 layer_factory.hpp:77] Creating layer conv3_2
I0827 16:13:38.851212  8827 net.cpp:88] Creating Layer conv3_2
I0827 16:13:38.851222  8827 net.cpp:440] conv3_2 <- conv3_1_relu3_1_0_split_0
I0827 16:13:38.851235  8827 net.cpp:414] conv3_2 -> conv3_2
I0827 16:13:38.876375  8827 net.cpp:135] Setting up conv3_2
I0827 16:13:38.876399  8827 net.cpp:142] Top shape: 128 256 14 12 (5505024)
I0827 16:13:38.876413  8827 net.cpp:150] Memory required for data: 4574676480
I0827 16:13:38.876426  8827 layer_factory.hpp:77] Creating layer bn3_2
I0827 16:13:38.876443  8827 net.cpp:88] Creating Layer bn3_2
I0827 16:13:38.876453  8827 net.cpp:440] bn3_2 <- conv3_2
I0827 16:13:38.876463  8827 net.cpp:401] bn3_2 -> conv3_2 (in-place)
I0827 16:13:38.876776  8827 net.cpp:135] Setting up bn3_2
I0827 16:13:38.876791  8827 net.cpp:142] Top shape: 128 256 14 12 (5505024)
I0827 16:13:38.876804  8827 net.cpp:150] Memory required for data: 4596696576
I0827 16:13:38.876817  8827 layer_factory.hpp:77] Creating layer scale_conv3_2
I0827 16:13:38.876834  8827 net.cpp:88] Creating Layer scale_conv3_2
I0827 16:13:38.876843  8827 net.cpp:440] scale_conv3_2 <- conv3_2
I0827 16:13:38.876853  8827 net.cpp:401] scale_conv3_2 -> conv3_2 (in-place)
I0827 16:13:38.876914  8827 layer_factory.hpp:77] Creating layer scale_conv3_2
I0827 16:13:38.877092  8827 net.cpp:135] Setting up scale_conv3_2
I0827 16:13:38.877105  8827 net.cpp:142] Top shape: 128 256 14 12 (5505024)
I0827 16:13:38.877115  8827 net.cpp:150] Memory required for data: 4618716672
I0827 16:13:38.877127  8827 layer_factory.hpp:77] Creating layer relu3_2
I0827 16:13:38.877138  8827 net.cpp:88] Creating Layer relu3_2
I0827 16:13:38.877147  8827 net.cpp:440] relu3_2 <- conv3_2
I0827 16:13:38.877159  8827 net.cpp:401] relu3_2 -> conv3_2 (in-place)
I0827 16:13:38.877355  8827 net.cpp:135] Setting up relu3_2
I0827 16:13:38.877372  8827 net.cpp:142] Top shape: 128 256 14 12 (5505024)
I0827 16:13:38.877379  8827 net.cpp:150] Memory required for data: 4640736768
I0827 16:13:38.877388  8827 layer_factory.hpp:77] Creating layer conv3_3
I0827 16:13:38.877405  8827 net.cpp:88] Creating Layer conv3_3
I0827 16:13:38.877415  8827 net.cpp:440] conv3_3 <- conv3_2
I0827 16:13:38.877429  8827 net.cpp:414] conv3_3 -> conv3_3
I0827 16:13:38.904002  8827 net.cpp:135] Setting up conv3_3
I0827 16:13:38.904024  8827 net.cpp:142] Top shape: 128 256 14 12 (5505024)
I0827 16:13:38.904029  8827 net.cpp:150] Memory required for data: 4662756864
I0827 16:13:38.904052  8827 layer_factory.hpp:77] Creating layer bn3_3
I0827 16:13:38.904062  8827 net.cpp:88] Creating Layer bn3_3
I0827 16:13:38.904067  8827 net.cpp:440] bn3_3 <- conv3_3
I0827 16:13:38.904074  8827 net.cpp:401] bn3_3 -> conv3_3 (in-place)
I0827 16:13:38.904306  8827 net.cpp:135] Setting up bn3_3
I0827 16:13:38.904317  8827 net.cpp:142] Top shape: 128 256 14 12 (5505024)
I0827 16:13:38.904322  8827 net.cpp:150] Memory required for data: 4684776960
I0827 16:13:38.904331  8827 layer_factory.hpp:77] Creating layer scale_conv3_3
I0827 16:13:38.904356  8827 net.cpp:88] Creating Layer scale_conv3_3
I0827 16:13:38.904361  8827 net.cpp:440] scale_conv3_3 <- conv3_3
I0827 16:13:38.904369  8827 net.cpp:401] scale_conv3_3 -> conv3_3 (in-place)
I0827 16:13:38.904414  8827 layer_factory.hpp:77] Creating layer scale_conv3_3
I0827 16:13:38.904546  8827 net.cpp:135] Setting up scale_conv3_3
I0827 16:13:38.904554  8827 net.cpp:142] Top shape: 128 256 14 12 (5505024)
I0827 16:13:38.904558  8827 net.cpp:150] Memory required for data: 4706797056
I0827 16:13:38.904567  8827 layer_factory.hpp:77] Creating layer relu3_3
I0827 16:13:38.904574  8827 net.cpp:88] Creating Layer relu3_3
I0827 16:13:38.904579  8827 net.cpp:440] relu3_3 <- conv3_3
I0827 16:13:38.904585  8827 net.cpp:401] relu3_3 -> conv3_3 (in-place)
I0827 16:13:38.905499  8827 net.cpp:135] Setting up relu3_3
I0827 16:13:38.905520  8827 net.cpp:142] Top shape: 128 256 14 12 (5505024)
I0827 16:13:38.905529  8827 net.cpp:150] Memory required for data: 4728817152
I0827 16:13:38.905539  8827 layer_factory.hpp:77] Creating layer res3_3
I0827 16:13:38.905550  8827 net.cpp:88] Creating Layer res3_3
I0827 16:13:38.905558  8827 net.cpp:440] res3_3 <- conv3_1_relu3_1_0_split_1
I0827 16:13:38.905567  8827 net.cpp:440] res3_3 <- conv3_3
I0827 16:13:38.905577  8827 net.cpp:414] res3_3 -> res3_3
I0827 16:13:38.905622  8827 net.cpp:135] Setting up res3_3
I0827 16:13:38.905637  8827 net.cpp:142] Top shape: 128 256 14 12 (5505024)
I0827 16:13:38.905643  8827 net.cpp:150] Memory required for data: 4750837248
I0827 16:13:38.905650  8827 layer_factory.hpp:77] Creating layer res3_3_res3_3_0_split
I0827 16:13:38.905663  8827 net.cpp:88] Creating Layer res3_3_res3_3_0_split
I0827 16:13:38.905673  8827 net.cpp:440] res3_3_res3_3_0_split <- res3_3
I0827 16:13:38.905683  8827 net.cpp:414] res3_3_res3_3_0_split -> res3_3_res3_3_0_split_0
I0827 16:13:38.905694  8827 net.cpp:414] res3_3_res3_3_0_split -> res3_3_res3_3_0_split_1
I0827 16:13:38.905753  8827 net.cpp:135] Setting up res3_3_res3_3_0_split
I0827 16:13:38.905766  8827 net.cpp:142] Top shape: 128 256 14 12 (5505024)
I0827 16:13:38.905774  8827 net.cpp:142] Top shape: 128 256 14 12 (5505024)
I0827 16:13:38.905782  8827 net.cpp:150] Memory required for data: 4794877440
I0827 16:13:38.905789  8827 layer_factory.hpp:77] Creating layer conv3_4
I0827 16:13:38.905810  8827 net.cpp:88] Creating Layer conv3_4
I0827 16:13:38.905819  8827 net.cpp:440] conv3_4 <- res3_3_res3_3_0_split_0
I0827 16:13:38.905833  8827 net.cpp:414] conv3_4 -> conv3_4
I0827 16:13:38.933518  8827 net.cpp:135] Setting up conv3_4
I0827 16:13:38.933542  8827 net.cpp:142] Top shape: 128 256 14 12 (5505024)
I0827 16:13:38.933550  8827 net.cpp:150] Memory required for data: 4816897536
I0827 16:13:38.933564  8827 layer_factory.hpp:77] Creating layer bn3_4
I0827 16:13:38.933604  8827 net.cpp:88] Creating Layer bn3_4
I0827 16:13:38.933615  8827 net.cpp:440] bn3_4 <- conv3_4
I0827 16:13:38.933627  8827 net.cpp:401] bn3_4 -> conv3_4 (in-place)
I0827 16:13:38.933902  8827 net.cpp:135] Setting up bn3_4
I0827 16:13:38.933917  8827 net.cpp:142] Top shape: 128 256 14 12 (5505024)
I0827 16:13:38.933925  8827 net.cpp:150] Memory required for data: 4838917632
I0827 16:13:38.933940  8827 layer_factory.hpp:77] Creating layer scale_conv3_4
I0827 16:13:38.933971  8827 net.cpp:88] Creating Layer scale_conv3_4
I0827 16:13:38.933981  8827 net.cpp:440] scale_conv3_4 <- conv3_4
I0827 16:13:38.933995  8827 net.cpp:401] scale_conv3_4 -> conv3_4 (in-place)
I0827 16:13:38.934070  8827 layer_factory.hpp:77] Creating layer scale_conv3_4
I0827 16:13:38.934228  8827 net.cpp:135] Setting up scale_conv3_4
I0827 16:13:38.934243  8827 net.cpp:142] Top shape: 128 256 14 12 (5505024)
I0827 16:13:38.934252  8827 net.cpp:150] Memory required for data: 4860937728
I0827 16:13:38.934264  8827 layer_factory.hpp:77] Creating layer relu3_4
I0827 16:13:38.934298  8827 net.cpp:88] Creating Layer relu3_4
I0827 16:13:38.934307  8827 net.cpp:440] relu3_4 <- conv3_4
I0827 16:13:38.934319  8827 net.cpp:401] relu3_4 -> conv3_4 (in-place)
I0827 16:13:38.934499  8827 net.cpp:135] Setting up relu3_4
I0827 16:13:38.934512  8827 net.cpp:142] Top shape: 128 256 14 12 (5505024)
I0827 16:13:38.934520  8827 net.cpp:150] Memory required for data: 4882957824
I0827 16:13:38.934530  8827 layer_factory.hpp:77] Creating layer conv3_5
I0827 16:13:38.934571  8827 net.cpp:88] Creating Layer conv3_5
I0827 16:13:38.934581  8827 net.cpp:440] conv3_5 <- conv3_4
I0827 16:13:38.934593  8827 net.cpp:414] conv3_5 -> conv3_5
I0827 16:13:38.959502  8827 net.cpp:135] Setting up conv3_5
I0827 16:13:38.959523  8827 net.cpp:142] Top shape: 128 256 14 12 (5505024)
I0827 16:13:38.959529  8827 net.cpp:150] Memory required for data: 4904977920
I0827 16:13:38.959538  8827 layer_factory.hpp:77] Creating layer bn3_5
I0827 16:13:38.959548  8827 net.cpp:88] Creating Layer bn3_5
I0827 16:13:38.959554  8827 net.cpp:440] bn3_5 <- conv3_5
I0827 16:13:38.959563  8827 net.cpp:401] bn3_5 -> conv3_5 (in-place)
I0827 16:13:38.959820  8827 net.cpp:135] Setting up bn3_5
I0827 16:13:38.959836  8827 net.cpp:142] Top shape: 128 256 14 12 (5505024)
I0827 16:13:38.959843  8827 net.cpp:150] Memory required for data: 4926998016
I0827 16:13:38.959859  8827 layer_factory.hpp:77] Creating layer scale_conv3_5
I0827 16:13:38.959878  8827 net.cpp:88] Creating Layer scale_conv3_5
I0827 16:13:38.959889  8827 net.cpp:440] scale_conv3_5 <- conv3_5
I0827 16:13:38.959902  8827 net.cpp:401] scale_conv3_5 -> conv3_5 (in-place)
I0827 16:13:38.959955  8827 layer_factory.hpp:77] Creating layer scale_conv3_5
I0827 16:13:38.960090  8827 net.cpp:135] Setting up scale_conv3_5
I0827 16:13:38.960103  8827 net.cpp:142] Top shape: 128 256 14 12 (5505024)
I0827 16:13:38.960108  8827 net.cpp:150] Memory required for data: 4949018112
I0827 16:13:38.960115  8827 layer_factory.hpp:77] Creating layer relu3_5
I0827 16:13:38.960121  8827 net.cpp:88] Creating Layer relu3_5
I0827 16:13:38.960126  8827 net.cpp:440] relu3_5 <- conv3_5
I0827 16:13:38.960132  8827 net.cpp:401] relu3_5 -> conv3_5 (in-place)
I0827 16:13:38.960264  8827 net.cpp:135] Setting up relu3_5
I0827 16:13:38.960274  8827 net.cpp:142] Top shape: 128 256 14 12 (5505024)
I0827 16:13:38.960278  8827 net.cpp:150] Memory required for data: 4971038208
I0827 16:13:38.960284  8827 layer_factory.hpp:77] Creating layer res3_5
I0827 16:13:38.960294  8827 net.cpp:88] Creating Layer res3_5
I0827 16:13:38.960299  8827 net.cpp:440] res3_5 <- res3_3_res3_3_0_split_1
I0827 16:13:38.960304  8827 net.cpp:440] res3_5 <- conv3_5
I0827 16:13:38.960310  8827 net.cpp:414] res3_5 -> res3_5
I0827 16:13:38.960340  8827 net.cpp:135] Setting up res3_5
I0827 16:13:38.960348  8827 net.cpp:142] Top shape: 128 256 14 12 (5505024)
I0827 16:13:38.960352  8827 net.cpp:150] Memory required for data: 4993058304
I0827 16:13:38.960357  8827 layer_factory.hpp:77] Creating layer res3_5_res3_5_0_split
I0827 16:13:38.960366  8827 net.cpp:88] Creating Layer res3_5_res3_5_0_split
I0827 16:13:38.960371  8827 net.cpp:440] res3_5_res3_5_0_split <- res3_5
I0827 16:13:38.960376  8827 net.cpp:414] res3_5_res3_5_0_split -> res3_5_res3_5_0_split_0
I0827 16:13:38.960386  8827 net.cpp:414] res3_5_res3_5_0_split -> res3_5_res3_5_0_split_1
I0827 16:13:38.960428  8827 net.cpp:135] Setting up res3_5_res3_5_0_split
I0827 16:13:38.960436  8827 net.cpp:142] Top shape: 128 256 14 12 (5505024)
I0827 16:13:38.960441  8827 net.cpp:142] Top shape: 128 256 14 12 (5505024)
I0827 16:13:38.960446  8827 net.cpp:150] Memory required for data: 5037098496
I0827 16:13:38.960450  8827 layer_factory.hpp:77] Creating layer conv3_6
I0827 16:13:38.960463  8827 net.cpp:88] Creating Layer conv3_6
I0827 16:13:38.960467  8827 net.cpp:440] conv3_6 <- res3_5_res3_5_0_split_0
I0827 16:13:38.960476  8827 net.cpp:414] conv3_6 -> conv3_6
I0827 16:13:38.988086  8827 net.cpp:135] Setting up conv3_6
I0827 16:13:38.988108  8827 net.cpp:142] Top shape: 128 256 14 12 (5505024)
I0827 16:13:38.988117  8827 net.cpp:150] Memory required for data: 5059118592
I0827 16:13:38.988131  8827 layer_factory.hpp:77] Creating layer bn3_6
I0827 16:13:38.988178  8827 net.cpp:88] Creating Layer bn3_6
I0827 16:13:38.988198  8827 net.cpp:440] bn3_6 <- conv3_6
I0827 16:13:38.988214  8827 net.cpp:401] bn3_6 -> conv3_6 (in-place)
I0827 16:13:38.988481  8827 net.cpp:135] Setting up bn3_6
I0827 16:13:38.988497  8827 net.cpp:142] Top shape: 128 256 14 12 (5505024)
I0827 16:13:38.988504  8827 net.cpp:150] Memory required for data: 5081138688
I0827 16:13:38.988519  8827 layer_factory.hpp:77] Creating layer scale_conv3_6
I0827 16:13:38.988538  8827 net.cpp:88] Creating Layer scale_conv3_6
I0827 16:13:38.988549  8827 net.cpp:440] scale_conv3_6 <- conv3_6
I0827 16:13:38.988561  8827 net.cpp:401] scale_conv3_6 -> conv3_6 (in-place)
I0827 16:13:38.988620  8827 layer_factory.hpp:77] Creating layer scale_conv3_6
I0827 16:13:38.988767  8827 net.cpp:135] Setting up scale_conv3_6
I0827 16:13:38.988782  8827 net.cpp:142] Top shape: 128 256 14 12 (5505024)
I0827 16:13:38.988790  8827 net.cpp:150] Memory required for data: 5103158784
I0827 16:13:38.988803  8827 layer_factory.hpp:77] Creating layer relu3_6
I0827 16:13:38.988816  8827 net.cpp:88] Creating Layer relu3_6
I0827 16:13:38.988826  8827 net.cpp:440] relu3_6 <- conv3_6
I0827 16:13:38.988857  8827 net.cpp:401] relu3_6 -> conv3_6 (in-place)
I0827 16:13:38.989012  8827 net.cpp:135] Setting up relu3_6
I0827 16:13:38.989027  8827 net.cpp:142] Top shape: 128 256 14 12 (5505024)
I0827 16:13:38.989033  8827 net.cpp:150] Memory required for data: 5125178880
I0827 16:13:38.989044  8827 layer_factory.hpp:77] Creating layer conv3_7
I0827 16:13:38.989078  8827 net.cpp:88] Creating Layer conv3_7
I0827 16:13:38.989089  8827 net.cpp:440] conv3_7 <- conv3_6
I0827 16:13:38.989104  8827 net.cpp:414] conv3_7 -> conv3_7
I0827 16:13:39.012810  8827 net.cpp:135] Setting up conv3_7
I0827 16:13:39.012830  8827 net.cpp:142] Top shape: 128 256 14 12 (5505024)
I0827 16:13:39.012840  8827 net.cpp:150] Memory required for data: 5147198976
I0827 16:13:39.012857  8827 layer_factory.hpp:77] Creating layer bn3_7
I0827 16:13:39.012892  8827 net.cpp:88] Creating Layer bn3_7
I0827 16:13:39.012903  8827 net.cpp:440] bn3_7 <- conv3_7
I0827 16:13:39.012913  8827 net.cpp:401] bn3_7 -> conv3_7 (in-place)
I0827 16:13:39.013185  8827 net.cpp:135] Setting up bn3_7
I0827 16:13:39.013200  8827 net.cpp:142] Top shape: 128 256 14 12 (5505024)
I0827 16:13:39.013206  8827 net.cpp:150] Memory required for data: 5169219072
I0827 16:13:39.013232  8827 layer_factory.hpp:77] Creating layer scale_conv3_7
I0827 16:13:39.013273  8827 net.cpp:88] Creating Layer scale_conv3_7
I0827 16:13:39.013283  8827 net.cpp:440] scale_conv3_7 <- conv3_7
I0827 16:13:39.013293  8827 net.cpp:401] scale_conv3_7 -> conv3_7 (in-place)
I0827 16:13:39.013377  8827 layer_factory.hpp:77] Creating layer scale_conv3_7
I0827 16:13:39.013541  8827 net.cpp:135] Setting up scale_conv3_7
I0827 16:13:39.013556  8827 net.cpp:142] Top shape: 128 256 14 12 (5505024)
I0827 16:13:39.013563  8827 net.cpp:150] Memory required for data: 5191239168
I0827 16:13:39.013576  8827 layer_factory.hpp:77] Creating layer relu3_7
I0827 16:13:39.013608  8827 net.cpp:88] Creating Layer relu3_7
I0827 16:13:39.013617  8827 net.cpp:440] relu3_7 <- conv3_7
I0827 16:13:39.013630  8827 net.cpp:401] relu3_7 -> conv3_7 (in-place)
I0827 16:13:39.013788  8827 net.cpp:135] Setting up relu3_7
I0827 16:13:39.013803  8827 net.cpp:142] Top shape: 128 256 14 12 (5505024)
I0827 16:13:39.013809  8827 net.cpp:150] Memory required for data: 5213259264
I0827 16:13:39.013820  8827 layer_factory.hpp:77] Creating layer res3_7
I0827 16:13:39.013834  8827 net.cpp:88] Creating Layer res3_7
I0827 16:13:39.013845  8827 net.cpp:440] res3_7 <- res3_5_res3_5_0_split_1
I0827 16:13:39.013855  8827 net.cpp:440] res3_7 <- conv3_7
I0827 16:13:39.013867  8827 net.cpp:414] res3_7 -> res3_7
I0827 16:13:39.013914  8827 net.cpp:135] Setting up res3_7
I0827 16:13:39.013926  8827 net.cpp:142] Top shape: 128 256 14 12 (5505024)
I0827 16:13:39.013934  8827 net.cpp:150] Memory required for data: 5235279360
I0827 16:13:39.013942  8827 layer_factory.hpp:77] Creating layer res3_7_res3_7_0_split
I0827 16:13:39.013954  8827 net.cpp:88] Creating Layer res3_7_res3_7_0_split
I0827 16:13:39.013976  8827 net.cpp:440] res3_7_res3_7_0_split <- res3_7
I0827 16:13:39.013993  8827 net.cpp:414] res3_7_res3_7_0_split -> res3_7_res3_7_0_split_0
I0827 16:13:39.014008  8827 net.cpp:414] res3_7_res3_7_0_split -> res3_7_res3_7_0_split_1
I0827 16:13:39.014070  8827 net.cpp:135] Setting up res3_7_res3_7_0_split
I0827 16:13:39.014082  8827 net.cpp:142] Top shape: 128 256 14 12 (5505024)
I0827 16:13:39.014092  8827 net.cpp:142] Top shape: 128 256 14 12 (5505024)
I0827 16:13:39.014101  8827 net.cpp:150] Memory required for data: 5279319552
I0827 16:13:39.014111  8827 layer_factory.hpp:77] Creating layer conv3_8
I0827 16:13:39.014130  8827 net.cpp:88] Creating Layer conv3_8
I0827 16:13:39.014140  8827 net.cpp:440] conv3_8 <- res3_7_res3_7_0_split_0
I0827 16:13:39.014158  8827 net.cpp:414] conv3_8 -> conv3_8
I0827 16:13:39.037595  8827 net.cpp:135] Setting up conv3_8
I0827 16:13:39.037622  8827 net.cpp:142] Top shape: 128 256 14 12 (5505024)
I0827 16:13:39.037657  8827 net.cpp:150] Memory required for data: 5301339648
I0827 16:13:39.037674  8827 layer_factory.hpp:77] Creating layer bn3_8
I0827 16:13:39.037705  8827 net.cpp:88] Creating Layer bn3_8
I0827 16:13:39.037715  8827 net.cpp:440] bn3_8 <- conv3_8
I0827 16:13:39.037730  8827 net.cpp:401] bn3_8 -> conv3_8 (in-place)
I0827 16:13:39.037992  8827 net.cpp:135] Setting up bn3_8
I0827 16:13:39.038007  8827 net.cpp:142] Top shape: 128 256 14 12 (5505024)
I0827 16:13:39.038014  8827 net.cpp:150] Memory required for data: 5323359744
I0827 16:13:39.038029  8827 layer_factory.hpp:77] Creating layer scale_conv3_8
I0827 16:13:39.038046  8827 net.cpp:88] Creating Layer scale_conv3_8
I0827 16:13:39.038058  8827 net.cpp:440] scale_conv3_8 <- conv3_8
I0827 16:13:39.038067  8827 net.cpp:401] scale_conv3_8 -> conv3_8 (in-place)
I0827 16:13:39.038130  8827 layer_factory.hpp:77] Creating layer scale_conv3_8
I0827 16:13:39.038278  8827 net.cpp:135] Setting up scale_conv3_8
I0827 16:13:39.038292  8827 net.cpp:142] Top shape: 128 256 14 12 (5505024)
I0827 16:13:39.038300  8827 net.cpp:150] Memory required for data: 5345379840
I0827 16:13:39.038334  8827 layer_factory.hpp:77] Creating layer relu3_8
I0827 16:13:39.038349  8827 net.cpp:88] Creating Layer relu3_8
I0827 16:13:39.038375  8827 net.cpp:440] relu3_8 <- conv3_8
I0827 16:13:39.038388  8827 net.cpp:401] relu3_8 -> conv3_8 (in-place)
I0827 16:13:39.038545  8827 net.cpp:135] Setting up relu3_8
I0827 16:13:39.038559  8827 net.cpp:142] Top shape: 128 256 14 12 (5505024)
I0827 16:13:39.038566  8827 net.cpp:150] Memory required for data: 5367399936
I0827 16:13:39.038579  8827 layer_factory.hpp:77] Creating layer conv3_9
I0827 16:13:39.038601  8827 net.cpp:88] Creating Layer conv3_9
I0827 16:13:39.038611  8827 net.cpp:440] conv3_9 <- conv3_8
I0827 16:13:39.038625  8827 net.cpp:414] conv3_9 -> conv3_9
I0827 16:13:39.061900  8827 net.cpp:135] Setting up conv3_9
I0827 16:13:39.061920  8827 net.cpp:142] Top shape: 128 256 14 12 (5505024)
I0827 16:13:39.061929  8827 net.cpp:150] Memory required for data: 5389420032
I0827 16:13:39.061944  8827 layer_factory.hpp:77] Creating layer bn3_9
I0827 16:13:39.061980  8827 net.cpp:88] Creating Layer bn3_9
I0827 16:13:39.061990  8827 net.cpp:440] bn3_9 <- conv3_9
I0827 16:13:39.062005  8827 net.cpp:401] bn3_9 -> conv3_9 (in-place)
I0827 16:13:39.062271  8827 net.cpp:135] Setting up bn3_9
I0827 16:13:39.062285  8827 net.cpp:142] Top shape: 128 256 14 12 (5505024)
I0827 16:13:39.062294  8827 net.cpp:150] Memory required for data: 5411440128
I0827 16:13:39.062309  8827 layer_factory.hpp:77] Creating layer scale_conv3_9
I0827 16:13:39.062324  8827 net.cpp:88] Creating Layer scale_conv3_9
I0827 16:13:39.062352  8827 net.cpp:440] scale_conv3_9 <- conv3_9
I0827 16:13:39.062366  8827 net.cpp:401] scale_conv3_9 -> conv3_9 (in-place)
I0827 16:13:39.062431  8827 layer_factory.hpp:77] Creating layer scale_conv3_9
I0827 16:13:39.062585  8827 net.cpp:135] Setting up scale_conv3_9
I0827 16:13:39.062599  8827 net.cpp:142] Top shape: 128 256 14 12 (5505024)
I0827 16:13:39.062608  8827 net.cpp:150] Memory required for data: 5433460224
I0827 16:13:39.062650  8827 layer_factory.hpp:77] Creating layer relu3_9
I0827 16:13:39.062664  8827 net.cpp:88] Creating Layer relu3_9
I0827 16:13:39.062671  8827 net.cpp:440] relu3_9 <- conv3_9
I0827 16:13:39.062702  8827 net.cpp:401] relu3_9 -> conv3_9 (in-place)
I0827 16:13:39.063578  8827 net.cpp:135] Setting up relu3_9
I0827 16:13:39.063596  8827 net.cpp:142] Top shape: 128 256 14 12 (5505024)
I0827 16:13:39.063604  8827 net.cpp:150] Memory required for data: 5455480320
I0827 16:13:39.063617  8827 layer_factory.hpp:77] Creating layer res3_9
I0827 16:13:39.063652  8827 net.cpp:88] Creating Layer res3_9
I0827 16:13:39.063663  8827 net.cpp:440] res3_9 <- res3_7_res3_7_0_split_1
I0827 16:13:39.063673  8827 net.cpp:440] res3_9 <- conv3_9
I0827 16:13:39.063683  8827 net.cpp:414] res3_9 -> res3_9
I0827 16:13:39.063732  8827 net.cpp:135] Setting up res3_9
I0827 16:13:39.063745  8827 net.cpp:142] Top shape: 128 256 14 12 (5505024)
I0827 16:13:39.063752  8827 net.cpp:150] Memory required for data: 5477500416
I0827 16:13:39.063779  8827 layer_factory.hpp:77] Creating layer res3_9_res3_9_0_split
I0827 16:13:39.063794  8827 net.cpp:88] Creating Layer res3_9_res3_9_0_split
I0827 16:13:39.063804  8827 net.cpp:440] res3_9_res3_9_0_split <- res3_9
I0827 16:13:39.063818  8827 net.cpp:414] res3_9_res3_9_0_split -> res3_9_res3_9_0_split_0
I0827 16:13:39.063832  8827 net.cpp:414] res3_9_res3_9_0_split -> res3_9_res3_9_0_split_1
I0827 16:13:39.063897  8827 net.cpp:135] Setting up res3_9_res3_9_0_split
I0827 16:13:39.063910  8827 net.cpp:142] Top shape: 128 256 14 12 (5505024)
I0827 16:13:39.063920  8827 net.cpp:142] Top shape: 128 256 14 12 (5505024)
I0827 16:13:39.063946  8827 net.cpp:150] Memory required for data: 5521540608
I0827 16:13:39.063953  8827 layer_factory.hpp:77] Creating layer conv3_10
I0827 16:13:39.063973  8827 net.cpp:88] Creating Layer conv3_10
I0827 16:13:39.063982  8827 net.cpp:440] conv3_10 <- res3_9_res3_9_0_split_0
I0827 16:13:39.063999  8827 net.cpp:414] conv3_10 -> conv3_10
I0827 16:13:39.087337  8827 net.cpp:135] Setting up conv3_10
I0827 16:13:39.087357  8827 net.cpp:142] Top shape: 128 256 14 12 (5505024)
I0827 16:13:39.087366  8827 net.cpp:150] Memory required for data: 5543560704
I0827 16:13:39.087380  8827 layer_factory.hpp:77] Creating layer bn3_10
I0827 16:13:39.087416  8827 net.cpp:88] Creating Layer bn3_10
I0827 16:13:39.087427  8827 net.cpp:440] bn3_10 <- conv3_10
I0827 16:13:39.087441  8827 net.cpp:401] bn3_10 -> conv3_10 (in-place)
I0827 16:13:39.087710  8827 net.cpp:135] Setting up bn3_10
I0827 16:13:39.087725  8827 net.cpp:142] Top shape: 128 256 14 12 (5505024)
I0827 16:13:39.087733  8827 net.cpp:150] Memory required for data: 5565580800
I0827 16:13:39.087750  8827 layer_factory.hpp:77] Creating layer scale_conv3_10
I0827 16:13:39.087765  8827 net.cpp:88] Creating Layer scale_conv3_10
I0827 16:13:39.087776  8827 net.cpp:440] scale_conv3_10 <- conv3_10
I0827 16:13:39.087787  8827 net.cpp:401] scale_conv3_10 -> conv3_10 (in-place)
I0827 16:13:39.087848  8827 layer_factory.hpp:77] Creating layer scale_conv3_10
I0827 16:13:39.088001  8827 net.cpp:135] Setting up scale_conv3_10
I0827 16:13:39.088016  8827 net.cpp:142] Top shape: 128 256 14 12 (5505024)
I0827 16:13:39.088023  8827 net.cpp:150] Memory required for data: 5587600896
I0827 16:13:39.088037  8827 layer_factory.hpp:77] Creating layer relu3_10
I0827 16:13:39.088052  8827 net.cpp:88] Creating Layer relu3_10
I0827 16:13:39.088063  8827 net.cpp:440] relu3_10 <- conv3_10
I0827 16:13:39.088075  8827 net.cpp:401] relu3_10 -> conv3_10 (in-place)
I0827 16:13:39.088223  8827 net.cpp:135] Setting up relu3_10
I0827 16:13:39.088237  8827 net.cpp:142] Top shape: 128 256 14 12 (5505024)
I0827 16:13:39.088243  8827 net.cpp:150] Memory required for data: 5609620992
I0827 16:13:39.088254  8827 layer_factory.hpp:77] Creating layer conv3_11
I0827 16:13:39.088291  8827 net.cpp:88] Creating Layer conv3_11
I0827 16:13:39.088301  8827 net.cpp:440] conv3_11 <- conv3_10
I0827 16:13:39.088315  8827 net.cpp:414] conv3_11 -> conv3_11
I0827 16:13:39.111649  8827 net.cpp:135] Setting up conv3_11
I0827 16:13:39.111670  8827 net.cpp:142] Top shape: 128 256 14 12 (5505024)
I0827 16:13:39.111678  8827 net.cpp:150] Memory required for data: 5631641088
I0827 16:13:39.111692  8827 layer_factory.hpp:77] Creating layer bn3_11
I0827 16:13:39.111729  8827 net.cpp:88] Creating Layer bn3_11
I0827 16:13:39.111739  8827 net.cpp:440] bn3_11 <- conv3_11
I0827 16:13:39.111754  8827 net.cpp:401] bn3_11 -> conv3_11 (in-place)
I0827 16:13:39.112021  8827 net.cpp:135] Setting up bn3_11
I0827 16:13:39.112036  8827 net.cpp:142] Top shape: 128 256 14 12 (5505024)
I0827 16:13:39.112045  8827 net.cpp:150] Memory required for data: 5653661184
I0827 16:13:39.112061  8827 layer_factory.hpp:77] Creating layer scale_conv3_11
I0827 16:13:39.112076  8827 net.cpp:88] Creating Layer scale_conv3_11
I0827 16:13:39.112087  8827 net.cpp:440] scale_conv3_11 <- conv3_11
I0827 16:13:39.112098  8827 net.cpp:401] scale_conv3_11 -> conv3_11 (in-place)
I0827 16:13:39.112160  8827 layer_factory.hpp:77] Creating layer scale_conv3_11
I0827 16:13:39.112313  8827 net.cpp:135] Setting up scale_conv3_11
I0827 16:13:39.112325  8827 net.cpp:142] Top shape: 128 256 14 12 (5505024)
I0827 16:13:39.112334  8827 net.cpp:150] Memory required for data: 5675681280
I0827 16:13:39.112346  8827 layer_factory.hpp:77] Creating layer relu3_11
I0827 16:13:39.112361  8827 net.cpp:88] Creating Layer relu3_11
I0827 16:13:39.112372  8827 net.cpp:440] relu3_11 <- conv3_11
I0827 16:13:39.112385  8827 net.cpp:401] relu3_11 -> conv3_11 (in-place)
I0827 16:13:39.112534  8827 net.cpp:135] Setting up relu3_11
I0827 16:13:39.112547  8827 net.cpp:142] Top shape: 128 256 14 12 (5505024)
I0827 16:13:39.112555  8827 net.cpp:150] Memory required for data: 5697701376
I0827 16:13:39.112565  8827 layer_factory.hpp:77] Creating layer res3_11
I0827 16:13:39.112576  8827 net.cpp:88] Creating Layer res3_11
I0827 16:13:39.112586  8827 net.cpp:440] res3_11 <- res3_9_res3_9_0_split_1
I0827 16:13:39.112596  8827 net.cpp:440] res3_11 <- conv3_11
I0827 16:13:39.112609  8827 net.cpp:414] res3_11 -> res3_11
I0827 16:13:39.112654  8827 net.cpp:135] Setting up res3_11
I0827 16:13:39.112666  8827 net.cpp:142] Top shape: 128 256 14 12 (5505024)
I0827 16:13:39.112674  8827 net.cpp:150] Memory required for data: 5719721472
I0827 16:13:39.112681  8827 layer_factory.hpp:77] Creating layer res3_11_res3_11_0_split
I0827 16:13:39.112692  8827 net.cpp:88] Creating Layer res3_11_res3_11_0_split
I0827 16:13:39.112700  8827 net.cpp:440] res3_11_res3_11_0_split <- res3_11
I0827 16:13:39.112710  8827 net.cpp:414] res3_11_res3_11_0_split -> res3_11_res3_11_0_split_0
I0827 16:13:39.112726  8827 net.cpp:414] res3_11_res3_11_0_split -> res3_11_res3_11_0_split_1
I0827 16:13:39.112787  8827 net.cpp:135] Setting up res3_11_res3_11_0_split
I0827 16:13:39.112799  8827 net.cpp:142] Top shape: 128 256 14 12 (5505024)
I0827 16:13:39.112808  8827 net.cpp:142] Top shape: 128 256 14 12 (5505024)
I0827 16:13:39.112815  8827 net.cpp:150] Memory required for data: 5763761664
I0827 16:13:39.112825  8827 layer_factory.hpp:77] Creating layer conv3_12
I0827 16:13:39.112848  8827 net.cpp:88] Creating Layer conv3_12
I0827 16:13:39.112859  8827 net.cpp:440] conv3_12 <- res3_11_res3_11_0_split_0
I0827 16:13:39.112871  8827 net.cpp:414] conv3_12 -> conv3_12
I0827 16:13:39.135568  8827 net.cpp:135] Setting up conv3_12
I0827 16:13:39.135589  8827 net.cpp:142] Top shape: 128 256 14 12 (5505024)
I0827 16:13:39.135597  8827 net.cpp:150] Memory required for data: 5785781760
I0827 16:13:39.135612  8827 layer_factory.hpp:77] Creating layer bn3_12
I0827 16:13:39.135628  8827 net.cpp:88] Creating Layer bn3_12
I0827 16:13:39.135638  8827 net.cpp:440] bn3_12 <- conv3_12
I0827 16:13:39.135651  8827 net.cpp:401] bn3_12 -> conv3_12 (in-place)
I0827 16:13:39.135921  8827 net.cpp:135] Setting up bn3_12
I0827 16:13:39.135934  8827 net.cpp:142] Top shape: 128 256 14 12 (5505024)
I0827 16:13:39.135942  8827 net.cpp:150] Memory required for data: 5807801856
I0827 16:13:39.135957  8827 layer_factory.hpp:77] Creating layer scale_conv3_12
I0827 16:13:39.135994  8827 net.cpp:88] Creating Layer scale_conv3_12
I0827 16:13:39.136013  8827 net.cpp:440] scale_conv3_12 <- conv3_12
I0827 16:13:39.136029  8827 net.cpp:401] scale_conv3_12 -> conv3_12 (in-place)
I0827 16:13:39.136098  8827 layer_factory.hpp:77] Creating layer scale_conv3_12
I0827 16:13:39.136265  8827 net.cpp:135] Setting up scale_conv3_12
I0827 16:13:39.136278  8827 net.cpp:142] Top shape: 128 256 14 12 (5505024)
I0827 16:13:39.136286  8827 net.cpp:150] Memory required for data: 5829821952
I0827 16:13:39.136299  8827 layer_factory.hpp:77] Creating layer relu3_12
I0827 16:13:39.136322  8827 net.cpp:88] Creating Layer relu3_12
I0827 16:13:39.136333  8827 net.cpp:440] relu3_12 <- conv3_12
I0827 16:13:39.136344  8827 net.cpp:401] relu3_12 -> conv3_12 (in-place)
I0827 16:13:39.136497  8827 net.cpp:135] Setting up relu3_12
I0827 16:13:39.136512  8827 net.cpp:142] Top shape: 128 256 14 12 (5505024)
I0827 16:13:39.136518  8827 net.cpp:150] Memory required for data: 5851842048
I0827 16:13:39.136528  8827 layer_factory.hpp:77] Creating layer conv3_13
I0827 16:13:39.136551  8827 net.cpp:88] Creating Layer conv3_13
I0827 16:13:39.136560  8827 net.cpp:440] conv3_13 <- conv3_12
I0827 16:13:39.136574  8827 net.cpp:414] conv3_13 -> conv3_13
I0827 16:13:39.159901  8827 net.cpp:135] Setting up conv3_13
I0827 16:13:39.159921  8827 net.cpp:142] Top shape: 128 256 14 12 (5505024)
I0827 16:13:39.159930  8827 net.cpp:150] Memory required for data: 5873862144
I0827 16:13:39.159945  8827 layer_factory.hpp:77] Creating layer bn3_13
I0827 16:13:39.159960  8827 net.cpp:88] Creating Layer bn3_13
I0827 16:13:39.159970  8827 net.cpp:440] bn3_13 <- conv3_13
I0827 16:13:39.159981  8827 net.cpp:401] bn3_13 -> conv3_13 (in-place)
I0827 16:13:39.160256  8827 net.cpp:135] Setting up bn3_13
I0827 16:13:39.160271  8827 net.cpp:142] Top shape: 128 256 14 12 (5505024)
I0827 16:13:39.160279  8827 net.cpp:150] Memory required for data: 5895882240
I0827 16:13:39.160295  8827 layer_factory.hpp:77] Creating layer scale_conv3_13
I0827 16:13:39.160310  8827 net.cpp:88] Creating Layer scale_conv3_13
I0827 16:13:39.160318  8827 net.cpp:440] scale_conv3_13 <- conv3_13
I0827 16:13:39.160332  8827 net.cpp:401] scale_conv3_13 -> conv3_13 (in-place)
I0827 16:13:39.160396  8827 layer_factory.hpp:77] Creating layer scale_conv3_13
I0827 16:13:39.160557  8827 net.cpp:135] Setting up scale_conv3_13
I0827 16:13:39.160573  8827 net.cpp:142] Top shape: 128 256 14 12 (5505024)
I0827 16:13:39.160579  8827 net.cpp:150] Memory required for data: 5917902336
I0827 16:13:39.160594  8827 layer_factory.hpp:77] Creating layer relu3_13
I0827 16:13:39.160609  8827 net.cpp:88] Creating Layer relu3_13
I0827 16:13:39.160617  8827 net.cpp:440] relu3_13 <- conv3_13
I0827 16:13:39.160627  8827 net.cpp:401] relu3_13 -> conv3_13 (in-place)
I0827 16:13:39.160784  8827 net.cpp:135] Setting up relu3_13
I0827 16:13:39.160797  8827 net.cpp:142] Top shape: 128 256 14 12 (5505024)
I0827 16:13:39.160804  8827 net.cpp:150] Memory required for data: 5939922432
I0827 16:13:39.160815  8827 layer_factory.hpp:77] Creating layer res3_13
I0827 16:13:39.160830  8827 net.cpp:88] Creating Layer res3_13
I0827 16:13:39.160840  8827 net.cpp:440] res3_13 <- res3_11_res3_11_0_split_1
I0827 16:13:39.160848  8827 net.cpp:440] res3_13 <- conv3_13
I0827 16:13:39.160859  8827 net.cpp:414] res3_13 -> res3_13
I0827 16:13:39.160907  8827 net.cpp:135] Setting up res3_13
I0827 16:13:39.160919  8827 net.cpp:142] Top shape: 128 256 14 12 (5505024)
I0827 16:13:39.160926  8827 net.cpp:150] Memory required for data: 5961942528
I0827 16:13:39.160933  8827 layer_factory.hpp:77] Creating layer res3_13_res3_13_0_split
I0827 16:13:39.160948  8827 net.cpp:88] Creating Layer res3_13_res3_13_0_split
I0827 16:13:39.160956  8827 net.cpp:440] res3_13_res3_13_0_split <- res3_13
I0827 16:13:39.160967  8827 net.cpp:414] res3_13_res3_13_0_split -> res3_13_res3_13_0_split_0
I0827 16:13:39.160980  8827 net.cpp:414] res3_13_res3_13_0_split -> res3_13_res3_13_0_split_1
I0827 16:13:39.161049  8827 net.cpp:135] Setting up res3_13_res3_13_0_split
I0827 16:13:39.161074  8827 net.cpp:142] Top shape: 128 256 14 12 (5505024)
I0827 16:13:39.161084  8827 net.cpp:142] Top shape: 128 256 14 12 (5505024)
I0827 16:13:39.161092  8827 net.cpp:150] Memory required for data: 6005982720
I0827 16:13:39.161100  8827 layer_factory.hpp:77] Creating layer conv3_14
I0827 16:13:39.161121  8827 net.cpp:88] Creating Layer conv3_14
I0827 16:13:39.161139  8827 net.cpp:440] conv3_14 <- res3_13_res3_13_0_split_0
I0827 16:13:39.161157  8827 net.cpp:414] conv3_14 -> conv3_14
I0827 16:13:39.186769  8827 net.cpp:135] Setting up conv3_14
I0827 16:13:39.186789  8827 net.cpp:142] Top shape: 128 256 14 12 (5505024)
I0827 16:13:39.186794  8827 net.cpp:150] Memory required for data: 6028002816
I0827 16:13:39.186807  8827 layer_factory.hpp:77] Creating layer bn3_14
I0827 16:13:39.186816  8827 net.cpp:88] Creating Layer bn3_14
I0827 16:13:39.186822  8827 net.cpp:440] bn3_14 <- conv3_14
I0827 16:13:39.186831  8827 net.cpp:401] bn3_14 -> conv3_14 (in-place)
I0827 16:13:39.187091  8827 net.cpp:135] Setting up bn3_14
I0827 16:13:39.187103  8827 net.cpp:142] Top shape: 128 256 14 12 (5505024)
I0827 16:13:39.187108  8827 net.cpp:150] Memory required for data: 6050022912
I0827 16:13:39.187116  8827 layer_factory.hpp:77] Creating layer scale_conv3_14
I0827 16:13:39.187125  8827 net.cpp:88] Creating Layer scale_conv3_14
I0827 16:13:39.187130  8827 net.cpp:440] scale_conv3_14 <- conv3_14
I0827 16:13:39.187137  8827 net.cpp:401] scale_conv3_14 -> conv3_14 (in-place)
I0827 16:13:39.187189  8827 layer_factory.hpp:77] Creating layer scale_conv3_14
I0827 16:13:39.187336  8827 net.cpp:135] Setting up scale_conv3_14
I0827 16:13:39.187346  8827 net.cpp:142] Top shape: 128 256 14 12 (5505024)
I0827 16:13:39.187350  8827 net.cpp:150] Memory required for data: 6072043008
I0827 16:13:39.187358  8827 layer_factory.hpp:77] Creating layer relu3_14
I0827 16:13:39.187364  8827 net.cpp:88] Creating Layer relu3_14
I0827 16:13:39.187369  8827 net.cpp:440] relu3_14 <- conv3_14
I0827 16:13:39.187376  8827 net.cpp:401] relu3_14 -> conv3_14 (in-place)
I0827 16:13:39.187522  8827 net.cpp:135] Setting up relu3_14
I0827 16:13:39.187532  8827 net.cpp:142] Top shape: 128 256 14 12 (5505024)
I0827 16:13:39.187536  8827 net.cpp:150] Memory required for data: 6094063104
I0827 16:13:39.187542  8827 layer_factory.hpp:77] Creating layer conv3_15
I0827 16:13:39.187554  8827 net.cpp:88] Creating Layer conv3_15
I0827 16:13:39.187559  8827 net.cpp:440] conv3_15 <- conv3_14
I0827 16:13:39.187568  8827 net.cpp:414] conv3_15 -> conv3_15
I0827 16:13:39.211153  8827 net.cpp:135] Setting up conv3_15
I0827 16:13:39.211172  8827 net.cpp:142] Top shape: 128 256 14 12 (5505024)
I0827 16:13:39.211177  8827 net.cpp:150] Memory required for data: 6116083200
I0827 16:13:39.211189  8827 layer_factory.hpp:77] Creating layer bn3_15
I0827 16:13:39.211199  8827 net.cpp:88] Creating Layer bn3_15
I0827 16:13:39.211205  8827 net.cpp:440] bn3_15 <- conv3_15
I0827 16:13:39.211211  8827 net.cpp:401] bn3_15 -> conv3_15 (in-place)
I0827 16:13:39.211479  8827 net.cpp:135] Setting up bn3_15
I0827 16:13:39.211490  8827 net.cpp:142] Top shape: 128 256 14 12 (5505024)
I0827 16:13:39.211494  8827 net.cpp:150] Memory required for data: 6138103296
I0827 16:13:39.211503  8827 layer_factory.hpp:77] Creating layer scale_conv3_15
I0827 16:13:39.211515  8827 net.cpp:88] Creating Layer scale_conv3_15
I0827 16:13:39.211520  8827 net.cpp:440] scale_conv3_15 <- conv3_15
I0827 16:13:39.211526  8827 net.cpp:401] scale_conv3_15 -> conv3_15 (in-place)
I0827 16:13:39.211575  8827 layer_factory.hpp:77] Creating layer scale_conv3_15
I0827 16:13:39.211729  8827 net.cpp:135] Setting up scale_conv3_15
I0827 16:13:39.211738  8827 net.cpp:142] Top shape: 128 256 14 12 (5505024)
I0827 16:13:39.211742  8827 net.cpp:150] Memory required for data: 6160123392
I0827 16:13:39.211750  8827 layer_factory.hpp:77] Creating layer relu3_15
I0827 16:13:39.211756  8827 net.cpp:88] Creating Layer relu3_15
I0827 16:13:39.211761  8827 net.cpp:440] relu3_15 <- conv3_15
I0827 16:13:39.211782  8827 net.cpp:401] relu3_15 -> conv3_15 (in-place)
I0827 16:13:39.212649  8827 net.cpp:135] Setting up relu3_15
I0827 16:13:39.212666  8827 net.cpp:142] Top shape: 128 256 14 12 (5505024)
I0827 16:13:39.212671  8827 net.cpp:150] Memory required for data: 6182143488
I0827 16:13:39.212677  8827 layer_factory.hpp:77] Creating layer res3_15
I0827 16:13:39.212685  8827 net.cpp:88] Creating Layer res3_15
I0827 16:13:39.212690  8827 net.cpp:440] res3_15 <- res3_13_res3_13_0_split_1
I0827 16:13:39.212698  8827 net.cpp:440] res3_15 <- conv3_15
I0827 16:13:39.212705  8827 net.cpp:414] res3_15 -> res3_15
I0827 16:13:39.212743  8827 net.cpp:135] Setting up res3_15
I0827 16:13:39.212752  8827 net.cpp:142] Top shape: 128 256 14 12 (5505024)
I0827 16:13:39.212756  8827 net.cpp:150] Memory required for data: 6204163584
I0827 16:13:39.212762  8827 layer_factory.hpp:77] Creating layer res3_15_res3_15_0_split
I0827 16:13:39.212769  8827 net.cpp:88] Creating Layer res3_15_res3_15_0_split
I0827 16:13:39.212774  8827 net.cpp:440] res3_15_res3_15_0_split <- res3_15
I0827 16:13:39.212782  8827 net.cpp:414] res3_15_res3_15_0_split -> res3_15_res3_15_0_split_0
I0827 16:13:39.212790  8827 net.cpp:414] res3_15_res3_15_0_split -> res3_15_res3_15_0_split_1
I0827 16:13:39.212839  8827 net.cpp:135] Setting up res3_15_res3_15_0_split
I0827 16:13:39.212848  8827 net.cpp:142] Top shape: 128 256 14 12 (5505024)
I0827 16:13:39.212853  8827 net.cpp:142] Top shape: 128 256 14 12 (5505024)
I0827 16:13:39.212857  8827 net.cpp:150] Memory required for data: 6248203776
I0827 16:13:39.212862  8827 layer_factory.hpp:77] Creating layer conv3_16
I0827 16:13:39.212877  8827 net.cpp:88] Creating Layer conv3_16
I0827 16:13:39.212888  8827 net.cpp:440] conv3_16 <- res3_15_res3_15_0_split_0
I0827 16:13:39.212896  8827 net.cpp:414] conv3_16 -> conv3_16
I0827 16:13:39.239531  8827 net.cpp:135] Setting up conv3_16
I0827 16:13:39.239548  8827 net.cpp:142] Top shape: 128 256 14 12 (5505024)
I0827 16:13:39.239554  8827 net.cpp:150] Memory required for data: 6270223872
I0827 16:13:39.239563  8827 layer_factory.hpp:77] Creating layer bn3_16
I0827 16:13:39.239574  8827 net.cpp:88] Creating Layer bn3_16
I0827 16:13:39.239579  8827 net.cpp:440] bn3_16 <- conv3_16
I0827 16:13:39.239588  8827 net.cpp:401] bn3_16 -> conv3_16 (in-place)
I0827 16:13:39.239856  8827 net.cpp:135] Setting up bn3_16
I0827 16:13:39.239867  8827 net.cpp:142] Top shape: 128 256 14 12 (5505024)
I0827 16:13:39.239871  8827 net.cpp:150] Memory required for data: 6292243968
I0827 16:13:39.239881  8827 layer_factory.hpp:77] Creating layer scale_conv3_16
I0827 16:13:39.239892  8827 net.cpp:88] Creating Layer scale_conv3_16
I0827 16:13:39.239897  8827 net.cpp:440] scale_conv3_16 <- conv3_16
I0827 16:13:39.239902  8827 net.cpp:401] scale_conv3_16 -> conv3_16 (in-place)
I0827 16:13:39.239950  8827 layer_factory.hpp:77] Creating layer scale_conv3_16
I0827 16:13:39.240108  8827 net.cpp:135] Setting up scale_conv3_16
I0827 16:13:39.240119  8827 net.cpp:142] Top shape: 128 256 14 12 (5505024)
I0827 16:13:39.240123  8827 net.cpp:150] Memory required for data: 6314264064
I0827 16:13:39.240133  8827 layer_factory.hpp:77] Creating layer relu3_16
I0827 16:13:39.240139  8827 net.cpp:88] Creating Layer relu3_16
I0827 16:13:39.240144  8827 net.cpp:440] relu3_16 <- conv3_16
I0827 16:13:39.240150  8827 net.cpp:401] relu3_16 -> conv3_16 (in-place)
I0827 16:13:39.240294  8827 net.cpp:135] Setting up relu3_16
I0827 16:13:39.240304  8827 net.cpp:142] Top shape: 128 256 14 12 (5505024)
I0827 16:13:39.240309  8827 net.cpp:150] Memory required for data: 6336284160
I0827 16:13:39.240315  8827 layer_factory.hpp:77] Creating layer conv3_17
I0827 16:13:39.240326  8827 net.cpp:88] Creating Layer conv3_17
I0827 16:13:39.240331  8827 net.cpp:440] conv3_17 <- conv3_16
I0827 16:13:39.240340  8827 net.cpp:414] conv3_17 -> conv3_17
I0827 16:13:39.265327  8827 net.cpp:135] Setting up conv3_17
I0827 16:13:39.265350  8827 net.cpp:142] Top shape: 128 256 14 12 (5505024)
I0827 16:13:39.265357  8827 net.cpp:150] Memory required for data: 6358304256
I0827 16:13:39.265377  8827 layer_factory.hpp:77] Creating layer bn3_17
I0827 16:13:39.265386  8827 net.cpp:88] Creating Layer bn3_17
I0827 16:13:39.265394  8827 net.cpp:440] bn3_17 <- conv3_17
I0827 16:13:39.265401  8827 net.cpp:401] bn3_17 -> conv3_17 (in-place)
I0827 16:13:39.265676  8827 net.cpp:135] Setting up bn3_17
I0827 16:13:39.265688  8827 net.cpp:142] Top shape: 128 256 14 12 (5505024)
I0827 16:13:39.265693  8827 net.cpp:150] Memory required for data: 6380324352
I0827 16:13:39.265702  8827 layer_factory.hpp:77] Creating layer scale_conv3_17
I0827 16:13:39.265714  8827 net.cpp:88] Creating Layer scale_conv3_17
I0827 16:13:39.265719  8827 net.cpp:440] scale_conv3_17 <- conv3_17
I0827 16:13:39.265725  8827 net.cpp:401] scale_conv3_17 -> conv3_17 (in-place)
I0827 16:13:39.265775  8827 layer_factory.hpp:77] Creating layer scale_conv3_17
I0827 16:13:39.265923  8827 net.cpp:135] Setting up scale_conv3_17
I0827 16:13:39.265933  8827 net.cpp:142] Top shape: 128 256 14 12 (5505024)
I0827 16:13:39.265936  8827 net.cpp:150] Memory required for data: 6402344448
I0827 16:13:39.265945  8827 layer_factory.hpp:77] Creating layer relu3_17
I0827 16:13:39.265951  8827 net.cpp:88] Creating Layer relu3_17
I0827 16:13:39.265956  8827 net.cpp:440] relu3_17 <- conv3_17
I0827 16:13:39.265964  8827 net.cpp:401] relu3_17 -> conv3_17 (in-place)
I0827 16:13:39.266108  8827 net.cpp:135] Setting up relu3_17
I0827 16:13:39.266118  8827 net.cpp:142] Top shape: 128 256 14 12 (5505024)
I0827 16:13:39.266122  8827 net.cpp:150] Memory required for data: 6424364544
I0827 16:13:39.266129  8827 layer_factory.hpp:77] Creating layer res3_17
I0827 16:13:39.266135  8827 net.cpp:88] Creating Layer res3_17
I0827 16:13:39.266140  8827 net.cpp:440] res3_17 <- res3_15_res3_15_0_split_1
I0827 16:13:39.266146  8827 net.cpp:440] res3_17 <- conv3_17
I0827 16:13:39.266152  8827 net.cpp:414] res3_17 -> res3_17
I0827 16:13:39.266191  8827 net.cpp:135] Setting up res3_17
I0827 16:13:39.266197  8827 net.cpp:142] Top shape: 128 256 14 12 (5505024)
I0827 16:13:39.266201  8827 net.cpp:150] Memory required for data: 6446384640
I0827 16:13:39.266206  8827 layer_factory.hpp:77] Creating layer conv4_1
I0827 16:13:39.266217  8827 net.cpp:88] Creating Layer conv4_1
I0827 16:13:39.266222  8827 net.cpp:440] conv4_1 <- res3_17
I0827 16:13:39.266232  8827 net.cpp:414] conv4_1 -> conv4_1
I0827 16:13:39.279425  8827 net.cpp:135] Setting up conv4_1
I0827 16:13:39.279444  8827 net.cpp:142] Top shape: 128 512 7 6 (2752512)
I0827 16:13:39.279449  8827 net.cpp:150] Memory required for data: 6457394688
I0827 16:13:39.279458  8827 layer_factory.hpp:77] Creating layer bn4_1
I0827 16:13:39.279469  8827 net.cpp:88] Creating Layer bn4_1
I0827 16:13:39.279475  8827 net.cpp:440] bn4_1 <- conv4_1
I0827 16:13:39.279484  8827 net.cpp:401] bn4_1 -> conv4_1 (in-place)
I0827 16:13:39.279753  8827 net.cpp:135] Setting up bn4_1
I0827 16:13:39.279764  8827 net.cpp:142] Top shape: 128 512 7 6 (2752512)
I0827 16:13:39.279769  8827 net.cpp:150] Memory required for data: 6468404736
I0827 16:13:39.279780  8827 layer_factory.hpp:77] Creating layer scale_conv4_1
I0827 16:13:39.279788  8827 net.cpp:88] Creating Layer scale_conv4_1
I0827 16:13:39.279793  8827 net.cpp:440] scale_conv4_1 <- conv4_1
I0827 16:13:39.279801  8827 net.cpp:401] scale_conv4_1 -> conv4_1 (in-place)
I0827 16:13:39.279845  8827 layer_factory.hpp:77] Creating layer scale_conv4_1
I0827 16:13:39.280007  8827 net.cpp:135] Setting up scale_conv4_1
I0827 16:13:39.280019  8827 net.cpp:142] Top shape: 128 512 7 6 (2752512)
I0827 16:13:39.280022  8827 net.cpp:150] Memory required for data: 6479414784
I0827 16:13:39.280030  8827 layer_factory.hpp:77] Creating layer relu4_1
I0827 16:13:39.280040  8827 net.cpp:88] Creating Layer relu4_1
I0827 16:13:39.280045  8827 net.cpp:440] relu4_1 <- conv4_1
I0827 16:13:39.280050  8827 net.cpp:401] relu4_1 -> conv4_1 (in-place)
I0827 16:13:39.280171  8827 net.cpp:135] Setting up relu4_1
I0827 16:13:39.280181  8827 net.cpp:142] Top shape: 128 512 7 6 (2752512)
I0827 16:13:39.280186  8827 net.cpp:150] Memory required for data: 6490424832
I0827 16:13:39.280205  8827 layer_factory.hpp:77] Creating layer conv4_1_relu4_1_0_split
I0827 16:13:39.280213  8827 net.cpp:88] Creating Layer conv4_1_relu4_1_0_split
I0827 16:13:39.280218  8827 net.cpp:440] conv4_1_relu4_1_0_split <- conv4_1
I0827 16:13:39.280225  8827 net.cpp:414] conv4_1_relu4_1_0_split -> conv4_1_relu4_1_0_split_0
I0827 16:13:39.280232  8827 net.cpp:414] conv4_1_relu4_1_0_split -> conv4_1_relu4_1_0_split_1
I0827 16:13:39.280284  8827 net.cpp:135] Setting up conv4_1_relu4_1_0_split
I0827 16:13:39.280300  8827 net.cpp:142] Top shape: 128 512 7 6 (2752512)
I0827 16:13:39.280306  8827 net.cpp:142] Top shape: 128 512 7 6 (2752512)
I0827 16:13:39.280310  8827 net.cpp:150] Memory required for data: 6512444928
I0827 16:13:39.280314  8827 layer_factory.hpp:77] Creating layer conv4_2
I0827 16:13:39.280328  8827 net.cpp:88] Creating Layer conv4_2
I0827 16:13:39.280333  8827 net.cpp:440] conv4_2 <- conv4_1_relu4_1_0_split_0
I0827 16:13:39.280342  8827 net.cpp:414] conv4_2 -> conv4_2
I0827 16:13:39.380146  8827 net.cpp:135] Setting up conv4_2
I0827 16:13:39.380172  8827 net.cpp:142] Top shape: 128 512 7 6 (2752512)
I0827 16:13:39.380179  8827 net.cpp:150] Memory required for data: 6523454976
I0827 16:13:39.380218  8827 layer_factory.hpp:77] Creating layer bn4_2
I0827 16:13:39.380235  8827 net.cpp:88] Creating Layer bn4_2
I0827 16:13:39.380244  8827 net.cpp:440] bn4_2 <- conv4_2
I0827 16:13:39.380254  8827 net.cpp:401] bn4_2 -> conv4_2 (in-place)
I0827 16:13:39.380626  8827 net.cpp:135] Setting up bn4_2
I0827 16:13:39.380645  8827 net.cpp:142] Top shape: 128 512 7 6 (2752512)
I0827 16:13:39.380652  8827 net.cpp:150] Memory required for data: 6534465024
I0827 16:13:39.380666  8827 layer_factory.hpp:77] Creating layer scale_conv4_2
I0827 16:13:39.380676  8827 net.cpp:88] Creating Layer scale_conv4_2
I0827 16:13:39.380684  8827 net.cpp:440] scale_conv4_2 <- conv4_2
I0827 16:13:39.380694  8827 net.cpp:401] scale_conv4_2 -> conv4_2 (in-place)
I0827 16:13:39.380759  8827 layer_factory.hpp:77] Creating layer scale_conv4_2
I0827 16:13:39.380980  8827 net.cpp:135] Setting up scale_conv4_2
I0827 16:13:39.380996  8827 net.cpp:142] Top shape: 128 512 7 6 (2752512)
I0827 16:13:39.381003  8827 net.cpp:150] Memory required for data: 6545475072
I0827 16:13:39.381014  8827 layer_factory.hpp:77] Creating layer relu4_2
I0827 16:13:39.381026  8827 net.cpp:88] Creating Layer relu4_2
I0827 16:13:39.381034  8827 net.cpp:440] relu4_2 <- conv4_2
I0827 16:13:39.381043  8827 net.cpp:401] relu4_2 -> conv4_2 (in-place)
I0827 16:13:39.381214  8827 net.cpp:135] Setting up relu4_2
I0827 16:13:39.381235  8827 net.cpp:142] Top shape: 128 512 7 6 (2752512)
I0827 16:13:39.381243  8827 net.cpp:150] Memory required for data: 6556485120
I0827 16:13:39.381253  8827 layer_factory.hpp:77] Creating layer conv4_3
I0827 16:13:39.381270  8827 net.cpp:88] Creating Layer conv4_3
I0827 16:13:39.381278  8827 net.cpp:440] conv4_3 <- conv4_2
I0827 16:13:39.381292  8827 net.cpp:414] conv4_3 -> conv4_3
I0827 16:13:39.476209  8827 net.cpp:135] Setting up conv4_3
I0827 16:13:39.476229  8827 net.cpp:142] Top shape: 128 512 7 6 (2752512)
I0827 16:13:39.476235  8827 net.cpp:150] Memory required for data: 6567495168
I0827 16:13:39.476246  8827 layer_factory.hpp:77] Creating layer bn4_3
I0827 16:13:39.476258  8827 net.cpp:88] Creating Layer bn4_3
I0827 16:13:39.476263  8827 net.cpp:440] bn4_3 <- conv4_3
I0827 16:13:39.476270  8827 net.cpp:401] bn4_3 -> conv4_3 (in-place)
I0827 16:13:39.476546  8827 net.cpp:135] Setting up bn4_3
I0827 16:13:39.476557  8827 net.cpp:142] Top shape: 128 512 7 6 (2752512)
I0827 16:13:39.476560  8827 net.cpp:150] Memory required for data: 6578505216
I0827 16:13:39.476570  8827 layer_factory.hpp:77] Creating layer scale_conv4_3
I0827 16:13:39.476581  8827 net.cpp:88] Creating Layer scale_conv4_3
I0827 16:13:39.476586  8827 net.cpp:440] scale_conv4_3 <- conv4_3
I0827 16:13:39.476593  8827 net.cpp:401] scale_conv4_3 -> conv4_3 (in-place)
I0827 16:13:39.476636  8827 layer_factory.hpp:77] Creating layer scale_conv4_3
I0827 16:13:39.476819  8827 net.cpp:135] Setting up scale_conv4_3
I0827 16:13:39.476830  8827 net.cpp:142] Top shape: 128 512 7 6 (2752512)
I0827 16:13:39.476835  8827 net.cpp:150] Memory required for data: 6589515264
I0827 16:13:39.476842  8827 layer_factory.hpp:77] Creating layer relu4_3
I0827 16:13:39.476850  8827 net.cpp:88] Creating Layer relu4_3
I0827 16:13:39.476855  8827 net.cpp:440] relu4_3 <- conv4_3
I0827 16:13:39.476861  8827 net.cpp:401] relu4_3 -> conv4_3 (in-place)
I0827 16:13:39.476994  8827 net.cpp:135] Setting up relu4_3
I0827 16:13:39.477005  8827 net.cpp:142] Top shape: 128 512 7 6 (2752512)
I0827 16:13:39.477010  8827 net.cpp:150] Memory required for data: 6600525312
I0827 16:13:39.477015  8827 layer_factory.hpp:77] Creating layer res4_3
I0827 16:13:39.477023  8827 net.cpp:88] Creating Layer res4_3
I0827 16:13:39.477028  8827 net.cpp:440] res4_3 <- conv4_1_relu4_1_0_split_1
I0827 16:13:39.477035  8827 net.cpp:440] res4_3 <- conv4_3
I0827 16:13:39.477041  8827 net.cpp:414] res4_3 -> res4_3
I0827 16:13:39.477077  8827 net.cpp:135] Setting up res4_3
I0827 16:13:39.477085  8827 net.cpp:142] Top shape: 128 512 7 6 (2752512)
I0827 16:13:39.477090  8827 net.cpp:150] Memory required for data: 6611535360
I0827 16:13:39.477094  8827 layer_factory.hpp:77] Creating layer res4_3_res4_3_0_split
I0827 16:13:39.477103  8827 net.cpp:88] Creating Layer res4_3_res4_3_0_split
I0827 16:13:39.477108  8827 net.cpp:440] res4_3_res4_3_0_split <- res4_3
I0827 16:13:39.477113  8827 net.cpp:414] res4_3_res4_3_0_split -> res4_3_res4_3_0_split_0
I0827 16:13:39.477123  8827 net.cpp:414] res4_3_res4_3_0_split -> res4_3_res4_3_0_split_1
I0827 16:13:39.477172  8827 net.cpp:135] Setting up res4_3_res4_3_0_split
I0827 16:13:39.477181  8827 net.cpp:142] Top shape: 128 512 7 6 (2752512)
I0827 16:13:39.477186  8827 net.cpp:142] Top shape: 128 512 7 6 (2752512)
I0827 16:13:39.477190  8827 net.cpp:150] Memory required for data: 6633555456
I0827 16:13:39.477195  8827 layer_factory.hpp:77] Creating layer conv4_4
I0827 16:13:39.477208  8827 net.cpp:88] Creating Layer conv4_4
I0827 16:13:39.477213  8827 net.cpp:440] conv4_4 <- res4_3_res4_3_0_split_0
I0827 16:13:39.477222  8827 net.cpp:414] conv4_4 -> conv4_4
I0827 16:13:39.572880  8827 net.cpp:135] Setting up conv4_4
I0827 16:13:39.572901  8827 net.cpp:142] Top shape: 128 512 7 6 (2752512)
I0827 16:13:39.572907  8827 net.cpp:150] Memory required for data: 6644565504
I0827 16:13:39.572916  8827 layer_factory.hpp:77] Creating layer bn4_4
I0827 16:13:39.572926  8827 net.cpp:88] Creating Layer bn4_4
I0827 16:13:39.572932  8827 net.cpp:440] bn4_4 <- conv4_4
I0827 16:13:39.572942  8827 net.cpp:401] bn4_4 -> conv4_4 (in-place)
I0827 16:13:39.573222  8827 net.cpp:135] Setting up bn4_4
I0827 16:13:39.573240  8827 net.cpp:142] Top shape: 128 512 7 6 (2752512)
I0827 16:13:39.573246  8827 net.cpp:150] Memory required for data: 6655575552
I0827 16:13:39.573256  8827 layer_factory.hpp:77] Creating layer scale_conv4_4
I0827 16:13:39.573266  8827 net.cpp:88] Creating Layer scale_conv4_4
I0827 16:13:39.573271  8827 net.cpp:440] scale_conv4_4 <- conv4_4
I0827 16:13:39.573277  8827 net.cpp:401] scale_conv4_4 -> conv4_4 (in-place)
I0827 16:13:39.573323  8827 layer_factory.hpp:77] Creating layer scale_conv4_4
I0827 16:13:39.573487  8827 net.cpp:135] Setting up scale_conv4_4
I0827 16:13:39.573498  8827 net.cpp:142] Top shape: 128 512 7 6 (2752512)
I0827 16:13:39.573501  8827 net.cpp:150] Memory required for data: 6666585600
I0827 16:13:39.573508  8827 layer_factory.hpp:77] Creating layer relu4_4
I0827 16:13:39.573515  8827 net.cpp:88] Creating Layer relu4_4
I0827 16:13:39.573519  8827 net.cpp:440] relu4_4 <- conv4_4
I0827 16:13:39.573525  8827 net.cpp:401] relu4_4 -> conv4_4 (in-place)
I0827 16:13:39.573657  8827 net.cpp:135] Setting up relu4_4
I0827 16:13:39.573667  8827 net.cpp:142] Top shape: 128 512 7 6 (2752512)
I0827 16:13:39.573670  8827 net.cpp:150] Memory required for data: 6677595648
I0827 16:13:39.573676  8827 layer_factory.hpp:77] Creating layer conv4_5
I0827 16:13:39.573690  8827 net.cpp:88] Creating Layer conv4_5
I0827 16:13:39.573709  8827 net.cpp:440] conv4_5 <- conv4_4
I0827 16:13:39.573719  8827 net.cpp:414] conv4_5 -> conv4_5
I0827 16:13:39.666563  8827 net.cpp:135] Setting up conv4_5
I0827 16:13:39.666586  8827 net.cpp:142] Top shape: 128 512 7 6 (2752512)
I0827 16:13:39.666595  8827 net.cpp:150] Memory required for data: 6688605696
I0827 16:13:39.666609  8827 layer_factory.hpp:77] Creating layer bn4_5
I0827 16:13:39.666622  8827 net.cpp:88] Creating Layer bn4_5
I0827 16:13:39.666631  8827 net.cpp:440] bn4_5 <- conv4_5
I0827 16:13:39.666641  8827 net.cpp:401] bn4_5 -> conv4_5 (in-place)
I0827 16:13:39.667035  8827 net.cpp:135] Setting up bn4_5
I0827 16:13:39.667052  8827 net.cpp:142] Top shape: 128 512 7 6 (2752512)
I0827 16:13:39.667059  8827 net.cpp:150] Memory required for data: 6699615744
I0827 16:13:39.667076  8827 layer_factory.hpp:77] Creating layer scale_conv4_5
I0827 16:13:39.667088  8827 net.cpp:88] Creating Layer scale_conv4_5
I0827 16:13:39.667201  8827 net.cpp:440] scale_conv4_5 <- conv4_5
I0827 16:13:39.667217  8827 net.cpp:401] scale_conv4_5 -> conv4_5 (in-place)
I0827 16:13:39.667291  8827 layer_factory.hpp:77] Creating layer scale_conv4_5
I0827 16:13:39.667629  8827 net.cpp:135] Setting up scale_conv4_5
I0827 16:13:39.667647  8827 net.cpp:142] Top shape: 128 512 7 6 (2752512)
I0827 16:13:39.667654  8827 net.cpp:150] Memory required for data: 6710625792
I0827 16:13:39.667667  8827 layer_factory.hpp:77] Creating layer relu4_5
I0827 16:13:39.667677  8827 net.cpp:88] Creating Layer relu4_5
I0827 16:13:39.667685  8827 net.cpp:440] relu4_5 <- conv4_5
I0827 16:13:39.667697  8827 net.cpp:401] relu4_5 -> conv4_5 (in-place)
I0827 16:13:39.667882  8827 net.cpp:135] Setting up relu4_5
I0827 16:13:39.667897  8827 net.cpp:142] Top shape: 128 512 7 6 (2752512)
I0827 16:13:39.667904  8827 net.cpp:150] Memory required for data: 6721635840
I0827 16:13:39.667913  8827 layer_factory.hpp:77] Creating layer res4_5
I0827 16:13:39.667927  8827 net.cpp:88] Creating Layer res4_5
I0827 16:13:39.667935  8827 net.cpp:440] res4_5 <- res4_3_res4_3_0_split_1
I0827 16:13:39.667944  8827 net.cpp:440] res4_5 <- conv4_5
I0827 16:13:39.667953  8827 net.cpp:414] res4_5 -> res4_5
I0827 16:13:39.668005  8827 net.cpp:135] Setting up res4_5
I0827 16:13:39.668018  8827 net.cpp:142] Top shape: 128 512 7 6 (2752512)
I0827 16:13:39.668025  8827 net.cpp:150] Memory required for data: 6732645888
I0827 16:13:39.668032  8827 layer_factory.hpp:77] Creating layer bn_pre_fc5
I0827 16:13:39.668041  8827 net.cpp:88] Creating Layer bn_pre_fc5
I0827 16:13:39.668049  8827 net.cpp:440] bn_pre_fc5 <- res4_5
I0827 16:13:39.668058  8827 net.cpp:414] bn_pre_fc5 -> pre_fc5
I0827 16:13:39.668445  8827 net.cpp:135] Setting up bn_pre_fc5
I0827 16:13:39.668462  8827 net.cpp:142] Top shape: 128 512 7 6 (2752512)
I0827 16:13:39.668468  8827 net.cpp:150] Memory required for data: 6743655936
I0827 16:13:39.668483  8827 layer_factory.hpp:77] Creating layer scale_pre_fc5
I0827 16:13:39.668494  8827 net.cpp:88] Creating Layer scale_pre_fc5
I0827 16:13:39.668503  8827 net.cpp:440] scale_pre_fc5 <- pre_fc5
I0827 16:13:39.668511  8827 net.cpp:401] scale_pre_fc5 -> pre_fc5 (in-place)
I0827 16:13:39.668576  8827 layer_factory.hpp:77] Creating layer scale_pre_fc5
I0827 16:13:39.668798  8827 net.cpp:135] Setting up scale_pre_fc5
I0827 16:13:39.668813  8827 net.cpp:142] Top shape: 128 512 7 6 (2752512)
I0827 16:13:39.668820  8827 net.cpp:150] Memory required for data: 6754665984
I0827 16:13:39.668831  8827 layer_factory.hpp:77] Creating layer dropout_pre_fc5
I0827 16:13:39.668854  8827 net.cpp:88] Creating Layer dropout_pre_fc5
I0827 16:13:39.668864  8827 net.cpp:440] dropout_pre_fc5 <- pre_fc5
I0827 16:13:39.668876  8827 net.cpp:401] dropout_pre_fc5 -> pre_fc5 (in-place)
I0827 16:13:39.668928  8827 net.cpp:135] Setting up dropout_pre_fc5
I0827 16:13:39.668942  8827 net.cpp:142] Top shape: 128 512 7 6 (2752512)
I0827 16:13:39.668948  8827 net.cpp:150] Memory required for data: 6765676032
I0827 16:13:39.668956  8827 layer_factory.hpp:77] Creating layer fc5
I0827 16:13:39.668973  8827 net.cpp:88] Creating Layer fc5
I0827 16:13:39.668998  8827 net.cpp:440] fc5 <- pre_fc5
I0827 16:13:39.669018  8827 net.cpp:414] fc5 -> fc5
I0827 16:13:39.828477  8827 net.cpp:135] Setting up fc5
I0827 16:13:39.828536  8827 net.cpp:142] Top shape: 128 512 (65536)
I0827 16:13:39.828542  8827 net.cpp:150] Memory required for data: 6765938176
I0827 16:13:39.828582  8827 layer_factory.hpp:77] Creating layer bn5
I0827 16:13:39.828600  8827 net.cpp:88] Creating Layer bn5
I0827 16:13:39.828614  8827 net.cpp:440] bn5 <- fc5
I0827 16:13:39.828624  8827 net.cpp:401] bn5 -> fc5 (in-place)
I0827 16:13:39.829185  8827 net.cpp:135] Setting up bn5
I0827 16:13:39.829213  8827 net.cpp:142] Top shape: 128 512 (65536)
I0827 16:13:39.829219  8827 net.cpp:150] Memory required for data: 6766200320
I0827 16:13:39.829247  8827 layer_factory.hpp:77] Creating layer scale5
I0827 16:13:39.829285  8827 net.cpp:88] Creating Layer scale5
I0827 16:13:39.829299  8827 net.cpp:440] scale5 <- fc5
I0827 16:13:39.829309  8827 net.cpp:401] scale5 -> fc5 (in-place)
I0827 16:13:39.829399  8827 layer_factory.hpp:77] Creating layer scale5
I0827 16:13:39.829774  8827 net.cpp:135] Setting up scale5
I0827 16:13:39.829807  8827 net.cpp:142] Top shape: 128 512 (65536)
I0827 16:13:39.829813  8827 net.cpp:150] Memory required for data: 6766462464
I0827 16:13:39.829828  8827 layer_factory.hpp:77] Creating layer norm1
I0827 16:13:39.829850  8827 net.cpp:88] Creating Layer norm1
I0827 16:13:39.829861  8827 net.cpp:440] norm1 <- fc5
I0827 16:13:39.829882  8827 net.cpp:414] norm1 -> norm1
I0827 16:13:39.829994  8827 net.cpp:135] Setting up norm1
I0827 16:13:39.830005  8827 net.cpp:142] Top shape: 128 512 1 1 (65536)
I0827 16:13:39.830010  8827 net.cpp:150] Memory required for data: 6766724608
I0827 16:13:39.830015  8827 layer_factory.hpp:77] Creating layer fc6_l2
I0827 16:13:39.830026  8827 net.cpp:88] Creating Layer fc6_l2
I0827 16:13:39.830032  8827 net.cpp:440] fc6_l2 <- norm1
I0827 16:13:39.830040  8827 net.cpp:414] fc6_l2 -> fc6
I0827 16:13:40.681988  8827 net.cpp:135] Setting up fc6_l2
I0827 16:13:40.682055  8827 net.cpp:142] Top shape: 128 180855 (23149440)
I0827 16:13:40.682062  8827 net.cpp:150] Memory required for data: 6859322368
I0827 16:13:40.682080  8827 layer_factory.hpp:77] Creating layer combined_margin
I0827 16:13:40.682114  8827 net.cpp:88] Creating Layer combined_margin
I0827 16:13:40.682130  8827 net.cpp:440] combined_margin <- fc6
I0827 16:13:40.682142  8827 net.cpp:440] combined_margin <- label_data_1_split_0
I0827 16:13:40.682157  8827 net.cpp:414] combined_margin -> fc6_margin
I0827 16:13:40.682219  8827 net.cpp:135] Setting up combined_margin
I0827 16:13:40.682230  8827 net.cpp:142] Top shape: 128 180855 (23149440)
I0827 16:13:40.682236  8827 net.cpp:150] Memory required for data: 6951920128
I0827 16:13:40.682241  8827 layer_factory.hpp:77] Creating layer fc6_margin_scale
I0827 16:13:40.682252  8827 net.cpp:88] Creating Layer fc6_margin_scale
I0827 16:13:40.682258  8827 net.cpp:440] fc6_margin_scale <- fc6_margin
I0827 16:13:40.682269  8827 net.cpp:414] fc6_margin_scale -> fc6_margin_scale
I0827 16:13:40.683262  8827 net.cpp:135] Setting up fc6_margin_scale
I0827 16:13:40.683277  8827 net.cpp:142] Top shape: 128 180855 (23149440)
I0827 16:13:40.683293  8827 net.cpp:150] Memory required for data: 7044517888
I0827 16:13:40.683300  8827 layer_factory.hpp:77] Creating layer softmax_loss
I0827 16:13:40.683317  8827 net.cpp:88] Creating Layer softmax_loss
I0827 16:13:40.683324  8827 net.cpp:440] softmax_loss <- fc6_margin_scale
I0827 16:13:40.683331  8827 net.cpp:440] softmax_loss <- label_data_1_split_1
I0827 16:13:40.683357  8827 net.cpp:414] softmax_loss -> softmax_loss
…
