…
  name: "data"
  type: "ImageData"
  top: "data"
  top: "label"
  transform_param {
    scale: 0.0078125
    mirror: true
    mean_value: 127.5
    mean_value: 127.5
    mean_value: 127.5
    contrast_brightness_adjustment: true
    smooth_filtering: true
    min_contrast: 0.8
    max_contrast: 1.2
    max_smooth: 6
    apply_probability: 0.5
    max_color_shift: 20
  }
  image_data_param {
    source: "data/train_list.txt"
    batch_size: 128
    rand_skip: 10000
    shuffle: true
    root_folder: "/media/deep/t5/trillionpairs/aligned-112X96/"
  }
}
layer {
  name: "conv1_1"
  type: "Convolution"
  bottom: "data"
  top: "conv1_1"
  param {
    lr_mult: 1
    decay_mult: 1
  }
  param {
    lr_mult: 2
    decay_mult: 0
  }
  convolution_param {
    num_output: 64
    pad: 1
    kernel_size: 3
    stride: 2
    weight_filler {
      type: "xavier"
    }
    bias_filler {
      type: "constant"
      value: 0
    }
  }
}
layer {
  name: "bn1_1"
  type: "BatchNorm"
  bottom: "conv1_1"
  top: "conv1_1"
}
layer {
  name: "scale_conv1_1"
  type: "Scale"
  bottom: "conv1_1"
  top: "conv1_1"
  scale_param {
    bias_term: true
  }
}
layer {
  name: "relu1_1"
  type: "PReLU"
  bottom: "conv1_1"
  top: "conv1_1"
}
layer {
  name: "conv1_2"
  type: "Convolution"
  bottom: "conv1_1"
  top: "conv1_2"
  param {
    lr_mult: 1
    decay_mult: 1
  }
  param {
    lr_mult: 0
    decay_mult: 0
  }
  convolution_param {
    num_output: 64
    pad: 1
    kernel_size: 3
    stride: 1
    weight_filler {
      type: "gaussian"
      std: 0.01
    }
    bias_filler {
      type: "constant"
      value: 0
    }
  }
}
layer {
  name: "bn1_2"
  type: "BatchNorm"
  bottom: "conv1_2"
  top: "conv1_2"
}
layer {
  name: "scale_conv1_2"
  type: "Scale"
  bottom: "conv1_2"
  top: "conv1_2"
  scale_param {
    bias_term: true
  }
}
layer {
  name: "relu1_2"
  type: "PReLU"
  bottom: "conv1_2"
  top: "conv1_2"
}
layer {
  name: "conv1_3"
  type: "Convolution"
  bottom: "conv1_2"
  top: "conv1_3"
  param {
    lr_mult: 1
    decay_mult: 1
  }
  param {
    lr_mult: 0
    decay_mult: 0
  }
  convolution_param {
    num_output: 64
    pad: 1
    kernel_size: 3
    stride: 1
    weight_filler {
      type: "gaussian"
      std: 0.01
    }
    bias_filler {
      type: "constant"
      value: 0
    }
  }
}
layer {
  name: "bn1_3"
  type: "BatchNorm"
  bottom: "conv1_3"
  top: "conv1_3"
}
layer {
  name: "scale_conv1_3"
  type: "Scale"
  bottom: "conv1_3"
  top: "conv1_3"
  scale_param {
    bias_term: true
  }
}
layer {
  name: "relu1_3"
  type: "PReLU"
  bottom: "conv1_3"
  top: "conv1_3"
}
layer {
  name: "res1_3"
  type: "Eltwise"
  bottom: "conv1_1"
  bottom: "conv1_3"
  top: "res1_3"
  eltwise_param {
    operation: SUM
  }
}
layer {
  name: "conv1_4"
  type: "Convolution"
  bottom: "res1_3"
  top: "conv1_4"
  param {
    lr_mult: 1
    decay_mult: 1
  }
  param {
    lr_mult: 0
    decay_mult: 0
  }
  convolution_param {
    num_output: 64
    pad: 1
    kernel_size: 3
    stride: 1
    weight_filler {
      type: "gaussian"
      std: 0.01
    }
    bias_filler {
      type: "constant"
      value: 0
    }
  }
}
layer {
  name: "bn1_4"
  type: "BatchNorm"
  bottom: "conv1_4"
  top: "conv1_4"
}
layer {
  name: "scale_conv1_4"
  type: "Scale"
  bottom: "conv1_4"
  top: "conv1_4"
  scale_param {
    bias_term: true
  }
}
layer {
  name: "relu1_4"
  type: "PReLU"
  bottom: "conv1_4"
  top: "conv1_4"
}
layer {
  name: "conv1_5"
  type: "Convolution"
  bottom: "conv1_4"
  top: "conv1_5"
  param {
    lr_mult: 1
    decay_mult: 1
  }
  param {
    lr_mult: 0
    decay_mult: 0
  }
  convolution_param {
    num_output: 64
    pad: 1
    kernel_size: 3
    stride: 1
    weight_filler {
      type: "gaussian"
      std: 0.01
    }
    bias_filler {
      type: "constant"
      value: 0
    }
  }
}
layer {
  name: "bn1_5"
  type: "BatchNorm"
  bottom: "conv1_5"
  top: "conv1_5"
}
layer {
  name: "scale_conv1_5"
  type: "Scale"
  bottom: "conv1_5"
  top: "conv1_5"
  scale_param {
    bias_term: true
  }
}
layer {
  name: "relu1_5"
  type: "PReLU"
  bottom: "conv1_5"
  top: "conv1_5"
}
layer {
  name: "res1_5"
  type: "Eltwise"
  bottom: "res1_3"
  bottom: "conv1_5"
  top: "res1_5"
  eltwise_param {
    operation: SUM
  }
}
layer {
  name: "conv2_1"
  type: "Convolution"
  bottom: "res1_5"
  top: "conv2_1"
  param {
    lr_mult: 1
    decay_mult: 1
  }
  param {
    lr_mult: 2
    decay_mult: 0
  }
  convolution_param {
    num_output: 128
    pad: 1
    kernel_size: 3
    stride: 2
    weight_filler {
      type: "xavier"
    }
    bias_filler {
      type: "constant"
      value: 0
    }
  }
}
layer {
  name: "bn2_1"
  type: "BatchNorm"
  bottom: "conv2_1"
  top: "conv2_1"
}
layer {
  name: "scale_conv2_1"
  type: "Scale"
  bottom: "conv2_1"
  top: "conv2_1"
  scale_param {
    bias_term: true
  }
}
layer {
  name: "relu2_1"
  type: "PReLU"
  bottom: "conv2_1"
  top: "conv2_1"
}
layer {
  name: "conv2_2"
  type: "Convolution"
  bottom: "conv2_1"
  top: "conv2_2"
  param {
    lr_mult: 1
    decay_mult: 1
  }
  param {
    lr_mult: 0
    decay_mult: 0
  }
  convolution_param {
    num_output: 128
    pad: 1
    kernel_size: 3
    stride: 1
    weight_filler {
      type: "gaussian"
      std: 0.01
    }
    bias_filler {
      type: "constant"
      value: 0
    }
  }
}
layer {
  name: "bn2_2"
  type: "BatchNorm"
  bottom: "conv2_2"
  top: "conv2_2"
}
layer {
  name: "scale_conv2_2"
  type: "Scale"
  bottom: "conv2_2"
  top: "conv2_2"
  scale_param {
    bias_term: true
  }
}
layer {
  name: "relu2_2"
  type: "PReLU"
  bottom: "conv2_2"
  top: "conv2_2"
}
layer {
  name: "conv2_3"
  type: "Convolution"
  bottom: "conv2_2"
  top: "conv2_3"
  param {
    lr_mult: 1
    decay_mult: 1
  }
  param {
    lr_mult: 0
    decay_mult: 0
  }
  convolution_param {
    num_output: 128
    pad: 1
    kernel_size: 3
    stride: 1
    weight_filler {
      type: "gaussian"
      std: 0.01
    }
    bias_filler {
      type: "constant"
      value: 0
    }
  }
}
layer {
  name: "bn2_3"
  type: "BatchNorm"
  bottom: "conv2_3"
  top: "conv2_3"
}
layer {
  name: "scale_conv2_3"
  type: "Scale"
  bottom: "conv2_3"
  top: "conv2_3"
  scale_param {
    bias_term: true
  }
}
layer {
  name: "relu2_3"
  type: "PReLU"
  bottom: "conv2_3"
  top: "conv2_3"
}
layer {
  name: "res2_3"
  type: "Eltwise"
  bottom: "conv2_1"
  bottom: "conv2_3"
  top: "res2_3"
  eltwise_param {
    operation: SUM
  }
}
layer {
  name: "conv2_4"
  type: "Convolution"
  bottom: "res2_3"
  top: "conv2_4"
  param {
    lr_mult: 1
    decay_mult: 1
  }
  param {
    lr_mult: 0
    decay_mult: 0
  }
  convolution_param {
    num_output: 128
    pad: 1
    kernel_size: 3
    stride: 1
    weight_filler {
      type: "gaussian"
      std: 0.01
    }
    bias_filler {
      type: "constant"
      value: 0
    }
  }
}
layer {
  name: "bn2_4"
  type: "BatchNorm"
  bottom: "conv2_4"
  top: "conv2_4"
}
layer {
  name: "scale_conv2_4"
  type: "Scale"
  bottom: "conv2_4"
  top: "conv2_4"
  scale_param {
    bias_term: true
  }
}
layer {
  name: "relu2_4"
  type: "PReLU"
  bottom: "conv2_4"
  top: "conv2_4"
}
layer {
  name: "conv2_5"
  type: "Convolution"
  bottom: "conv2_4"
  top: "conv2_5"
  param {
    lr_mult: 1
    decay_mult: 1
  }
  param {
    lr_mult: 0
    decay_mult: 0
  }
  convolution_param {
    num_output: 128
    pad: 1
    kernel_size: 3
    stride: 1
    weight_filler {
      type: "gaussian"
      std: 0.01
    }
    bias_filler {
      type: "constant"
      value: 0
    }
  }
}
layer {
  name: "bn2_5"
  type: "BatchNorm"
  bottom: "conv2_5"
  top: "conv2_5"
}
layer {
  name: "scale_conv2_5"
  type: "Scale"
  bottom: "conv2_5"
  top: "conv2_5"
  scale_param {
    bias_term: true
  }
}
layer {
  name: "relu2_5"
  type: "PReLU"
  bottom: "conv2_5"
  top: "conv2_5"
}
layer {
  name: "res2_5"
  type: "Eltwise"
  bottom: "res2_3"
  bottom: "conv2_5"
  top: "res2_5"
  eltwise_param {
    operation: SUM
  }
}
layer {
  name: "conv2_6"
  type: "Convolution"
  bottom: "res2_5"
  top: "conv2_6"
  param {
    lr_mult: 1
    decay_mult: 1
  }
  param {
    lr_mult: 0
    decay_mult: 0
  }
  convolution_param {
    num_output: 128
    pad: 1
    kernel_size: 3
    stride: 1
    weight_filler {
      type: "gaussian"
      std: 0.01
    }
    bias_filler {
      type: "constant"
      value: 0
    }
  }
}
layer {
  name: "bn2_6"
  type: "BatchNorm"
  bottom: "conv2_6"
  top: "conv2_6"
}
layer {
  name: "scale_conv2_6"
  type: "Scale"
  bottom: "conv2_6"
  top: "conv2_6"
  scale_param {
    bias_term: true
  }
}
layer {
  name: "relu2_6"
  type: "PReLU"
  bottom: "conv2_6"
  top: "conv2_6"
}
layer {
  name: "conv2_7"
  type: "Convolution"
  bottom: "conv2_6"
  top: "conv2_7"
  param {
    lr_mult: 1
    decay_mult: 1
  }
  param {
    lr_mult: 0
    decay_mult: 0
  }
  convolution_param {
    num_output: 128
    pad: 1
    kernel_size: 3
    stride: 1
    weight_filler {
      type: "gaussian"
      std: 0.01
    }
    bias_filler {
      type: "constant"
      value: 0
    }
  }
}
layer {
  name: "bn2_7"
  type: "BatchNorm"
  bottom: "conv2_7"
  top: "conv2_7"
}
layer {
  name: "scale_conv2_7"
  type: "Scale"
  bottom: "conv2_7"
  top: "conv2_7"
  scale_param {
    bias_term: true
  }
}
layer {
  name: "relu2_7"
  type: "PReLU"
  bottom: "conv2_7"
  top: "conv2_7"
}
layer {
  name: "res2_7"
  type: "Eltwise"
  bottom: "res2_5"
  bottom: "conv2_7"
  top: "res2_7"
  eltwise_param {
    operation: SUM
  }
}
layer {
  name: "conv2_8"
  type: "Convolution"
  bottom: "res2_7"
  top: "conv2_8"
  param {
    lr_mult: 1
    decay_mult: 1
  }
  param {
    lr_mult: 0
    decay_mult: 0
  }
  convolution_param {
    num_output: 128
    pad: 1
    kernel_size: 3
    stride: 1
    weight_filler {
      type: "gaussian"
      std: 0.01
    }
    bias_filler {
      type: "constant"
      value: 0
    }
  }
}
layer {
  name: "bn2_8"
  type: "BatchNorm"
  bottom: "conv2_8"
  top: "conv2_8"
}
layer {
  name: "scale_conv2_8"
  type: "Scale"
  bottom: "conv2_8"
  top: "conv2_8"
  scale_param {
    bias_term: true
  }
}
layer {
  name: "relu2_8"
  type: "PReLU"
  bottom: "conv2_8"
  top: "conv2_8"
}
layer {
  name: "conv2_9"
  type: "Convolution"
  bottom: "conv2_8"
  top: "conv2_9"
  param {
    lr_mult: 1
    decay_mult: 1
  }
  param {
    lr_mult: 0
    decay_mult: 0
  }
  convolution_param {
    num_output: 128
    pad: 1
    kernel_size: 3
    stride: 1
    weight_filler {
      type: "gaussian"
      std: 0.01
    }
    bias_filler {
      type: "constant"
      value: 0
    }
  }
}
layer {
  name: "bn2_9"
  type: "BatchNorm"
  bottom: "conv2_9"
  top: "conv2_9"
}
layer {
  name: "scale_conv2_9"
  type: "Scale"
  bottom: "conv2_9"
  top: "conv2_9"
  scale_param {
    bias_term: true
  }
}
layer {
  name: "relu2_9"
  type: "PReLU"
  bottom: "conv2_9"
  top: "conv2_9"
}
layer {
  name: "res2_9"
  type: "Eltwise"
  bottom: "res2_7"
  bottom: "conv2_9"
  top: "res2_9"
  eltwise_param {
    operation: SUM
  }
}
layer {
  name: "conv3_1"
  type: "Convolution"
  bottom: "res2_9"
  top: "conv3_1"
  param {
    lr_mult: 1
    decay_mult: 1
  }
  param {
    lr_mult: 2
    decay_mult: 0
  }
  convolution_param {
    num_output: 256
    pad: 1
    kernel_size: 3
    stride: 2
    weight_filler {
      type: "xavier"
    }
    bias_filler {
      type: "constant"
      value: 0
    }
  }
}
layer {
  name: "bn3_1"
  type: "BatchNorm"
  bottom: "conv3_1"
  top: "conv3_1"
}
layer {
  name: "scale_conv3_1"
  type: "Scale"
  bottom: "conv3_1"
  top: "conv3_1"
  scale_param {
    bias_term: true
  }
}
layer {
  name: "relu3_1"
  type: "PReLU"
  bottom: "conv3_1"
  top: "conv3_1"
}
layer {
  name: "conv3_2"
  type: "Convolution"
  bottom: "conv3_1"
  top: "conv3_2"
  param {
    lr_mult: 1
    decay_mult: 1
  }
  param {
    lr_mult: 0
    decay_mult: 0
  }
  convolution_param {
    num_output: 256
    pad: 1
    kernel_size: 3
    stride: 1
    weight_filler {
      type: "gaussian"
      std: 0.01
    }
    bias_filler {
      type: "constant"
      value: 0
    }
  }
}
layer {
  name: "bn3_2"
  type: "BatchNorm"
  bottom: "conv3_2"
  top: "conv3_2"
}
layer {
  name: "scale_conv3_2"
  type: "Scale"
  bottom: "conv3_2"
  top: "conv3_2"
  scale_param {
    bias_term: true
  }
}
layer {
  name: "relu3_2"
  type: "PReLU"
  bottom: "conv3_2"
  top: "conv3_2"
}
layer {
  name: "conv3_3"
  type: "Convolution"
  bottom: "conv3_2"
  top: "conv3_3"
  param {
    lr_mult: 1
    decay_mult: 1
  }
  param {
    lr_mult: 0
    decay_mult: 0
  }
  convolution_param {
    num_output: 256
    pad: 1
    kernel_size: 3
    stride: 1
    weight_filler {
      type: "gaussian"
      std: 0.01
    }
    bias_filler {
      type: "constant"
      value: 0
    }
  }
}
layer {
  name: "bn3_3"
  type: "BatchNorm"
  bottom: "conv3_3"
  top: "conv3_3"
}
layer {
  name: "scale_conv3_3"
  type: "Scale"
  bottom: "conv3_3"
  top: "conv3_3"
  scale_param {
    bias_term: true
  }
}
layer {
  name: "relu3_3"
  type: "PReLU"
  bottom: "conv3_3"
  top: "conv3_3"
}
layer {
  name: "res3_3"
  type: "Eltwise"
  bottom: "conv3_1"
  bottom: "conv3_3"
  top: "res3_3"
  eltwise_param {
    operation: SUM
  }
}
layer {
  name: "conv3_4"
  type: "Convolution"
  bottom: "res3_3"
  top: "conv3_4"
  param {
    lr_mult: 1
    decay_mult: 1
  }
  param {
    lr_mult: 0
    decay_mult: 0
  }
  convolution_param {
    num_output: 256
    pad: 1
    kernel_size: 3
    stride: 1
    weight_filler {
      type: "gaussian"
      std: 0.01
    }
    bias_filler {
      type: "constant"
      value: 0
    }
  }
}
layer {
  name: "bn3_4"
  type: "BatchNorm"
  bottom: "conv3_4"
  top: "conv3_4"
}
layer {
  name: "scale_conv3_4"
  type: "Scale"
  bottom: "conv3_4"
  top: "conv3_4"
  scale_param {
    bias_term: true
  }
}
layer {
  name: "relu3_4"
  type: "PReLU"
  bottom: "conv3_4"
  top: "conv3_4"
}
layer {
  name: "conv3_5"
  type: "Convolution"
  bottom: "conv3_4"
  top: "conv3_5"
  param {
    lr_mult: 1
    decay_mult: 1
  }
  param {
    lr_mult: 0
    decay_mult: 0
  }
  convolution_param {
    num_output: 256
    pad: 1
    kernel_size: 3
    stride: 1
    weight_filler {
      type: "gaussian"
      std: 0.01
    }
    bias_filler {
      type: "constant"
      value: 0
    }
  }
}
layer {
  name: "bn3_5"
  type: "BatchNorm"
  bottom: "conv3_5"
  top: "conv3_5"
}
layer {
  name: "scale_conv3_5"
  type: "Scale"
  bottom: "conv3_5"
  top: "conv3_5"
  scale_param {
    bias_term: true
  }
}
layer {
  name: "relu3_5"
  type: "PReLU"
  bottom: "conv3_5"
  top: "conv3_5"
}
layer {
  name: "res3_5"
  type: "Eltwise"
  bottom: "res3_3"
  bottom: "conv3_5"
  top: "res3_5"
  eltwise_param {
    operation: SUM
  }
}
layer {
  name: "conv3_6"
  type: "Convolution"
  bottom: "res3_5"
  top: "conv3_6"
  param {
    lr_mult: 1
    decay_mult: 1
  }
  param {
    lr_mult: 0
    decay_mult: 0
  }
  convolution_param {
    num_output: 256
    pad: 1
    kernel_size: 3
    stride: 1
    weight_filler {
      type: "gaussian"
      std: 0.01
    }
    bias_filler {
      type: "constant"
      value: 0
    }
  }
}
layer {
  name: "bn3_6"
  type: "BatchNorm"
  bottom: "conv3_6"
  top: "conv3_6"
}
layer {
  name: "scale_conv3_6"
  type: "Scale"
  bottom: "conv3_6"
  top: "conv3_6"
  scale_param {
    bias_term: true
  }
}
layer {
  name: "relu3_6"
  type: "PReLU"
  bottom: "conv3_6"
  top: "conv3_6"
}
layer {
  name: "conv3_7"
  type: "Convolution"
  bottom: "conv3_6"
  top: "conv3_7"
  param {
    lr_mult: 1
    decay_mult: 1
  }
  param {
    lr_mult: 0
    decay_mult: 0
  }
  convolution_param {
    num_output: 256
    pad: 1
    kernel_size: 3
    stride: 1
    weight_filler {
      type: "gaussian"
      std: 0.01
    }
    bias_filler {
      type: "constant"
      value: 0
    }
  }
}
layer {
  name: "bn3_7"
  type: "BatchNorm"
  bottom: "conv3_7"
  top: "conv3_7"
}
layer {
  name: "scale_conv3_7"
  type: "Scale"
  bottom: "conv3_7"
  top: "conv3_7"
  scale_param {
    bias_term: true
  }
}
layer {
  name: "relu3_7"
  type: "PReLU"
  bottom: "conv3_7"
  top: "conv3_7"
}
layer {
  name: "res3_7"
  type: "Eltwise"
  bottom: "res3_5"
  bottom: "conv3_7"
  top: "res3_7"
  eltwise_param {
    operation: SUM
  }
}
layer {
  name: "conv3_8"
  type: "Convolution"
  bottom: "res3_7"
  top: "conv3_8"
  param {
    lr_mult: 1
    decay_mult: 1
  }
  param {
    lr_mult: 0
    decay_mult: 0
  }
  convolution_param {
    num_output: 256
    pad: 1
    kernel_size: 3
    stride: 1
    weight_filler {
      type: "gaussian"
      std: 0.01
    }
    bias_filler {
      type: "constant"
      value: 0
    }
  }
}
layer {
  name: "bn3_8"
  type: "BatchNorm"
  bottom: "conv3_8"
  top: "conv3_8"
}
layer {
  name: "scale_conv3_8"
  type: "Scale"
  bottom: "conv3_8"
  top: "conv3_8"
  scale_param {
    bias_term: true
  }
}
layer {
  name: "relu3_8"
  type: "PReLU"
  bottom: "conv3_8"
  top: "conv3_8"
}
layer {
  name: "conv3_9"
  type: "Convolution"
  bottom: "conv3_8"
  top: "conv3_9"
  param {
    lr_mult: 1
    decay_mult: 1
  }
  param {
    lr_mult: 0
    decay_mult: 0
  }
  convolution_param {
    num_output: 256
    pad: 1
    kernel_size: 3
    stride: 1
    weight_filler {
      type: "gaussian"
      std: 0.01
    }
    bias_filler {
      type: "constant"
      value: 0
    }
  }
}
layer {
  name: "bn3_9"
  type: "BatchNorm"
  bottom: "conv3_9"
  top: "conv3_9"
}
layer {
  name: "scale_conv3_9"
  type: "Scale"
  bottom: "conv3_9"
  top: "conv3_9"
  scale_param {
    bias_term: true
  }
}
layer {
  name: "relu3_9"
  type: "PReLU"
  bottom: "conv3_9"
  top: "conv3_9"
}
layer {
  name: "res3_9"
  type: "Eltwise"
  bottom: "res3_7"
  bottom: "conv3_9"
  top: "res3_9"
  eltwise_param {
    operation: SUM
  }
}
layer {
  name: "conv3_10"
  type: "Convolution"
  bottom: "res3_9"
  top: "conv3_10"
  param {
    lr_mult: 1
    decay_mult: 1
  }
  param {
    lr_mult: 0
    decay_mult: 0
  }
  convolution_param {
    num_output: 256
    pad: 1
    kernel_size: 3
    stride: 1
    weight_filler {
      type: "gaussian"
      std: 0.01
    }
    bias_filler {
      type: "constant"
      value: 0
    }
  }
}
layer {
  name: "bn3_10"
  type: "BatchNorm"
  bottom: "conv3_10"
  top: "conv3_10"
}
layer {
  name: "scale_conv3_10"
  type: "Scale"
  bottom: "conv3_10"
  top: "conv3_10"
  scale_param {
    bias_term: true
  }
}
layer {
  name: "relu3_10"
  type: "PReLU"
  bottom: "conv3_10"
  top: "conv3_10"
}
layer {
  name: "conv3_11"
  type: "Convolution"
  bottom: "conv3_10"
  top: "conv3_11"
  param {
    lr_mult: 1
    decay_mult: 1
  }
  param {
    lr_mult: 0
    decay_mult: 0
  }
  convolution_param {
    num_output: 256
    pad: 1
    kernel_size: 3
    stride: 1
    weight_filler {
      type: "gaussian"
      std: 0.01
    }
    bias_filler {
      type: "constant"
      value: 0
    }
  }
}
layer {
  name: "bn3_11"
  type: "BatchNorm"
  bottom: "conv3_11"
  top: "conv3_11"
}
layer {
  name: "scale_conv3_11"
  type: "Scale"
  bottom: "conv3_11"
  top: "conv3_11"
  scale_param {
    bias_term: true
  }
}
layer {
  name: "relu3_11"
  type: "PReLU"
  bottom: "conv3_11"
  top: "conv3_11"
}
layer {
  name: "res3_11"
  type: "Eltwise"
  bottom: "res3_9"
  bottom: "conv3_11"
  top: "res3_11"
  eltwise_param {
    operation: SUM
  }
}
layer {
  name: "conv3_12"
  type: "Convolution"
  bottom: "res3_11"
  top: "conv3_12"
  param {
    lr_mult: 1
    decay_mult: 1
  }
  param {
    lr_mult: 0
    decay_mult: 0
  }
  convolution_param {
    num_output: 256
    pad: 1
    kernel_size: 3
    stride: 1
    weight_filler {
      type: "gaussian"
      std: 0.01
    }
    bias_filler {
      type: "constant"
      value: 0
    }
  }
}
layer {
  name: "bn3_12"
  type: "BatchNorm"
  bottom: "conv3_12"
  top: "conv3_12"
}
layer {
  name: "scale_conv3_12"
  type: "Scale"
  bottom: "conv3_12"
  top: "conv3_12"
  scale_param {
    bias_term: true
  }
}
layer {
  name: "relu3_12"
  type: "PReLU"
  bottom: "conv3_12"
  top: "conv3_12"
}
layer {
  name: "conv3_13"
  type: "Convolution"
  bottom: "conv3_12"
  top: "conv3_13"
  param {
    lr_mult: 1
    decay_mult: 1
  }
  param {
    lr_mult: 0
    decay_mult: 0
  }
  convolution_param {
    num_output: 256
    pad: 1
    kernel_size: 3
    stride: 1
    weight_filler {
      type: "gaussian"
      std: 0.01
    }
    bias_filler {
      type: "constant"
      value: 0
    }
  }
}
layer {
  name: "bn3_13"
  type: "BatchNorm"
  bottom: "conv3_13"
  top: "conv3_13"
}
layer {
  name: "scale_conv3_13"
  type: "Scale"
  bottom: "conv3_13"
  top: "conv3_13"
  scale_param {
    bias_term: true
  }
}
layer {
  name: "relu3_13"
  type: "PReLU"
  bottom: "conv3_13"
  top: "conv3_13"
}
layer {
  name: "res3_13"
  type: "Eltwise"
  bottom: "res3_11"
  bottom: "conv3_13"
  top: "res3_13"
  eltwise_param {
    operation: SUM
  }
}
layer {
  name: "conv3_14"
  type: "Convolution"
  bottom: "res3_13"
  top: "conv3_14"
  param {
    lr_mult: 1
    decay_mult: 1
  }
  param {
    lr_mult: 0
    decay_mult: 0
  }
  convolution_param {
    num_output: 256
    pad: 1
    kernel_size: 3
    stride: 1
    weight_filler {
      type: "gaussian"
      std: 0.01
    }
    bias_filler {
      type: "constant"
      value: 0
    }
  }
}
layer {
  name: "bn3_14"
  type: "BatchNorm"
  bottom: "conv3_14"
  top: "conv3_14"
}
layer {
  name: "scale_conv3_14"
  type: "Scale"
  bottom: "conv3_14"
  top: "conv3_14"
  scale_param {
    bias_term: true
  }
}
layer {
  name: "relu3_14"
  type: "PReLU"
  bottom: "conv3_14"
  top: "conv3_14"
}
layer {
  name: "conv3_15"
  type: "Convolution"
  bottom: "conv3_14"
  top: "conv3_15"
  param {
    lr_mult: 1
    decay_mult: 1
  }
  param {
    lr_mult: 0
    decay_mult: 0
  }
  convolution_param {
    num_output: 256
    pad: 1
    kernel_size: 3
    stride: 1
    weight_filler {
      type: "gaussian"
      std: 0.01
    }
    bias_filler {
      type: "constant"
      value: 0
    }
  }
}
layer {
  name: "bn3_15"
  type: "BatchNorm"
  bottom: "conv3_15"
  top: "conv3_15"
}
layer {
  name: "scale_conv3_15"
  type: "Scale"
  bottom: "conv3_15"
  top: "conv3_15"
  scale_param {
    bias_term: true
  }
}
layer {
  name: "relu3_15"
  type: "PReLU"
  bottom: "conv3_15"
  top: "conv3_15"
}
layer {
  name: "res3_15"
  type: "Eltwise"
  bottom: "res3_13"
  bottom: "conv3_15"
  top: "res3_15"
  eltwise_param {
    operation: SUM
  }
}
layer {
  name: "conv3_16"
  type: "Convolution"
  bottom: "res3_15"
  top: "conv3_16"
  param {
    lr_mult: 1
    decay_mult: 1
  }
  param {
    lr_mult: 0
    decay_mult: 0
  }
  convolution_param {
    num_output: 256
    pad: 1
    kernel_size: 3
    stride: 1
    weight_filler {
      type: "gaussian"
      std: 0.01
    }
    bias_filler {
      type: "constant"
      value: 0
    }
  }
}
layer {
  name: "bn3_16"
  type: "BatchNorm"
  bottom: "conv3_16"
  top: "conv3_16"
}
layer {
  name: "scale_conv3_16"
  type: "Scale"
  bottom: "conv3_16"
  top: "conv3_16"
  scale_param {
    bias_term: true
  }
}
layer {
  name: "relu3_16"
  type: "PReLU"
  bottom: "conv3_16"
  top: "conv3_16"
}
layer {
  name: "conv3_17"
  type: "Convolution"
  bottom: "conv3_16"
  top: "conv3_17"
  param {
    lr_mult: 1
    decay_mult: 1
  }
  param {
    lr_mult: 0
    decay_mult: 0
  }
  convolution_param {
    num_output: 256
    pad: 1
    kernel_size: 3
    stride: 1
    weight_filler {
      type: "gaussian"
      std: 0.01
    }
    bias_filler {
      type: "constant"
      value: 0
    }
  }
}
layer {
  name: "bn3_17"
  type: "BatchNorm"
  bottom: "conv3_17"
  top: "conv3_17"
}
layer {
  name: "scale_conv3_17"
  type: "Scale"
  bottom: "conv3_17"
  top: "conv3_17"
  scale_param {
    bias_term: true
  }
}
layer {
  name: "relu3_17"
  type: "PReLU"
  bottom: "conv3_17"
  top: "conv3_17"
}
layer {
  name: "res3_17"
  type: "Eltwise"
  bottom: "res3_15"
  bottom: "conv3_17"
  top: "res3_17"
  eltwise_param {
    operation: SUM
  }
}
layer {
  name: "conv4_1"
  type: "Convolution"
  bottom: "res3_17"
  top: "conv4_1"
  param {
    lr_mult: 1
    decay_mult: 1
  }
  param {
    lr_mult: 2
    decay_mult: 0
  }
  convolution_param {
    num_output: 512
    pad: 1
    kernel_size: 3
    stride: 2
    weight_filler {
      type: "xavier"
    }
    bias_filler {
      type: "constant"
      value: 0
    }
  }
}
layer {
  name: "bn4_1"
  type: "BatchNorm"
  bottom: "conv4_1"
  top: "conv4_1"
}
layer {
  name: "scale_conv4_1"
  type: "Scale"
  bottom: "conv4_1"
  top: "conv4_1"
  scale_param {
    bias_term: true
  }
}
layer {
  name: "relu4_1"
  type: "PReLU"
  bottom: "conv4_1"
  top: "conv4_1"
}
layer {
  name: "conv4_2"
  type: "Convolution"
  bottom: "conv4_1"
  top: "conv4_2"
  param {
    lr_mult: 1
    decay_mult: 1
  }
  param {
    lr_mult: 0
    decay_mult: 0
  }
  convolution_param {
    num_output: 512
    pad: 1
    kernel_size: 3
    stride: 1
    weight_filler {
      type: "gaussian"
      std: 0.01
    }
    bias_filler {
      type: "constant"
      value: 0
    }
  }
}
layer {
  name: "bn4_2"
  type: "BatchNorm"
  bottom: "conv4_2"
  top: "conv4_2"
}
layer {
  name: "scale_conv4_2"
  type: "Scale"
  bottom: "conv4_2"
  top: "conv4_2"
  scale_param {
    bias_term: true
  }
}
layer {
  name: "relu4_2"
  type: "PReLU"
  bottom: "conv4_2"
  top: "conv4_2"
}
layer {
  name: "conv4_3"
  type: "Convolution"
  bottom: "conv4_2"
  top: "conv4_3"
  param {
    lr_mult: 1
    decay_mult: 1
  }
  param {
    lr_mult: 0
    decay_mult: 0
  }
  convolution_param {
    num_output: 512
    pad: 1
    kernel_size: 3
    stride: 1
    weight_filler {
      type: "gaussian"
      std: 0.01
    }
    bias_filler {
      type: "constant"
      value: 0
    }
  }
}
layer {
  name: "bn4_3"
  type: "BatchNorm"
  bottom: "conv4_3"
  top: "conv4_3"
}
layer {
  name: "scale_conv4_3"
  type: "Scale"
  bottom: "conv4_3"
  top: "conv4_3"
  scale_param {
    bias_term: true
  }
}
layer {
  name: "relu4_3"
  type: "PReLU"
  bottom: "conv4_3"
  top: "conv4_3"
}
layer {
  name: "res4_3"
  type: "Eltwise"
  bottom: "conv4_1"
  bottom: "conv4_3"
  top: "res4_3"
  eltwise_param {
    operation: SUM
  }
}
layer {
  name: "conv4_4"
  type: "Convolution"
  bottom: "res4_3"
  top: "conv4_4"
  param {
    lr_mult: 1
    decay_mult: 1
  }
  param {
    lr_mult: 0
    decay_mult: 0
  }
  convolution_param {
    num_output: 512
    pad: 1
    kernel_size: 3
    stride: 1
    weight_filler {
      type: "gaussian"
      std: 0.01
    }
    bias_filler {
      type: "constant"
      value: 0
    }
  }
}
layer {
  name: "bn4_4"
  type: "BatchNorm"
  bottom: "conv4_4"
  top: "conv4_4"
}
layer {
  name: "scale_conv4_4"
  type: "Scale"
  bottom: "conv4_4"
  top: "conv4_4"
  scale_param {
    bias_term: true
  }
}
layer {
  name: "relu4_4"
  type: "PReLU"
  bottom: "conv4_4"
  top: "conv4_4"
}
layer {
  name: "conv4_5"
  type: "Convolution"
  bottom: "conv4_4"
  top: "conv4_5"
  param {
    lr_mult: 1
    decay_mult: 1
  }
  param {
    lr_mult: 0
    decay_mult: 0
  }
  convolution_param {
    num_output: 512
    pad: 1
    kernel_size: 3
    stride: 1
    weight_filler {
      type: "gaussian"
      std: 0.01
    }
    bias_filler {
      type: "constant"
      value: 0
    }
  }
}
layer {
  name: "bn4_5"
  type: "BatchNorm"
  bottom: "conv4_5"
  top: "conv4_5"
}
layer {
  name: "scale_conv4_5"
  type: "Scale"
  bottom: "conv4_5"
  top: "conv4_5"
  scale_param {
    bias_term: true
  }
}
layer {
  name: "relu4_5"
  type: "PReLU"
  bottom: "conv4_5"
  top: "conv4_5"
}
layer {
  name: "res4_5"
  type: "Eltwise"
  bottom: "res4_3"
  bottom: "conv4_5"
  top: "res4_5"
  eltwise_param {
    operation: SUM
  }
}
layer {
  name: "bn_pre_fc5"
  type: "BatchNorm"
  bottom: "res4_5"
  top: "pre_fc5"
}
layer {
  name: "scale_pre_fc5"
  type: "Scale"
  bottom: "pre_fc5"
  top: "pre_fc5"
  scale_param {
    bias_term: true
  }
}
layer {
  name: "dropout_pre_fc5"
  type: "Dropout"
  bottom: "pre_fc5"
  top: "pre_fc5"
  dropout_param {
    dropout_ratio: 0.4
  }
}
layer {
  name: "fc5"
  type: "InnerProduct"
  bottom: "pre_fc5"
  top: "fc5"
  param {
    lr_mult: 1
    decay_mult: 1
  }
  param {
    lr_mult: 2
    decay_mult: 0
  }
  inner_product_param {
    num_output: 512
    weight_filler {
      type: "xavier"
    }
    bias_filler {
      type: "constant"
      value: 0
    }
  }
}
layer {
  name: "bn5"
  type: "BatchNorm"
  bottom: "fc5"
  top: "fc5"
}
layer {
  name: "scale5"
  type: "Scale"
  bottom: "fc5"
  top: "fc5"
  scale_param {
    bias_term: true
  }
}
layer {
  name: "norm1"
  type: "Normalize"
  bottom: "fc5"
  top: "norm1"
}
layer {
  name: "fc6_l2"
  type: "InnerProduct"
  bottom: "norm1"
  top: "fc6"
  param {
    lr_mult: 1
  }
  inner_product_param {
    num_output: 180855
    bias_term: false
    weight_filler {
      type: "xavier"
    }
    normalize: true
  }
}
layer {
  name: "combined_margin"
  type: "CombinedMargin"
  bottom: "fc6"
  bottom: "label"
  top: "fc6_margin"
  combined_margin_param {
    m1: 1
    m2: 0.3
    m3: 0.2
  }
}
layer {
  name: "fc6_margin_scale"
  type: "Scale"
  bottom: "fc6_margin"
  top: "fc6_margin_scale"
  param {
    lr_mult: 0
    decay_mult: 0
  }
  scale_param {
    filler {
      type: "constant"
      value: 64
    }
  }
}
layer {
  name: "softmax_loss"
  type: "SoftmaxWithLoss"
  bottom: "fc6_margin_scale"
  bottom: "label"
  top: "softmax_loss"
  loss_weight: 1
}
mem_param {
  optimize_train: true
  optimize_test: true
  exclude_blob: "fc5"
}
I0821 16:53:51.917189  4314 layer_factory.hpp:77] Creating layer data
I0821 16:53:51.918393  4314 net.cpp:88] Creating Layer data
I0821 16:53:51.918416  4314 net.cpp:414] data -> data
I0821 16:53:51.919323  4314 net.cpp:414] data -> label
I0821 16:53:51.919906  4314 image_data_layer.cpp:38] Opening file data/train_list.txt
I0821 16:53:53.686630  4314 image_data_layer.cpp:53] Shuffling data
I0821 16:53:54.313427  4314 image_data_layer.cpp:63] A total of 6753545 images.
I0821 16:53:54.313499  4314 image_data_layer.cpp:70] Skipping first 5739 data points.
I0821 16:53:54.321153  4314 image_data_layer.cpp:90] output data size: 128,3,112,96
I0821 16:53:54.401300  4314 net.cpp:135] Setting up data
I0821 16:53:54.401568  4314 net.cpp:142] Top shape: 128 3 112 96 (4128768)
I0821 16:53:54.401598  4314 net.cpp:142] Top shape: 128 (128)
I0821 16:53:54.401614  4314 net.cpp:150] Memory required for data: 16515584
I0821 16:53:54.401656  4314 layer_factory.hpp:77] Creating layer label_data_1_split
I0821 16:53:54.401758  4314 net.cpp:88] Creating Layer label_data_1_split
I0821 16:53:54.401798  4314 net.cpp:440] label_data_1_split <- label
I0821 16:53:54.401899  4314 net.cpp:414] label_data_1_split -> label_data_1_split_0
I0821 16:53:54.401993  4314 net.cpp:414] label_data_1_split -> label_data_1_split_1
I0821 16:53:54.402251  4314 net.cpp:135] Setting up label_data_1_split
I0821 16:53:54.402261  4314 net.cpp:142] Top shape: 128 (128)
I0821 16:53:54.402266  4314 net.cpp:142] Top shape: 128 (128)
I0821 16:53:54.402271  4314 net.cpp:150] Memory required for data: 16516608
I0821 16:53:54.402276  4314 layer_factory.hpp:77] Creating layer conv1_1
I0821 16:53:54.402310  4314 net.cpp:88] Creating Layer conv1_1
I0821 16:53:54.402318  4314 net.cpp:440] conv1_1 <- data
I0821 16:53:54.402326  4314 net.cpp:414] conv1_1 -> conv1_1
I0821 16:53:54.998908  4314 net.cpp:135] Setting up conv1_1
I0821 16:53:54.998951  4314 net.cpp:142] Top shape: 128 64 56 48 (22020096)
I0821 16:53:54.998960  4314 net.cpp:150] Memory required for data: 104596992
I0821 16:53:54.998996  4314 layer_factory.hpp:77] Creating layer bn1_1
I0821 16:53:54.999016  4314 net.cpp:88] Creating Layer bn1_1
I0821 16:53:54.999022  4314 net.cpp:440] bn1_1 <- conv1_1
I0821 16:53:54.999032  4314 net.cpp:401] bn1_1 -> conv1_1 (in-place)
I0821 16:53:54.999285  4314 net.cpp:135] Setting up bn1_1
I0821 16:53:54.999300  4314 net.cpp:142] Top shape: 128 64 56 48 (22020096)
I0821 16:53:54.999306  4314 net.cpp:150] Memory required for data: 192677376
I0821 16:53:54.999320  4314 layer_factory.hpp:77] Creating layer scale_conv1_1
I0821 16:53:54.999337  4314 net.cpp:88] Creating Layer scale_conv1_1
I0821 16:53:54.999344  4314 net.cpp:440] scale_conv1_1 <- conv1_1
I0821 16:53:54.999351  4314 net.cpp:401] scale_conv1_1 -> conv1_1 (in-place)
I0821 16:53:54.999402  4314 layer_factory.hpp:77] Creating layer scale_conv1_1
I0821 16:53:54.999536  4314 net.cpp:135] Setting up scale_conv1_1
I0821 16:53:54.999549  4314 net.cpp:142] Top shape: 128 64 56 48 (22020096)
I0821 16:53:54.999554  4314 net.cpp:150] Memory required for data: 280757760
I0821 16:53:54.999563  4314 layer_factory.hpp:77] Creating layer relu1_1
I0821 16:53:54.999577  4314 net.cpp:88] Creating Layer relu1_1
I0821 16:53:54.999583  4314 net.cpp:440] relu1_1 <- conv1_1
I0821 16:53:54.999590  4314 net.cpp:401] relu1_1 -> conv1_1 (in-place)
I0821 16:53:55.000727  4314 net.cpp:135] Setting up relu1_1
I0821 16:53:55.000746  4314 net.cpp:142] Top shape: 128 64 56 48 (22020096)
I0821 16:53:55.000753  4314 net.cpp:150] Memory required for data: 368838144
I0821 16:53:55.000763  4314 layer_factory.hpp:77] Creating layer conv1_1_relu1_1_0_split
I0821 16:53:55.000774  4314 net.cpp:88] Creating Layer conv1_1_relu1_1_0_split
I0821 16:53:55.000779  4314 net.cpp:440] conv1_1_relu1_1_0_split <- conv1_1
I0821 16:53:55.000787  4314 net.cpp:414] conv1_1_relu1_1_0_split -> conv1_1_relu1_1_0_split_0
I0821 16:53:55.000797  4314 net.cpp:414] conv1_1_relu1_1_0_split -> conv1_1_relu1_1_0_split_1
I0821 16:53:55.000841  4314 net.cpp:135] Setting up conv1_1_relu1_1_0_split
I0821 16:53:55.000850  4314 net.cpp:142] Top shape: 128 64 56 48 (22020096)
I0821 16:53:55.000856  4314 net.cpp:142] Top shape: 128 64 56 48 (22020096)
I0821 16:53:55.000860  4314 net.cpp:150] Memory required for data: 544998912
I0821 16:53:55.000865  4314 layer_factory.hpp:77] Creating layer conv1_2
I0821 16:53:55.000881  4314 net.cpp:88] Creating Layer conv1_2
I0821 16:53:55.000887  4314 net.cpp:440] conv1_2 <- conv1_1_relu1_1_0_split_0
I0821 16:53:55.000895  4314 net.cpp:414] conv1_2 -> conv1_2
I0821 16:53:55.006775  4314 net.cpp:135] Setting up conv1_2
I0821 16:53:55.006799  4314 net.cpp:142] Top shape: 128 64 56 48 (22020096)
I0821 16:53:55.006808  4314 net.cpp:150] Memory required for data: 633079296
I0821 16:53:55.006822  4314 layer_factory.hpp:77] Creating layer bn1_2
I0821 16:53:55.006835  4314 net.cpp:88] Creating Layer bn1_2
I0821 16:53:55.006842  4314 net.cpp:440] bn1_2 <- conv1_2
I0821 16:53:55.006850  4314 net.cpp:401] bn1_2 -> conv1_2 (in-place)
I0821 16:53:55.007091  4314 net.cpp:135] Setting up bn1_2
I0821 16:53:55.007105  4314 net.cpp:142] Top shape: 128 64 56 48 (22020096)
I0821 16:53:55.007112  4314 net.cpp:150] Memory required for data: 721159680
I0821 16:53:55.007123  4314 layer_factory.hpp:77] Creating layer scale_conv1_2
I0821 16:53:55.007133  4314 net.cpp:88] Creating Layer scale_conv1_2
I0821 16:53:55.007139  4314 net.cpp:440] scale_conv1_2 <- conv1_2
I0821 16:53:55.007148  4314 net.cpp:401] scale_conv1_2 -> conv1_2 (in-place)
I0821 16:53:55.007194  4314 layer_factory.hpp:77] Creating layer scale_conv1_2
I0821 16:53:55.007334  4314 net.cpp:135] Setting up scale_conv1_2
I0821 16:53:55.007349  4314 net.cpp:142] Top shape: 128 64 56 48 (22020096)
I0821 16:53:55.007354  4314 net.cpp:150] Memory required for data: 809240064
I0821 16:53:55.007367  4314 layer_factory.hpp:77] Creating layer relu1_2
I0821 16:53:55.007376  4314 net.cpp:88] Creating Layer relu1_2
I0821 16:53:55.007382  4314 net.cpp:440] relu1_2 <- conv1_2
I0821 16:53:55.007390  4314 net.cpp:401] relu1_2 -> conv1_2 (in-place)
I0821 16:53:55.008561  4314 net.cpp:135] Setting up relu1_2
I0821 16:53:55.008582  4314 net.cpp:142] Top shape: 128 64 56 48 (22020096)
I0821 16:53:55.008589  4314 net.cpp:150] Memory required for data: 897320448
I0821 16:53:55.008599  4314 layer_factory.hpp:77] Creating layer conv1_3
I0821 16:53:55.008633  4314 net.cpp:88] Creating Layer conv1_3
I0821 16:53:55.008641  4314 net.cpp:440] conv1_3 <- conv1_2
I0821 16:53:55.008651  4314 net.cpp:414] conv1_3 -> conv1_3
I0821 16:53:55.013625  4314 net.cpp:135] Setting up conv1_3
I0821 16:53:55.013649  4314 net.cpp:142] Top shape: 128 64 56 48 (22020096)
I0821 16:53:55.013656  4314 net.cpp:150] Memory required for data: 985400832
I0821 16:53:55.013671  4314 layer_factory.hpp:77] Creating layer bn1_3
I0821 16:53:55.013682  4314 net.cpp:88] Creating Layer bn1_3
I0821 16:53:55.013689  4314 net.cpp:440] bn1_3 <- conv1_3
I0821 16:53:55.013706  4314 net.cpp:401] bn1_3 -> conv1_3 (in-place)
I0821 16:53:55.013921  4314 net.cpp:135] Setting up bn1_3
I0821 16:53:55.013933  4314 net.cpp:142] Top shape: 128 64 56 48 (22020096)
I0821 16:53:55.013938  4314 net.cpp:150] Memory required for data: 1073481216
I0821 16:53:55.013953  4314 layer_factory.hpp:77] Creating layer scale_conv1_3
I0821 16:53:55.013967  4314 net.cpp:88] Creating Layer scale_conv1_3
I0821 16:53:55.013972  4314 net.cpp:440] scale_conv1_3 <- conv1_3
I0821 16:53:55.013979  4314 net.cpp:401] scale_conv1_3 -> conv1_3 (in-place)
I0821 16:53:55.014029  4314 layer_factory.hpp:77] Creating layer scale_conv1_3
I0821 16:53:55.014154  4314 net.cpp:135] Setting up scale_conv1_3
I0821 16:53:55.014166  4314 net.cpp:142] Top shape: 128 64 56 48 (22020096)
I0821 16:53:55.014171  4314 net.cpp:150] Memory required for data: 1161561600
I0821 16:53:55.014181  4314 layer_factory.hpp:77] Creating layer relu1_3
I0821 16:53:55.014191  4314 net.cpp:88] Creating Layer relu1_3
I0821 16:53:55.014196  4314 net.cpp:440] relu1_3 <- conv1_3
I0821 16:53:55.014204  4314 net.cpp:401] relu1_3 -> conv1_3 (in-place)
I0821 16:53:55.015275  4314 net.cpp:135] Setting up relu1_3
I0821 16:53:55.015293  4314 net.cpp:142] Top shape: 128 64 56 48 (22020096)
I0821 16:53:55.015298  4314 net.cpp:150] Memory required for data: 1249641984
I0821 16:53:55.015307  4314 layer_factory.hpp:77] Creating layer res1_3
I0821 16:53:55.015322  4314 net.cpp:88] Creating Layer res1_3
I0821 16:53:55.015328  4314 net.cpp:440] res1_3 <- conv1_1_relu1_1_0_split_1
I0821 16:53:55.015336  4314 net.cpp:440] res1_3 <- conv1_3
I0821 16:53:55.015343  4314 net.cpp:414] res1_3 -> res1_3
I0821 16:53:55.015383  4314 net.cpp:135] Setting up res1_3
I0821 16:53:55.015390  4314 net.cpp:142] Top shape: 128 64 56 48 (22020096)
I0821 16:53:55.015395  4314 net.cpp:150] Memory required for data: 1337722368
I0821 16:53:55.015400  4314 layer_factory.hpp:77] Creating layer res1_3_res1_3_0_split
I0821 16:53:55.015408  4314 net.cpp:88] Creating Layer res1_3_res1_3_0_split
I0821 16:53:55.015414  4314 net.cpp:440] res1_3_res1_3_0_split <- res1_3
I0821 16:53:55.015420  4314 net.cpp:414] res1_3_res1_3_0_split -> res1_3_res1_3_0_split_0
I0821 16:53:55.015429  4314 net.cpp:414] res1_3_res1_3_0_split -> res1_3_res1_3_0_split_1
I0821 16:53:55.015466  4314 net.cpp:135] Setting up res1_3_res1_3_0_split
I0821 16:53:55.015475  4314 net.cpp:142] Top shape: 128 64 56 48 (22020096)
I0821 16:53:55.015480  4314 net.cpp:142] Top shape: 128 64 56 48 (22020096)
I0821 16:53:55.015486  4314 net.cpp:150] Memory required for data: 1513883136
I0821 16:53:55.015489  4314 layer_factory.hpp:77] Creating layer conv1_4
I0821 16:53:55.015504  4314 net.cpp:88] Creating Layer conv1_4
I0821 16:53:55.015511  4314 net.cpp:440] conv1_4 <- res1_3_res1_3_0_split_0
I0821 16:53:55.015519  4314 net.cpp:414] conv1_4 -> conv1_4
I0821 16:53:55.019920  4314 net.cpp:135] Setting up conv1_4
I0821 16:53:55.019942  4314 net.cpp:142] Top shape: 128 64 56 48 (22020096)
I0821 16:53:55.019948  4314 net.cpp:150] Memory required for data: 1601963520
I0821 16:53:55.019958  4314 layer_factory.hpp:77] Creating layer bn1_4
I0821 16:53:55.019973  4314 net.cpp:88] Creating Layer bn1_4
I0821 16:53:55.019979  4314 net.cpp:440] bn1_4 <- conv1_4
I0821 16:53:55.019986  4314 net.cpp:401] bn1_4 -> conv1_4 (in-place)
I0821 16:53:55.020197  4314 net.cpp:135] Setting up bn1_4
I0821 16:53:55.020210  4314 net.cpp:142] Top shape: 128 64 56 48 (22020096)
I0821 16:53:55.020231  4314 net.cpp:150] Memory required for data: 1690043904
I0821 16:53:55.020241  4314 layer_factory.hpp:77] Creating layer scale_conv1_4
I0821 16:53:55.020251  4314 net.cpp:88] Creating Layer scale_conv1_4
I0821 16:53:55.020256  4314 net.cpp:440] scale_conv1_4 <- conv1_4
I0821 16:53:55.020263  4314 net.cpp:401] scale_conv1_4 -> conv1_4 (in-place)
I0821 16:53:55.020308  4314 layer_factory.hpp:77] Creating layer scale_conv1_4
I0821 16:53:55.020437  4314 net.cpp:135] Setting up scale_conv1_4
I0821 16:53:55.020448  4314 net.cpp:142] Top shape: 128 64 56 48 (22020096)
I0821 16:53:55.020454  4314 net.cpp:150] Memory required for data: 1778124288
I0821 16:53:55.020463  4314 layer_factory.hpp:77] Creating layer relu1_4
I0821 16:53:55.020470  4314 net.cpp:88] Creating Layer relu1_4
I0821 16:53:55.020476  4314 net.cpp:440] relu1_4 <- conv1_4
I0821 16:53:55.020483  4314 net.cpp:401] relu1_4 -> conv1_4 (in-place)
I0821 16:53:55.021586  4314 net.cpp:135] Setting up relu1_4
I0821 16:53:55.021606  4314 net.cpp:142] Top shape: 128 64 56 48 (22020096)
I0821 16:53:55.021612  4314 net.cpp:150] Memory required for data: 1866204672
I0821 16:53:55.021621  4314 layer_factory.hpp:77] Creating layer conv1_5
I0821 16:53:55.021638  4314 net.cpp:88] Creating Layer conv1_5
I0821 16:53:55.021644  4314 net.cpp:440] conv1_5 <- conv1_4
I0821 16:53:55.021653  4314 net.cpp:414] conv1_5 -> conv1_5
I0821 16:53:55.026082  4314 net.cpp:135] Setting up conv1_5
I0821 16:53:55.026103  4314 net.cpp:142] Top shape: 128 64 56 48 (22020096)
I0821 16:53:55.026109  4314 net.cpp:150] Memory required for data: 1954285056
I0821 16:53:55.026127  4314 layer_factory.hpp:77] Creating layer bn1_5
I0821 16:53:55.026137  4314 net.cpp:88] Creating Layer bn1_5
I0821 16:53:55.026144  4314 net.cpp:440] bn1_5 <- conv1_5
I0821 16:53:55.026150  4314 net.cpp:401] bn1_5 -> conv1_5 (in-place)
I0821 16:53:55.026372  4314 net.cpp:135] Setting up bn1_5
I0821 16:53:55.026384  4314 net.cpp:142] Top shape: 128 64 56 48 (22020096)
I0821 16:53:55.026391  4314 net.cpp:150] Memory required for data: 2042365440
I0821 16:53:55.026401  4314 layer_factory.hpp:77] Creating layer scale_conv1_5
I0821 16:53:55.026409  4314 net.cpp:88] Creating Layer scale_conv1_5
I0821 16:53:55.026415  4314 net.cpp:440] scale_conv1_5 <- conv1_5
I0821 16:53:55.026422  4314 net.cpp:401] scale_conv1_5 -> conv1_5 (in-place)
I0821 16:53:55.026463  4314 layer_factory.hpp:77] Creating layer scale_conv1_5
I0821 16:53:55.026592  4314 net.cpp:135] Setting up scale_conv1_5
I0821 16:53:55.026603  4314 net.cpp:142] Top shape: 128 64 56 48 (22020096)
I0821 16:53:55.026608  4314 net.cpp:150] Memory required for data: 2130445824
I0821 16:53:55.026618  4314 layer_factory.hpp:77] Creating layer relu1_5
I0821 16:53:55.026626  4314 net.cpp:88] Creating Layer relu1_5
I0821 16:53:55.026633  4314 net.cpp:440] relu1_5 <- conv1_5
I0821 16:53:55.026639  4314 net.cpp:401] relu1_5 -> conv1_5 (in-place)
I0821 16:53:55.027737  4314 net.cpp:135] Setting up relu1_5
I0821 16:53:55.027756  4314 net.cpp:142] Top shape: 128 64 56 48 (22020096)
I0821 16:53:55.027762  4314 net.cpp:150] Memory required for data: 2218526208
I0821 16:53:55.027770  4314 layer_factory.hpp:77] Creating layer res1_5
I0821 16:53:55.027781  4314 net.cpp:88] Creating Layer res1_5
I0821 16:53:55.027788  4314 net.cpp:440] res1_5 <- res1_3_res1_3_0_split_1
I0821 16:53:55.027796  4314 net.cpp:440] res1_5 <- conv1_5
I0821 16:53:55.027802  4314 net.cpp:414] res1_5 -> res1_5
I0821 16:53:55.027837  4314 net.cpp:135] Setting up res1_5
I0821 16:53:55.027845  4314 net.cpp:142] Top shape: 128 64 56 48 (22020096)
I0821 16:53:55.027850  4314 net.cpp:150] Memory required for data: 2306606592
I0821 16:53:55.027866  4314 layer_factory.hpp:77] Creating layer conv2_1
I0821 16:53:55.027879  4314 net.cpp:88] Creating Layer conv2_1
I0821 16:53:55.027884  4314 net.cpp:440] conv2_1 <- res1_5
I0821 16:53:55.027894  4314 net.cpp:414] conv2_1 -> conv2_1
I0821 16:53:55.031678  4314 net.cpp:135] Setting up conv2_1
I0821 16:53:55.031699  4314 net.cpp:142] Top shape: 128 128 28 24 (11010048)
I0821 16:53:55.031720  4314 net.cpp:150] Memory required for data: 2350646784
I0821 16:53:55.031733  4314 layer_factory.hpp:77] Creating layer bn2_1
I0821 16:53:55.031745  4314 net.cpp:88] Creating Layer bn2_1
I0821 16:53:55.031751  4314 net.cpp:440] bn2_1 <- conv2_1
I0821 16:53:55.031759  4314 net.cpp:401] bn2_1 -> conv2_1 (in-place)
I0821 16:53:55.031973  4314 net.cpp:135] Setting up bn2_1
I0821 16:53:55.031986  4314 net.cpp:142] Top shape: 128 128 28 24 (11010048)
I0821 16:53:55.031991  4314 net.cpp:150] Memory required for data: 2394686976
I0821 16:53:55.032002  4314 layer_factory.hpp:77] Creating layer scale_conv2_1
I0821 16:53:55.032011  4314 net.cpp:88] Creating Layer scale_conv2_1
I0821 16:53:55.032016  4314 net.cpp:440] scale_conv2_1 <- conv2_1
I0821 16:53:55.032023  4314 net.cpp:401] scale_conv2_1 -> conv2_1 (in-place)
I0821 16:53:55.032063  4314 layer_factory.hpp:77] Creating layer scale_conv2_1
I0821 16:53:55.032186  4314 net.cpp:135] Setting up scale_conv2_1
I0821 16:53:55.032197  4314 net.cpp:142] Top shape: 128 128 28 24 (11010048)
I0821 16:53:55.032202  4314 net.cpp:150] Memory required for data: 2438727168
I0821 16:53:55.032212  4314 layer_factory.hpp:77] Creating layer relu2_1
I0821 16:53:55.032219  4314 net.cpp:88] Creating Layer relu2_1
I0821 16:53:55.032225  4314 net.cpp:440] relu2_1 <- conv2_1
I0821 16:53:55.032232  4314 net.cpp:401] relu2_1 -> conv2_1 (in-place)
I0821 16:53:55.032394  4314 net.cpp:135] Setting up relu2_1
I0821 16:53:55.032407  4314 net.cpp:142] Top shape: 128 128 28 24 (11010048)
I0821 16:53:55.032411  4314 net.cpp:150] Memory required for data: 2482767360
I0821 16:53:55.032420  4314 layer_factory.hpp:77] Creating layer conv2_1_relu2_1_0_split
I0821 16:53:55.032429  4314 net.cpp:88] Creating Layer conv2_1_relu2_1_0_split
I0821 16:53:55.032434  4314 net.cpp:440] conv2_1_relu2_1_0_split <- conv2_1
I0821 16:53:55.032441  4314 net.cpp:414] conv2_1_relu2_1_0_split -> conv2_1_relu2_1_0_split_0
I0821 16:53:55.032452  4314 net.cpp:414] conv2_1_relu2_1_0_split -> conv2_1_relu2_1_0_split_1
I0821 16:53:55.032495  4314 net.cpp:135] Setting up conv2_1_relu2_1_0_split
I0821 16:53:55.032503  4314 net.cpp:142] Top shape: 128 128 28 24 (11010048)
I0821 16:53:55.032510  4314 net.cpp:142] Top shape: 128 128 28 24 (11010048)
I0821 16:53:55.032515  4314 net.cpp:150] Memory required for data: 2570847744
I0821 16:53:55.032519  4314 layer_factory.hpp:77] Creating layer conv2_2
I0821 16:53:55.032532  4314 net.cpp:88] Creating Layer conv2_2
I0821 16:53:55.032538  4314 net.cpp:440] conv2_2 <- conv2_1_relu2_1_0_split_0
I0821 16:53:55.032547  4314 net.cpp:414] conv2_2 -> conv2_2
I0821 16:53:55.042271  4314 net.cpp:135] Setting up conv2_2
I0821 16:53:55.042295  4314 net.cpp:142] Top shape: 128 128 28 24 (11010048)
I0821 16:53:55.042301  4314 net.cpp:150] Memory required for data: 2614887936
I0821 16:53:55.042313  4314 layer_factory.hpp:77] Creating layer bn2_2
I0821 16:53:55.042325  4314 net.cpp:88] Creating Layer bn2_2
I0821 16:53:55.042332  4314 net.cpp:440] bn2_2 <- conv2_2
I0821 16:53:55.042340  4314 net.cpp:401] bn2_2 -> conv2_2 (in-place)
I0821 16:53:55.042558  4314 net.cpp:135] Setting up bn2_2
I0821 16:53:55.042570  4314 net.cpp:142] Top shape: 128 128 28 24 (11010048)
I0821 16:53:55.042575  4314 net.cpp:150] Memory required for data: 2658928128
I0821 16:53:55.042587  4314 layer_factory.hpp:77] Creating layer scale_conv2_2
I0821 16:53:55.042595  4314 net.cpp:88] Creating Layer scale_conv2_2
I0821 16:53:55.042600  4314 net.cpp:440] scale_conv2_2 <- conv2_2
I0821 16:53:55.042608  4314 net.cpp:401] scale_conv2_2 -> conv2_2 (in-place)
I0821 16:53:55.042650  4314 layer_factory.hpp:77] Creating layer scale_conv2_2
I0821 16:53:55.042775  4314 net.cpp:135] Setting up scale_conv2_2
I0821 16:53:55.042786  4314 net.cpp:142] Top shape: 128 128 28 24 (11010048)
I0821 16:53:55.042793  4314 net.cpp:150] Memory required for data: 2702968320
I0821 16:53:55.042804  4314 layer_factory.hpp:77] Creating layer relu2_2
I0821 16:53:55.042812  4314 net.cpp:88] Creating Layer relu2_2
I0821 16:53:55.042819  4314 net.cpp:440] relu2_2 <- conv2_2
I0821 16:53:55.042841  4314 net.cpp:401] relu2_2 -> conv2_2 (in-place)
I0821 16:53:55.043011  4314 net.cpp:135] Setting up relu2_2
I0821 16:53:55.043025  4314 net.cpp:142] Top shape: 128 128 28 24 (11010048)
I0821 16:53:55.043030  4314 net.cpp:150] Memory required for data: 2747008512
I0821 16:53:55.043036  4314 layer_factory.hpp:77] Creating layer conv2_3
I0821 16:53:55.043054  4314 net.cpp:88] Creating Layer conv2_3
I0821 16:53:55.043061  4314 net.cpp:440] conv2_3 <- conv2_2
I0821 16:53:55.043071  4314 net.cpp:414] conv2_3 -> conv2_3
I0821 16:53:55.053027  4314 net.cpp:135] Setting up conv2_3
I0821 16:53:55.053102  4314 net.cpp:142] Top shape: 128 128 28 24 (11010048)
I0821 16:53:55.053134  4314 net.cpp:150] Memory required for data: 2791048704
I0821 16:53:55.053171  4314 layer_factory.hpp:77] Creating layer bn2_3
I0821 16:53:55.053211  4314 net.cpp:88] Creating Layer bn2_3
I0821 16:53:55.053267  4314 net.cpp:440] bn2_3 <- conv2_3
I0821 16:53:55.053305  4314 net.cpp:401] bn2_3 -> conv2_3 (in-place)
I0821 16:53:55.053624  4314 net.cpp:135] Setting up bn2_3
I0821 16:53:55.053642  4314 net.cpp:142] Top shape: 128 128 28 24 (11010048)
I0821 16:53:55.053647  4314 net.cpp:150] Memory required for data: 2835088896
I0821 16:53:55.053658  4314 layer_factory.hpp:77] Creating layer scale_conv2_3
I0821 16:53:55.053670  4314 net.cpp:88] Creating Layer scale_conv2_3
I0821 16:53:55.053676  4314 net.cpp:440] scale_conv2_3 <- conv2_3
I0821 16:53:55.053685  4314 net.cpp:401] scale_conv2_3 -> conv2_3 (in-place)
I0821 16:53:55.053733  4314 layer_factory.hpp:77] Creating layer scale_conv2_3
I0821 16:53:55.053905  4314 net.cpp:135] Setting up scale_conv2_3
I0821 16:53:55.053925  4314 net.cpp:142] Top shape: 128 128 28 24 (11010048)
I0821 16:53:55.053932  4314 net.cpp:150] Memory required for data: 2879129088
I0821 16:53:55.053946  4314 layer_factory.hpp:77] Creating layer relu2_3
I0821 16:53:55.053961  4314 net.cpp:88] Creating Layer relu2_3
I0821 16:53:55.053969  4314 net.cpp:440] relu2_3 <- conv2_3
I0821 16:53:55.053979  4314 net.cpp:401] relu2_3 -> conv2_3 (in-place)
I0821 16:53:55.054236  4314 net.cpp:135] Setting up relu2_3
I0821 16:53:55.054253  4314 net.cpp:142] Top shape: 128 128 28 24 (11010048)
I0821 16:53:55.054261  4314 net.cpp:150] Memory required for data: 2923169280
I0821 16:53:55.054271  4314 layer_factory.hpp:77] Creating layer res2_3
I0821 16:53:55.054288  4314 net.cpp:88] Creating Layer res2_3
I0821 16:53:55.054296  4314 net.cpp:440] res2_3 <- conv2_1_relu2_1_0_split_1
I0821 16:53:55.054306  4314 net.cpp:440] res2_3 <- conv2_3
I0821 16:53:55.054317  4314 net.cpp:414] res2_3 -> res2_3
I0821 16:53:55.054360  4314 net.cpp:135] Setting up res2_3
I0821 16:53:55.054373  4314 net.cpp:142] Top shape: 128 128 28 24 (11010048)
I0821 16:53:55.054379  4314 net.cpp:150] Memory required for data: 2967209472
I0821 16:53:55.054388  4314 layer_factory.hpp:77] Creating layer res2_3_res2_3_0_split
I0821 16:53:55.054399  4314 net.cpp:88] Creating Layer res2_3_res2_3_0_split
I0821 16:53:55.054406  4314 net.cpp:440] res2_3_res2_3_0_split <- res2_3
I0821 16:53:55.054419  4314 net.cpp:414] res2_3_res2_3_0_split -> res2_3_res2_3_0_split_0
I0821 16:53:55.054431  4314 net.cpp:414] res2_3_res2_3_0_split -> res2_3_res2_3_0_split_1
I0821 16:53:55.054491  4314 net.cpp:135] Setting up res2_3_res2_3_0_split
I0821 16:53:55.054503  4314 net.cpp:142] Top shape: 128 128 28 24 (11010048)
I0821 16:53:55.054513  4314 net.cpp:142] Top shape: 128 128 28 24 (11010048)
I0821 16:53:55.054520  4314 net.cpp:150] Memory required for data: 3055289856
I0821 16:53:55.054530  4314 layer_factory.hpp:77] Creating layer conv2_4
I0821 16:53:55.054555  4314 net.cpp:88] Creating Layer conv2_4
I0821 16:53:55.054564  4314 net.cpp:440] conv2_4 <- res2_3_res2_3_0_split_0
I0821 16:53:55.054576  4314 net.cpp:414] conv2_4 -> conv2_4
I0821 16:53:55.070616  4314 net.cpp:135] Setting up conv2_4
I0821 16:53:55.070638  4314 net.cpp:142] Top shape: 128 128 28 24 (11010048)
I0821 16:53:55.070644  4314 net.cpp:150] Memory required for data: 3099330048
I0821 16:53:55.070685  4314 layer_factory.hpp:77] Creating layer bn2_4
I0821 16:53:55.070700  4314 net.cpp:88] Creating Layer bn2_4
I0821 16:53:55.070708  4314 net.cpp:440] bn2_4 <- conv2_4
I0821 16:53:55.070714  4314 net.cpp:401] bn2_4 -> conv2_4 (in-place)
I0821 16:53:55.071163  4314 net.cpp:135] Setting up bn2_4
I0821 16:53:55.071238  4314 net.cpp:142] Top shape: 128 128 28 24 (11010048)
I0821 16:53:55.071260  4314 net.cpp:150] Memory required for data: 3143370240
I0821 16:53:55.071292  4314 layer_factory.hpp:77] Creating layer scale_conv2_4
I0821 16:53:55.071344  4314 net.cpp:88] Creating Layer scale_conv2_4
I0821 16:53:55.071369  4314 net.cpp:440] scale_conv2_4 <- conv2_4
I0821 16:53:55.071388  4314 net.cpp:401] scale_conv2_4 -> conv2_4 (in-place)
I0821 16:53:55.071596  4314 layer_factory.hpp:77] Creating layer scale_conv2_4
I0821 16:53:55.072101  4314 net.cpp:135] Setting up scale_conv2_4
I0821 16:53:55.072196  4314 net.cpp:142] Top shape: 128 128 28 24 (11010048)
I0821 16:53:55.072211  4314 net.cpp:150] Memory required for data: 3187410432
I0821 16:53:55.072232  4314 layer_factory.hpp:77] Creating layer relu2_4
I0821 16:53:55.072257  4314 net.cpp:88] Creating Layer relu2_4
I0821 16:53:55.072268  4314 net.cpp:440] relu2_4 <- conv2_4
I0821 16:53:55.072284  4314 net.cpp:401] relu2_4 -> conv2_4 (in-place)
I0821 16:53:55.073348  4314 net.cpp:135] Setting up relu2_4
I0821 16:53:55.073436  4314 net.cpp:142] Top shape: 128 128 28 24 (11010048)
I0821 16:53:55.073448  4314 net.cpp:150] Memory required for data: 3231450624
I0821 16:53:55.073474  4314 layer_factory.hpp:77] Creating layer conv2_5
I0821 16:53:55.073587  4314 net.cpp:88] Creating Layer conv2_5
I0821 16:53:55.073616  4314 net.cpp:440] conv2_5 <- conv2_4
I0821 16:53:55.073683  4314 net.cpp:414] conv2_5 -> conv2_5
I0821 16:53:55.089720  4314 net.cpp:135] Setting up conv2_5
I0821 16:53:55.089742  4314 net.cpp:142] Top shape: 128 128 28 24 (11010048)
I0821 16:53:55.089756  4314 net.cpp:150] Memory required for data: 3275490816
I0821 16:53:55.089766  4314 layer_factory.hpp:77] Creating layer bn2_5
I0821 16:53:55.089777  4314 net.cpp:88] Creating Layer bn2_5
I0821 16:53:55.089783  4314 net.cpp:440] bn2_5 <- conv2_5
I0821 16:53:55.089790  4314 net.cpp:401] bn2_5 -> conv2_5 (in-place)
I0821 16:53:55.090039  4314 net.cpp:135] Setting up bn2_5
I0821 16:53:55.090050  4314 net.cpp:142] Top shape: 128 128 28 24 (11010048)
I0821 16:53:55.090055  4314 net.cpp:150] Memory required for data: 3319531008
I0821 16:53:55.090065  4314 layer_factory.hpp:77] Creating layer scale_conv2_5
I0821 16:53:55.090075  4314 net.cpp:88] Creating Layer scale_conv2_5
I0821 16:53:55.090080  4314 net.cpp:440] scale_conv2_5 <- conv2_5
I0821 16:53:55.090092  4314 net.cpp:401] scale_conv2_5 -> conv2_5 (in-place)
I0821 16:53:55.090153  4314 layer_factory.hpp:77] Creating layer scale_conv2_5
I0821 16:53:55.090293  4314 net.cpp:135] Setting up scale_conv2_5
I0821 16:53:55.090304  4314 net.cpp:142] Top shape: 128 128 28 24 (11010048)
I0821 16:53:55.090309  4314 net.cpp:150] Memory required for data: 3363571200
I0821 16:53:55.090318  4314 layer_factory.hpp:77] Creating layer relu2_5
I0821 16:53:55.090327  4314 net.cpp:88] Creating Layer relu2_5
I0821 16:53:55.090333  4314 net.cpp:440] relu2_5 <- conv2_5
I0821 16:53:55.090339  4314 net.cpp:401] relu2_5 -> conv2_5 (in-place)
I0821 16:53:55.090507  4314 net.cpp:135] Setting up relu2_5
I0821 16:53:55.090517  4314 net.cpp:142] Top shape: 128 128 28 24 (11010048)
I0821 16:53:55.090523  4314 net.cpp:150] Memory required for data: 3407611392
I0821 16:53:55.090528  4314 layer_factory.hpp:77] Creating layer res2_5
I0821 16:53:55.090543  4314 net.cpp:88] Creating Layer res2_5
I0821 16:53:55.090548  4314 net.cpp:440] res2_5 <- res2_3_res2_3_0_split_1
I0821 16:53:55.090555  4314 net.cpp:440] res2_5 <- conv2_5
I0821 16:53:55.090562  4314 net.cpp:414] res2_5 -> res2_5
I0821 16:53:55.090593  4314 net.cpp:135] Setting up res2_5
I0821 16:53:55.090600  4314 net.cpp:142] Top shape: 128 128 28 24 (11010048)
I0821 16:53:55.090605  4314 net.cpp:150] Memory required for data: 3451651584
I0821 16:53:55.090626  4314 layer_factory.hpp:77] Creating layer res2_5_res2_5_0_split
I0821 16:53:55.090636  4314 net.cpp:88] Creating Layer res2_5_res2_5_0_split
I0821 16:53:55.090642  4314 net.cpp:440] res2_5_res2_5_0_split <- res2_5
I0821 16:53:55.090648  4314 net.cpp:414] res2_5_res2_5_0_split -> res2_5_res2_5_0_split_0
I0821 16:53:55.090656  4314 net.cpp:414] res2_5_res2_5_0_split -> res2_5_res2_5_0_split_1
I0821 16:53:55.090704  4314 net.cpp:135] Setting up res2_5_res2_5_0_split
I0821 16:53:55.090718  4314 net.cpp:142] Top shape: 128 128 28 24 (11010048)
I0821 16:53:55.090723  4314 net.cpp:142] Top shape: 128 128 28 24 (11010048)
I0821 16:53:55.090728  4314 net.cpp:150] Memory required for data: 3539731968
I0821 16:53:55.090734  4314 layer_factory.hpp:77] Creating layer conv2_6
I0821 16:53:55.090747  4314 net.cpp:88] Creating Layer conv2_6
I0821 16:53:55.090752  4314 net.cpp:440] conv2_6 <- res2_5_res2_5_0_split_0
I0821 16:53:55.090766  4314 net.cpp:414] conv2_6 -> conv2_6
I0821 16:53:55.099511  4314 net.cpp:135] Setting up conv2_6
I0821 16:53:55.099535  4314 net.cpp:142] Top shape: 128 128 28 24 (11010048)
I0821 16:53:55.099550  4314 net.cpp:150] Memory required for data: 3583772160
I0821 16:53:55.099560  4314 layer_factory.hpp:77] Creating layer bn2_6
I0821 16:53:55.099572  4314 net.cpp:88] Creating Layer bn2_6
I0821 16:53:55.099578  4314 net.cpp:440] bn2_6 <- conv2_6
I0821 16:53:55.099587  4314 net.cpp:401] bn2_6 -> conv2_6 (in-place)
I0821 16:53:55.099828  4314 net.cpp:135] Setting up bn2_6
I0821 16:53:55.099839  4314 net.cpp:142] Top shape: 128 128 28 24 (11010048)
I0821 16:53:55.099846  4314 net.cpp:150] Memory required for data: 3627812352
I0821 16:53:55.099858  4314 layer_factory.hpp:77] Creating layer scale_conv2_6
I0821 16:53:55.099872  4314 net.cpp:88] Creating Layer scale_conv2_6
I0821 16:53:55.099877  4314 net.cpp:440] scale_conv2_6 <- conv2_6
I0821 16:53:55.099884  4314 net.cpp:401] scale_conv2_6 -> conv2_6 (in-place)
I0821 16:53:55.099928  4314 layer_factory.hpp:77] Creating layer scale_conv2_6
I0821 16:53:55.100066  4314 net.cpp:135] Setting up scale_conv2_6
I0821 16:53:55.100080  4314 net.cpp:142] Top shape: 128 128 28 24 (11010048)
I0821 16:53:55.100085  4314 net.cpp:150] Memory required for data: 3671852544
I0821 16:53:55.100093  4314 layer_factory.hpp:77] Creating layer relu2_6
I0821 16:53:55.100101  4314 net.cpp:88] Creating Layer relu2_6
I0821 16:53:55.100106  4314 net.cpp:440] relu2_6 <- conv2_6
I0821 16:53:55.100113  4314 net.cpp:401] relu2_6 -> conv2_6 (in-place)
I0821 16:53:55.100294  4314 net.cpp:135] Setting up relu2_6
I0821 16:53:55.100306  4314 net.cpp:142] Top shape: 128 128 28 24 (11010048)
I0821 16:53:55.100311  4314 net.cpp:150] Memory required for data: 3715892736
I0821 16:53:55.100317  4314 layer_factory.hpp:77] Creating layer conv2_7
I0821 16:53:55.100328  4314 net.cpp:88] Creating Layer conv2_7
I0821 16:53:55.100334  4314 net.cpp:440] conv2_7 <- conv2_6
I0821 16:53:55.100344  4314 net.cpp:414] conv2_7 -> conv2_7
I0821 16:53:55.109772  4314 net.cpp:135] Setting up conv2_7
I0821 16:53:55.109792  4314 net.cpp:142] Top shape: 128 128 28 24 (11010048)
I0821 16:53:55.109805  4314 net.cpp:150] Memory required for data: 3759932928
I0821 16:53:55.109815  4314 layer_factory.hpp:77] Creating layer bn2_7
I0821 16:53:55.109829  4314 net.cpp:88] Creating Layer bn2_7
I0821 16:53:55.109835  4314 net.cpp:440] bn2_7 <- conv2_7
I0821 16:53:55.109843  4314 net.cpp:401] bn2_7 -> conv2_7 (in-place)
I0821 16:53:55.110100  4314 net.cpp:135] Setting up bn2_7
I0821 16:53:55.110110  4314 net.cpp:142] Top shape: 128 128 28 24 (11010048)
I0821 16:53:55.110116  4314 net.cpp:150] Memory required for data: 3803973120
I0821 16:53:55.110127  4314 layer_factory.hpp:77] Creating layer scale_conv2_7
I0821 16:53:55.110138  4314 net.cpp:88] Creating Layer scale_conv2_7
I0821 16:53:55.110143  4314 net.cpp:440] scale_conv2_7 <- conv2_7
I0821 16:53:55.110150  4314 net.cpp:401] scale_conv2_7 -> conv2_7 (in-place)
I0821 16:53:55.110196  4314 layer_factory.hpp:77] Creating layer scale_conv2_7
I0821 16:53:55.110342  4314 net.cpp:135] Setting up scale_conv2_7
I0821 16:53:55.110369  4314 net.cpp:142] Top shape: 128 128 28 24 (11010048)
I0821 16:53:55.110374  4314 net.cpp:150] Memory required for data: 3848013312
I0821 16:53:55.110383  4314 layer_factory.hpp:77] Creating layer relu2_7
I0821 16:53:55.110391  4314 net.cpp:88] Creating Layer relu2_7
I0821 16:53:55.110396  4314 net.cpp:440] relu2_7 <- conv2_7
I0821 16:53:55.110405  4314 net.cpp:401] relu2_7 -> conv2_7 (in-place)
I0821 16:53:55.110592  4314 net.cpp:135] Setting up relu2_7
I0821 16:53:55.110604  4314 net.cpp:142] Top shape: 128 128 28 24 (11010048)
I0821 16:53:55.110608  4314 net.cpp:150] Memory required for data: 3892053504
I0821 16:53:55.110615  4314 layer_factory.hpp:77] Creating layer res2_7
I0821 16:53:55.110625  4314 net.cpp:88] Creating Layer res2_7
I0821 16:53:55.110632  4314 net.cpp:440] res2_7 <- res2_5_res2_5_0_split_1
I0821 16:53:55.110638  4314 net.cpp:440] res2_7 <- conv2_7
I0821 16:53:55.110646  4314 net.cpp:414] res2_7 -> res2_7
I0821 16:53:55.110678  4314 net.cpp:135] Setting up res2_7
I0821 16:53:55.110685  4314 net.cpp:142] Top shape: 128 128 28 24 (11010048)
I0821 16:53:55.110690  4314 net.cpp:150] Memory required for data: 3936093696
I0821 16:53:55.110695  4314 layer_factory.hpp:77] Creating layer res2_7_res2_7_0_split
I0821 16:53:55.110703  4314 net.cpp:88] Creating Layer res2_7_res2_7_0_split
I0821 16:53:55.110708  4314 net.cpp:440] res2_7_res2_7_0_split <- res2_7
I0821 16:53:55.110714  4314 net.cpp:414] res2_7_res2_7_0_split -> res2_7_res2_7_0_split_0
I0821 16:53:55.110723  4314 net.cpp:414] res2_7_res2_7_0_split -> res2_7_res2_7_0_split_1
I0821 16:53:55.110769  4314 net.cpp:135] Setting up res2_7_res2_7_0_split
I0821 16:53:55.110785  4314 net.cpp:142] Top shape: 128 128 28 24 (11010048)
I0821 16:53:55.110791  4314 net.cpp:142] Top shape: 128 128 28 24 (11010048)
I0821 16:53:55.110796  4314 net.cpp:150] Memory required for data: 4024174080
I0821 16:53:55.110802  4314 layer_factory.hpp:77] Creating layer conv2_8
I0821 16:53:55.110816  4314 net.cpp:88] Creating Layer conv2_8
I0821 16:53:55.110821  4314 net.cpp:440] conv2_8 <- res2_7_res2_7_0_split_0
I0821 16:53:55.110831  4314 net.cpp:414] conv2_8 -> conv2_8
I0821 16:53:55.120679  4314 net.cpp:135] Setting up conv2_8
I0821 16:53:55.120723  4314 net.cpp:142] Top shape: 128 128 28 24 (11010048)
I0821 16:53:55.120729  4314 net.cpp:150] Memory required for data: 4068214272
I0821 16:53:55.120743  4314 layer_factory.hpp:77] Creating layer bn2_8
I0821 16:53:55.120756  4314 net.cpp:88] Creating Layer bn2_8
I0821 16:53:55.120765  4314 net.cpp:440] bn2_8 <- conv2_8
I0821 16:53:55.120777  4314 net.cpp:401] bn2_8 -> conv2_8 (in-place)
I0821 16:53:55.121043  4314 net.cpp:135] Setting up bn2_8
I0821 16:53:55.121062  4314 net.cpp:142] Top shape: 128 128 28 24 (11010048)
I0821 16:53:55.121071  4314 net.cpp:150] Memory required for data: 4112254464
I0821 16:53:55.121084  4314 layer_factory.hpp:77] Creating layer scale_conv2_8
I0821 16:53:55.121095  4314 net.cpp:88] Creating Layer scale_conv2_8
I0821 16:53:55.121101  4314 net.cpp:440] scale_conv2_8 <- conv2_8
I0821 16:53:55.121112  4314 net.cpp:401] scale_conv2_8 -> conv2_8 (in-place)
I0821 16:53:55.121196  4314 layer_factory.hpp:77] Creating layer scale_conv2_8
I0821 16:53:55.121417  4314 net.cpp:135] Setting up scale_conv2_8
I0821 16:53:55.121438  4314 net.cpp:142] Top shape: 128 128 28 24 (11010048)
I0821 16:53:55.121445  4314 net.cpp:150] Memory required for data: 4156294656
I0821 16:53:55.121459  4314 layer_factory.hpp:77] Creating layer relu2_8
I0821 16:53:55.121479  4314 net.cpp:88] Creating Layer relu2_8
I0821 16:53:55.121487  4314 net.cpp:440] relu2_8 <- conv2_8
I0821 16:53:55.121497  4314 net.cpp:401] relu2_8 -> conv2_8 (in-place)
I0821 16:53:55.121752  4314 net.cpp:135] Setting up relu2_8
I0821 16:53:55.121801  4314 net.cpp:142] Top shape: 128 128 28 24 (11010048)
I0821 16:53:55.121830  4314 net.cpp:150] Memory required for data: 4200334848
I0821 16:53:55.121865  4314 layer_factory.hpp:77] Creating layer conv2_9
I0821 16:53:55.121918  4314 net.cpp:88] Creating Layer conv2_9
I0821 16:53:55.121971  4314 net.cpp:440] conv2_9 <- conv2_8
I0821 16:53:55.122006  4314 net.cpp:414] conv2_9 -> conv2_9
I0821 16:53:55.138093  4314 net.cpp:135] Setting up conv2_9
I0821 16:53:55.138136  4314 net.cpp:142] Top shape: 128 128 28 24 (11010048)
I0821 16:53:55.138157  4314 net.cpp:150] Memory required for data: 4244375040
I0821 16:53:55.138190  4314 layer_factory.hpp:77] Creating layer bn2_9
I0821 16:53:55.138238  4314 net.cpp:88] Creating Layer bn2_9
I0821 16:53:55.138303  4314 net.cpp:440] bn2_9 <- conv2_9
I0821 16:53:55.138356  4314 net.cpp:401] bn2_9 -> conv2_9 (in-place)
I0821 16:53:55.139205  4314 net.cpp:135] Setting up bn2_9
I0821 16:53:55.139304  4314 net.cpp:142] Top shape: 128 128 28 24 (11010048)
I0821 16:53:55.139320  4314 net.cpp:150] Memory required for data: 4288415232
I0821 16:53:55.139360  4314 layer_factory.hpp:77] Creating layer scale_conv2_9
I0821 16:53:55.139422  4314 net.cpp:88] Creating Layer scale_conv2_9
I0821 16:53:55.139444  4314 net.cpp:440] scale_conv2_9 <- conv2_9
I0821 16:53:55.139503  4314 net.cpp:401] scale_conv2_9 -> conv2_9 (in-place)
I0821 16:53:55.139573  4314 layer_factory.hpp:77] Creating layer scale_conv2_9
I0821 16:53:55.139941  4314 net.cpp:135] Setting up scale_conv2_9
I0821 16:53:55.140038  4314 net.cpp:142] Top shape: 128 128 28 24 (11010048)
I0821 16:53:55.140050  4314 net.cpp:150] Memory required for data: 4332455424
I0821 16:53:55.140076  4314 layer_factory.hpp:77] Creating layer relu2_9
I0821 16:53:55.140128  4314 net.cpp:88] Creating Layer relu2_9
I0821 16:53:55.140152  4314 net.cpp:440] relu2_9 <- conv2_9
I0821 16:53:55.140177  4314 net.cpp:401] relu2_9 -> conv2_9 (in-place)
I0821 16:53:55.141090  4314 net.cpp:135] Setting up relu2_9
I0821 16:53:55.141103  4314 net.cpp:142] Top shape: 128 128 28 24 (11010048)
I0821 16:53:55.141108  4314 net.cpp:150] Memory required for data: 4376495616
I0821 16:53:55.141118  4314 layer_factory.hpp:77] Creating layer res2_9
I0821 16:53:55.141126  4314 net.cpp:88] Creating Layer res2_9
I0821 16:53:55.141134  4314 net.cpp:440] res2_9 <- res2_7_res2_7_0_split_1
I0821 16:53:55.141141  4314 net.cpp:440] res2_9 <- conv2_9
I0821 16:53:55.141155  4314 net.cpp:414] res2_9 -> res2_9
I0821 16:53:55.141469  4314 net.cpp:135] Setting up res2_9
I0821 16:53:55.141579  4314 net.cpp:142] Top shape: 128 128 28 24 (11010048)
I0821 16:53:55.141597  4314 net.cpp:150] Memory required for data: 4420535808
I0821 16:53:55.141613  4314 layer_factory.hpp:77] Creating layer conv3_1
I0821 16:53:55.141706  4314 net.cpp:88] Creating Layer conv3_1
I0821 16:53:55.141734  4314 net.cpp:440] conv3_1 <- res2_9
I0821 16:53:55.141777  4314 net.cpp:414] conv3_1 -> conv3_1
I0821 16:53:55.156235  4314 net.cpp:135] Setting up conv3_1
I0821 16:53:55.156306  4314 net.cpp:142] Top shape: 128 256 14 12 (5505024)
I0821 16:53:55.156313  4314 net.cpp:150] Memory required for data: 4442555904
I0821 16:53:55.156324  4314 layer_factory.hpp:77] Creating layer bn3_1
I0821 16:53:55.156335  4314 net.cpp:88] Creating Layer bn3_1
I0821 16:53:55.156342  4314 net.cpp:440] bn3_1 <- conv3_1
I0821 16:53:55.156349  4314 net.cpp:401] bn3_1 -> conv3_1 (in-place)
I0821 16:53:55.156914  4314 net.cpp:135] Setting up bn3_1
I0821 16:53:55.157007  4314 net.cpp:142] Top shape: 128 256 14 12 (5505024)
I0821 16:53:55.157017  4314 net.cpp:150] Memory required for data: 4464576000
I0821 16:53:55.157083  4314 layer_factory.hpp:77] Creating layer scale_conv3_1
I0821 16:53:55.157155  4314 net.cpp:88] Creating Layer scale_conv3_1
I0821 16:53:55.157178  4314 net.cpp:440] scale_conv3_1 <- conv3_1
I0821 16:53:55.157193  4314 net.cpp:401] scale_conv3_1 -> conv3_1 (in-place)
I0821 16:53:55.157534  4314 layer_factory.hpp:77] Creating layer scale_conv3_1
I0821 16:53:55.157932  4314 net.cpp:135] Setting up scale_conv3_1
I0821 16:53:55.158007  4314 net.cpp:142] Top shape: 128 256 14 12 (5505024)
I0821 16:53:55.158018  4314 net.cpp:150] Memory required for data: 4486596096
I0821 16:53:55.158054  4314 layer_factory.hpp:77] Creating layer relu3_1
I0821 16:53:55.158102  4314 net.cpp:88] Creating Layer relu3_1
I0821 16:53:55.158264  4314 net.cpp:440] relu3_1 <- conv3_1
I0821 16:53:55.158318  4314 net.cpp:401] relu3_1 -> conv3_1 (in-place)
I0821 16:53:55.159130  4314 net.cpp:135] Setting up relu3_1
I0821 16:53:55.159216  4314 net.cpp:142] Top shape: 128 256 14 12 (5505024)
I0821 16:53:55.159242  4314 net.cpp:150] Memory required for data: 4508616192
I0821 16:53:55.159286  4314 layer_factory.hpp:77] Creating layer conv3_1_relu3_1_0_split
I0821 16:53:55.159322  4314 net.cpp:88] Creating Layer conv3_1_relu3_1_0_split
I0821 16:53:55.159343  4314 net.cpp:440] conv3_1_relu3_1_0_split <- conv3_1
I0821 16:53:55.159363  4314 net.cpp:414] conv3_1_relu3_1_0_split -> conv3_1_relu3_1_0_split_0
I0821 16:53:55.159404  4314 net.cpp:414] conv3_1_relu3_1_0_split -> conv3_1_relu3_1_0_split_1
I0821 16:53:55.159466  4314 net.cpp:135] Setting up conv3_1_relu3_1_0_split
I0821 16:53:55.159474  4314 net.cpp:142] Top shape: 128 256 14 12 (5505024)
I0821 16:53:55.159481  4314 net.cpp:142] Top shape: 128 256 14 12 (5505024)
I0821 16:53:55.159485  4314 net.cpp:150] Memory required for data: 4552656384
I0821 16:53:55.159490  4314 layer_factory.hpp:77] Creating layer conv3_2
I0821 16:53:55.159504  4314 net.cpp:88] Creating Layer conv3_2
I0821 16:53:55.159512  4314 net.cpp:440] conv3_2 <- conv3_1_relu3_1_0_split_0
I0821 16:53:55.159521  4314 net.cpp:414] conv3_2 -> conv3_2
I0821 16:53:55.190461  4314 net.cpp:135] Setting up conv3_2
I0821 16:53:55.190675  4314 net.cpp:142] Top shape: 128 256 14 12 (5505024)
I0821 16:53:55.190701  4314 net.cpp:150] Memory required for data: 4574676480
I0821 16:53:55.190755  4314 layer_factory.hpp:77] Creating layer bn3_2
I0821 16:53:55.190805  4314 net.cpp:88] Creating Layer bn3_2
I0821 16:53:55.190827  4314 net.cpp:440] bn3_2 <- conv3_2
I0821 16:53:55.190868  4314 net.cpp:401] bn3_2 -> conv3_2 (in-place)
I0821 16:53:55.191635  4314 net.cpp:135] Setting up bn3_2
I0821 16:53:55.191738  4314 net.cpp:142] Top shape: 128 256 14 12 (5505024)
I0821 16:53:55.191758  4314 net.cpp:150] Memory required for data: 4596696576
I0821 16:53:55.191812  4314 layer_factory.hpp:77] Creating layer scale_conv3_2
I0821 16:53:55.191854  4314 net.cpp:88] Creating Layer scale_conv3_2
I0821 16:53:55.191869  4314 net.cpp:440] scale_conv3_2 <- conv3_2
I0821 16:53:55.191895  4314 net.cpp:401] scale_conv3_2 -> conv3_2 (in-place)
I0821 16:53:55.192149  4314 layer_factory.hpp:77] Creating layer scale_conv3_2
I0821 16:53:55.192746  4314 net.cpp:135] Setting up scale_conv3_2
I0821 16:53:55.192842  4314 net.cpp:142] Top shape: 128 256 14 12 (5505024)
I0821 16:53:55.192858  4314 net.cpp:150] Memory required for data: 4618716672
I0821 16:53:55.192895  4314 layer_factory.hpp:77] Creating layer relu3_2
I0821 16:53:55.192914  4314 net.cpp:88] Creating Layer relu3_2
I0821 16:53:55.192919  4314 net.cpp:440] relu3_2 <- conv3_2
I0821 16:53:55.192925  4314 net.cpp:401] relu3_2 -> conv3_2 (in-place)
I0821 16:53:55.193662  4314 net.cpp:135] Setting up relu3_2
I0821 16:53:55.193783  4314 net.cpp:142] Top shape: 128 256 14 12 (5505024)
I0821 16:53:55.193809  4314 net.cpp:150] Memory required for data: 4640736768
I0821 16:53:55.193853  4314 layer_factory.hpp:77] Creating layer conv3_3
I0821 16:53:55.193930  4314 net.cpp:88] Creating Layer conv3_3
I0821 16:53:55.193958  4314 net.cpp:440] conv3_3 <- conv3_2
I0821 16:53:55.193995  4314 net.cpp:414] conv3_3 -> conv3_3
I0821 16:53:55.225476  4314 net.cpp:135] Setting up conv3_3
I0821 16:53:55.225518  4314 net.cpp:142] Top shape: 128 256 14 12 (5505024)
I0821 16:53:55.225528  4314 net.cpp:150] Memory required for data: 4662756864
I0821 16:53:55.225569  4314 layer_factory.hpp:77] Creating layer bn3_3
I0821 16:53:55.225607  4314 net.cpp:88] Creating Layer bn3_3
I0821 16:53:55.225625  4314 net.cpp:440] bn3_3 <- conv3_3
I0821 16:53:55.225651  4314 net.cpp:401] bn3_3 -> conv3_3 (in-place)
I0821 16:53:55.225931  4314 net.cpp:135] Setting up bn3_3
I0821 16:53:55.225947  4314 net.cpp:142] Top shape: 128 256 14 12 (5505024)
I0821 16:53:55.225956  4314 net.cpp:150] Memory required for data: 4684776960
I0821 16:53:55.225980  4314 layer_factory.hpp:77] Creating layer scale_conv3_3
I0821 16:53:55.226016  4314 net.cpp:88] Creating Layer scale_conv3_3
I0821 16:53:55.226037  4314 net.cpp:440] scale_conv3_3 <- conv3_3
I0821 16:53:55.226049  4314 net.cpp:401] scale_conv3_3 -> conv3_3 (in-place)
I0821 16:53:55.226116  4314 layer_factory.hpp:77] Creating layer scale_conv3_3
I0821 16:53:55.226284  4314 net.cpp:135] Setting up scale_conv3_3
I0821 16:53:55.226300  4314 net.cpp:142] Top shape: 128 256 14 12 (5505024)
I0821 16:53:55.226307  4314 net.cpp:150] Memory required for data: 4706797056
I0821 16:53:55.226322  4314 layer_factory.hpp:77] Creating layer relu3_3
I0821 16:53:55.226337  4314 net.cpp:88] Creating Layer relu3_3
I0821 16:53:55.226347  4314 net.cpp:440] relu3_3 <- conv3_3
I0821 16:53:55.226362  4314 net.cpp:401] relu3_3 -> conv3_3 (in-place)
I0821 16:53:55.227315  4314 net.cpp:135] Setting up relu3_3
I0821 16:53:55.227335  4314 net.cpp:142] Top shape: 128 256 14 12 (5505024)
I0821 16:53:55.227344  4314 net.cpp:150] Memory required for data: 4728817152
I0821 16:53:55.227357  4314 layer_factory.hpp:77] Creating layer res3_3
I0821 16:53:55.227378  4314 net.cpp:88] Creating Layer res3_3
I0821 16:53:55.227389  4314 net.cpp:440] res3_3 <- conv3_1_relu3_1_0_split_1
I0821 16:53:55.227401  4314 net.cpp:440] res3_3 <- conv3_3
I0821 16:53:55.227414  4314 net.cpp:414] res3_3 -> res3_3
I0821 16:53:55.227461  4314 net.cpp:135] Setting up res3_3
I0821 16:53:55.227475  4314 net.cpp:142] Top shape: 128 256 14 12 (5505024)
I0821 16:53:55.227484  4314 net.cpp:150] Memory required for data: 4750837248
I0821 16:53:55.227494  4314 layer_factory.hpp:77] Creating layer res3_3_res3_3_0_split
I0821 16:53:55.227507  4314 net.cpp:88] Creating Layer res3_3_res3_3_0_split
I0821 16:53:55.227517  4314 net.cpp:440] res3_3_res3_3_0_split <- res3_3
I0821 16:53:55.227533  4314 net.cpp:414] res3_3_res3_3_0_split -> res3_3_res3_3_0_split_0
I0821 16:53:55.227547  4314 net.cpp:414] res3_3_res3_3_0_split -> res3_3_res3_3_0_split_1
I0821 16:53:55.227610  4314 net.cpp:135] Setting up res3_3_res3_3_0_split
I0821 16:53:55.227624  4314 net.cpp:142] Top shape: 128 256 14 12 (5505024)
I0821 16:53:55.227635  4314 net.cpp:142] Top shape: 128 256 14 12 (5505024)
I0821 16:53:55.227643  4314 net.cpp:150] Memory required for data: 4794877440
I0821 16:53:55.227654  4314 layer_factory.hpp:77] Creating layer conv3_4
I0821 16:53:55.227680  4314 net.cpp:88] Creating Layer conv3_4
I0821 16:53:55.227692  4314 net.cpp:440] conv3_4 <- res3_3_res3_3_0_split_0
I0821 16:53:55.227707  4314 net.cpp:414] conv3_4 -> conv3_4
I0821 16:53:55.261291  4314 net.cpp:135] Setting up conv3_4
I0821 16:53:55.261323  4314 net.cpp:142] Top shape: 128 256 14 12 (5505024)
I0821 16:53:55.261333  4314 net.cpp:150] Memory required for data: 4816897536
I0821 16:53:55.261353  4314 layer_factory.hpp:77] Creating layer bn3_4
I0821 16:53:55.261373  4314 net.cpp:88] Creating Layer bn3_4
I0821 16:53:55.261385  4314 net.cpp:440] bn3_4 <- conv3_4
I0821 16:53:55.261399  4314 net.cpp:401] bn3_4 -> conv3_4 (in-place)
I0821 16:53:55.261679  4314 net.cpp:135] Setting up bn3_4
I0821 16:53:55.261695  4314 net.cpp:142] Top shape: 128 256 14 12 (5505024)
I0821 16:53:55.261705  4314 net.cpp:150] Memory required for data: 4838917632
I0821 16:53:55.261726  4314 layer_factory.hpp:77] Creating layer scale_conv3_4
I0821 16:53:55.261754  4314 net.cpp:88] Creating Layer scale_conv3_4
I0821 16:53:55.261768  4314 net.cpp:440] scale_conv3_4 <- conv3_4
I0821 16:53:55.261781  4314 net.cpp:401] scale_conv3_4 -> conv3_4 (in-place)
I0821 16:53:55.261854  4314 layer_factory.hpp:77] Creating layer scale_conv3_4
I0821 16:53:55.262025  4314 net.cpp:135] Setting up scale_conv3_4
I0821 16:53:55.262040  4314 net.cpp:142] Top shape: 128 256 14 12 (5505024)
I0821 16:53:55.262048  4314 net.cpp:150] Memory required for data: 4860937728
I0821 16:53:55.262063  4314 layer_factory.hpp:77] Creating layer relu3_4
I0821 16:53:55.262079  4314 net.cpp:88] Creating Layer relu3_4
I0821 16:53:55.262089  4314 net.cpp:440] relu3_4 <- conv3_4
I0821 16:53:55.262104  4314 net.cpp:401] relu3_4 -> conv3_4 (in-place)
I0821 16:53:55.262305  4314 net.cpp:135] Setting up relu3_4
I0821 16:53:55.262320  4314 net.cpp:142] Top shape: 128 256 14 12 (5505024)
I0821 16:53:55.262329  4314 net.cpp:150] Memory required for data: 4882957824
I0821 16:53:55.262341  4314 layer_factory.hpp:77] Creating layer conv3_5
I0821 16:53:55.262361  4314 net.cpp:88] Creating Layer conv3_5
I0821 16:53:55.262373  4314 net.cpp:440] conv3_5 <- conv3_4
I0821 16:53:55.262392  4314 net.cpp:414] conv3_5 -> conv3_5
I0821 16:53:55.295106  4314 net.cpp:135] Setting up conv3_5
I0821 16:53:55.295146  4314 net.cpp:142] Top shape: 128 256 14 12 (5505024)
I0821 16:53:55.295156  4314 net.cpp:150] Memory required for data: 4904977920
I0821 16:53:55.295179  4314 layer_factory.hpp:77] Creating layer bn3_5
I0821 16:53:55.295199  4314 net.cpp:88] Creating Layer bn3_5
I0821 16:53:55.295212  4314 net.cpp:440] bn3_5 <- conv3_5
I0821 16:53:55.295228  4314 net.cpp:401] bn3_5 -> conv3_5 (in-place)
I0821 16:53:55.295943  4314 net.cpp:135] Setting up bn3_5
I0821 16:53:55.296082  4314 net.cpp:142] Top shape: 128 256 14 12 (5505024)
I0821 16:53:55.296103  4314 net.cpp:150] Memory required for data: 4926998016
I0821 16:53:55.296178  4314 layer_factory.hpp:77] Creating layer scale_conv3_5
I0821 16:53:55.296319  4314 net.cpp:88] Creating Layer scale_conv3_5
I0821 16:53:55.296370  4314 net.cpp:440] scale_conv3_5 <- conv3_5
I0821 16:53:55.296402  4314 net.cpp:401] scale_conv3_5 -> conv3_5 (in-place)
I0821 16:53:55.296984  4314 layer_factory.hpp:77] Creating layer scale_conv3_5
I0821 16:53:55.298125  4314 net.cpp:135] Setting up scale_conv3_5
I0821 16:53:55.298146  4314 net.cpp:142] Top shape: 128 256 14 12 (5505024)
I0821 16:53:55.298156  4314 net.cpp:150] Memory required for data: 4949018112
I0821 16:53:55.298173  4314 layer_factory.hpp:77] Creating layer relu3_5
I0821 16:53:55.298187  4314 net.cpp:88] Creating Layer relu3_5
I0821 16:53:55.298197  4314 net.cpp:440] relu3_5 <- conv3_5
I0821 16:53:55.298213  4314 net.cpp:401] relu3_5 -> conv3_5 (in-place)
I0821 16:53:55.299196  4314 net.cpp:135] Setting up relu3_5
I0821 16:53:55.299321  4314 net.cpp:142] Top shape: 128 256 14 12 (5505024)
I0821 16:53:55.299355  4314 net.cpp:150] Memory required for data: 4971038208
I0821 16:53:55.299424  4314 layer_factory.hpp:77] Creating layer res3_5
I0821 16:53:55.299523  4314 net.cpp:88] Creating Layer res3_5
I0821 16:53:55.299582  4314 net.cpp:440] res3_5 <- res3_3_res3_3_0_split_1
I0821 16:53:55.299643  4314 net.cpp:440] res3_5 <- conv3_5
I0821 16:53:55.299655  4314 net.cpp:414] res3_5 -> res3_5
I0821 16:53:55.299707  4314 net.cpp:135] Setting up res3_5
I0821 16:53:55.299722  4314 net.cpp:142] Top shape: 128 256 14 12 (5505024)
I0821 16:53:55.299731  4314 net.cpp:150] Memory required for data: 4993058304
I0821 16:53:55.299739  4314 layer_factory.hpp:77] Creating layer res3_5_res3_5_0_split
I0821 16:53:55.299752  4314 net.cpp:88] Creating Layer res3_5_res3_5_0_split
I0821 16:53:55.299762  4314 net.cpp:440] res3_5_res3_5_0_split <- res3_5
I0821 16:53:55.299773  4314 net.cpp:414] res3_5_res3_5_0_split -> res3_5_res3_5_0_split_0
I0821 16:53:55.299787  4314 net.cpp:414] res3_5_res3_5_0_split -> res3_5_res3_5_0_split_1
I0821 16:53:55.299856  4314 net.cpp:135] Setting up res3_5_res3_5_0_split
I0821 16:53:55.299948  4314 net.cpp:142] Top shape: 128 256 14 12 (5505024)
I0821 16:53:55.299984  4314 net.cpp:142] Top shape: 128 256 14 12 (5505024)
I0821 16:53:55.300016  4314 net.cpp:150] Memory required for data: 5037098496
I0821 16:53:55.300066  4314 layer_factory.hpp:77] Creating layer conv3_6
I0821 16:53:55.300201  4314 net.cpp:88] Creating Layer conv3_6
I0821 16:53:55.300287  4314 net.cpp:440] conv3_6 <- res3_5_res3_5_0_split_0
I0821 16:53:55.300418  4314 net.cpp:414] conv3_6 -> conv3_6
I0821 16:53:55.345495  4314 net.cpp:135] Setting up conv3_6
I0821 16:53:55.345535  4314 net.cpp:142] Top shape: 128 256 14 12 (5505024)
I0821 16:53:55.345541  4314 net.cpp:150] Memory required for data: 5059118592
I0821 16:53:55.345561  4314 layer_factory.hpp:77] Creating layer bn3_6
I0821 16:53:55.345574  4314 net.cpp:88] Creating Layer bn3_6
I0821 16:53:55.345674  4314 net.cpp:440] bn3_6 <- conv3_6
I0821 16:53:55.345729  4314 net.cpp:401] bn3_6 -> conv3_6 (in-place)
I0821 16:53:55.346808  4314 net.cpp:135] Setting up bn3_6
I0821 16:53:55.346940  4314 net.cpp:142] Top shape: 128 256 14 12 (5505024)
I0821 16:53:55.346952  4314 net.cpp:150] Memory required for data: 5081138688
I0821 16:53:55.346998  4314 layer_factory.hpp:77] Creating layer scale_conv3_6
I0821 16:53:55.347010  4314 net.cpp:88] Creating Layer scale_conv3_6
I0821 16:53:55.347016  4314 net.cpp:440] scale_conv3_6 <- conv3_6
I0821 16:53:55.347023  4314 net.cpp:401] scale_conv3_6 -> conv3_6 (in-place)
I0821 16:53:55.347074  4314 layer_factory.hpp:77] Creating layer scale_conv3_6
I0821 16:53:55.347229  4314 net.cpp:135] Setting up scale_conv3_6
I0821 16:53:55.347239  4314 net.cpp:142] Top shape: 128 256 14 12 (5505024)
I0821 16:53:55.347252  4314 net.cpp:150] Memory required for data: 5103158784
I0821 16:53:55.347286  4314 layer_factory.hpp:77] Creating layer relu3_6
I0821 16:53:55.347354  4314 net.cpp:88] Creating Layer relu3_6
I0821 16:53:55.347379  4314 net.cpp:440] relu3_6 <- conv3_6
I0821 16:53:55.347404  4314 net.cpp:401] relu3_6 -> conv3_6 (in-place)
I0821 16:53:55.348300  4314 net.cpp:135] Setting up relu3_6
I0821 16:53:55.348397  4314 net.cpp:142] Top shape: 128 256 14 12 (5505024)
I0821 16:53:55.348407  4314 net.cpp:150] Memory required for data: 5125178880
I0821 16:53:55.348433  4314 layer_factory.hpp:77] Creating layer conv3_7
I0821 16:53:55.348562  4314 net.cpp:88] Creating Layer conv3_7
I0821 16:53:55.348615  4314 net.cpp:440] conv3_7 <- conv3_6
I0821 16:53:55.348639  4314 net.cpp:414] conv3_7 -> conv3_7
I0821 16:53:55.380815  4314 net.cpp:135] Setting up conv3_7
I0821 16:53:55.380899  4314 net.cpp:142] Top shape: 128 256 14 12 (5505024)
I0821 16:53:55.380933  4314 net.cpp:150] Memory required for data: 5147198976
I0821 16:53:55.380975  4314 layer_factory.hpp:77] Creating layer bn3_7
I0821 16:53:55.381014  4314 net.cpp:88] Creating Layer bn3_7
I0821 16:53:55.381048  4314 net.cpp:440] bn3_7 <- conv3_7
I0821 16:53:55.381086  4314 net.cpp:401] bn3_7 -> conv3_7 (in-place)
I0821 16:53:55.381521  4314 net.cpp:135] Setting up bn3_7
I0821 16:53:55.381568  4314 net.cpp:142] Top shape: 128 256 14 12 (5505024)
I0821 16:53:55.381598  4314 net.cpp:150] Memory required for data: 5169219072
I0821 16:53:55.381635  4314 layer_factory.hpp:77] Creating layer scale_conv3_7
I0821 16:53:55.381675  4314 net.cpp:88] Creating Layer scale_conv3_7
I0821 16:53:55.381690  4314 net.cpp:440] scale_conv3_7 <- conv3_7
I0821 16:53:55.381700  4314 net.cpp:401] scale_conv3_7 -> conv3_7 (in-place)
I0821 16:53:55.381762  4314 layer_factory.hpp:77] Creating layer scale_conv3_7
I0821 16:53:55.381929  4314 net.cpp:135] Setting up scale_conv3_7
I0821 16:53:55.381942  4314 net.cpp:142] Top shape: 128 256 14 12 (5505024)
I0821 16:53:55.381947  4314 net.cpp:150] Memory required for data: 5191239168
I0821 16:53:55.381956  4314 layer_factory.hpp:77] Creating layer relu3_7
I0821 16:53:55.381965  4314 net.cpp:88] Creating Layer relu3_7
I0821 16:53:55.381970  4314 net.cpp:440] relu3_7 <- conv3_7
I0821 16:53:55.381979  4314 net.cpp:401] relu3_7 -> conv3_7 (in-place)
I0821 16:53:55.382171  4314 net.cpp:135] Setting up relu3_7
I0821 16:53:55.382217  4314 net.cpp:142] Top shape: 128 256 14 12 (5505024)
I0821 16:53:55.382246  4314 net.cpp:150] Memory required for data: 5213259264
I0821 16:53:55.382277  4314 layer_factory.hpp:77] Creating layer res3_7
I0821 16:53:55.382313  4314 net.cpp:88] Creating Layer res3_7
I0821 16:53:55.382344  4314 net.cpp:440] res3_7 <- res3_5_res3_5_0_split_1
I0821 16:53:55.382376  4314 net.cpp:440] res3_7 <- conv3_7
I0821 16:53:55.382408  4314 net.cpp:414] res3_7 -> res3_7
I0821 16:53:55.382484  4314 net.cpp:135] Setting up res3_7
I0821 16:53:55.382520  4314 net.cpp:142] Top shape: 128 256 14 12 (5505024)
I0821 16:53:55.382546  4314 net.cpp:150] Memory required for data: 5235279360
I0821 16:53:55.382575  4314 layer_factory.hpp:77] Creating layer res3_7_res3_7_0_split
I0821 16:53:55.382616  4314 net.cpp:88] Creating Layer res3_7_res3_7_0_split
I0821 16:53:55.382660  4314 net.cpp:440] res3_7_res3_7_0_split <- res3_7
I0821 16:53:55.382695  4314 net.cpp:414] res3_7_res3_7_0_split -> res3_7_res3_7_0_split_0
I0821 16:53:55.382731  4314 net.cpp:414] res3_7_res3_7_0_split -> res3_7_res3_7_0_split_1
I0821 16:53:55.382830  4314 net.cpp:135] Setting up res3_7_res3_7_0_split
I0821 16:53:55.382867  4314 net.cpp:142] Top shape: 128 256 14 12 (5505024)
I0821 16:53:55.382896  4314 net.cpp:142] Top shape: 128 256 14 12 (5505024)
I0821 16:53:55.382922  4314 net.cpp:150] Memory required for data: 5279319552
I0821 16:53:55.382949  4314 layer_factory.hpp:77] Creating layer conv3_8
I0821 16:53:55.382997  4314 net.cpp:88] Creating Layer conv3_8
I0821 16:53:55.383028  4314 net.cpp:440] conv3_8 <- res3_7_res3_7_0_split_0
I0821 16:53:55.383061  4314 net.cpp:414] conv3_8 -> conv3_8
I0821 16:53:55.416775  4314 net.cpp:135] Setting up conv3_8
I0821 16:53:55.416805  4314 net.cpp:142] Top shape: 128 256 14 12 (5505024)
I0821 16:53:55.416811  4314 net.cpp:150] Memory required for data: 5301339648
I0821 16:53:55.416822  4314 layer_factory.hpp:77] Creating layer bn3_8
I0821 16:53:55.416836  4314 net.cpp:88] Creating Layer bn3_8
I0821 16:53:55.416842  4314 net.cpp:440] bn3_8 <- conv3_8
I0821 16:53:55.416851  4314 net.cpp:401] bn3_8 -> conv3_8 (in-place)
I0821 16:53:55.417126  4314 net.cpp:135] Setting up bn3_8
I0821 16:53:55.417138  4314 net.cpp:142] Top shape: 128 256 14 12 (5505024)
I0821 16:53:55.417143  4314 net.cpp:150] Memory required for data: 5323359744
I0821 16:53:55.417153  4314 layer_factory.hpp:77] Creating layer scale_conv3_8
I0821 16:53:55.417163  4314 net.cpp:88] Creating Layer scale_conv3_8
I0821 16:53:55.417170  4314 net.cpp:440] scale_conv3_8 <- conv3_8
I0821 16:53:55.417179  4314 net.cpp:401] scale_conv3_8 -> conv3_8 (in-place)
I0821 16:53:55.417253  4314 layer_factory.hpp:77] Creating layer scale_conv3_8
I0821 16:53:55.417409  4314 net.cpp:135] Setting up scale_conv3_8
I0821 16:53:55.417420  4314 net.cpp:142] Top shape: 128 256 14 12 (5505024)
I0821 16:53:55.417425  4314 net.cpp:150] Memory required for data: 5345379840
I0821 16:53:55.417435  4314 layer_factory.hpp:77] Creating layer relu3_8
I0821 16:53:55.417445  4314 net.cpp:88] Creating Layer relu3_8
I0821 16:53:55.417454  4314 net.cpp:440] relu3_8 <- conv3_8
I0821 16:53:55.417460  4314 net.cpp:401] relu3_8 -> conv3_8 (in-place)
I0821 16:53:55.417625  4314 net.cpp:135] Setting up relu3_8
I0821 16:53:55.417636  4314 net.cpp:142] Top shape: 128 256 14 12 (5505024)
I0821 16:53:55.417641  4314 net.cpp:150] Memory required for data: 5367399936
I0821 16:53:55.417649  4314 layer_factory.hpp:77] Creating layer conv3_9
I0821 16:53:55.417666  4314 net.cpp:88] Creating Layer conv3_9
I0821 16:53:55.417673  4314 net.cpp:440] conv3_9 <- conv3_8
I0821 16:53:55.417682  4314 net.cpp:414] conv3_9 -> conv3_9
I0821 16:53:55.446799  4314 net.cpp:135] Setting up conv3_9
I0821 16:53:55.446833  4314 net.cpp:142] Top shape: 128 256 14 12 (5505024)
I0821 16:53:55.446841  4314 net.cpp:150] Memory required for data: 5389420032
I0821 16:53:55.446853  4314 layer_factory.hpp:77] Creating layer bn3_9
I0821 16:53:55.446869  4314 net.cpp:88] Creating Layer bn3_9
I0821 16:53:55.446877  4314 net.cpp:440] bn3_9 <- conv3_9
I0821 16:53:55.446888  4314 net.cpp:401] bn3_9 -> conv3_9 (in-place)
I0821 16:53:55.447173  4314 net.cpp:135] Setting up bn3_9
I0821 16:53:55.447185  4314 net.cpp:142] Top shape: 128 256 14 12 (5505024)
I0821 16:53:55.447190  4314 net.cpp:150] Memory required for data: 5411440128
I0821 16:53:55.447201  4314 layer_factory.hpp:77] Creating layer scale_conv3_9
I0821 16:53:55.447216  4314 net.cpp:88] Creating Layer scale_conv3_9
I0821 16:53:55.447222  4314 net.cpp:440] scale_conv3_9 <- conv3_9
I0821 16:53:55.447229  4314 net.cpp:401] scale_conv3_9 -> conv3_9 (in-place)
I0821 16:53:55.447280  4314 layer_factory.hpp:77] Creating layer scale_conv3_9
I0821 16:53:55.447435  4314 net.cpp:135] Setting up scale_conv3_9
I0821 16:53:55.447448  4314 net.cpp:142] Top shape: 128 256 14 12 (5505024)
I0821 16:53:55.447453  4314 net.cpp:150] Memory required for data: 5433460224
I0821 16:53:55.447484  4314 layer_factory.hpp:77] Creating layer relu3_9
I0821 16:53:55.447495  4314 net.cpp:88] Creating Layer relu3_9
I0821 16:53:55.447500  4314 net.cpp:440] relu3_9 <- conv3_9
I0821 16:53:55.447507  4314 net.cpp:401] relu3_9 -> conv3_9 (in-place)
I0821 16:53:55.448714  4314 net.cpp:135] Setting up relu3_9
I0821 16:53:55.448729  4314 net.cpp:142] Top shape: 128 256 14 12 (5505024)
I0821 16:53:55.448735  4314 net.cpp:150] Memory required for data: 5455480320
I0821 16:53:55.448743  4314 layer_factory.hpp:77] Creating layer res3_9
I0821 16:53:55.448753  4314 net.cpp:88] Creating Layer res3_9
I0821 16:53:55.448760  4314 net.cpp:440] res3_9 <- res3_7_res3_7_0_split_1
I0821 16:53:55.448766  4314 net.cpp:440] res3_9 <- conv3_9
I0821 16:53:55.448776  4314 net.cpp:414] res3_9 -> res3_9
I0821 16:53:55.448815  4314 net.cpp:135] Setting up res3_9
I0821 16:53:55.448828  4314 net.cpp:142] Top shape: 128 256 14 12 (5505024)
I0821 16:53:55.448833  4314 net.cpp:150] Memory required for data: 5477500416
I0821 16:53:55.448838  4314 layer_factory.hpp:77] Creating layer res3_9_res3_9_0_split
I0821 16:53:55.448846  4314 net.cpp:88] Creating Layer res3_9_res3_9_0_split
I0821 16:53:55.448851  4314 net.cpp:440] res3_9_res3_9_0_split <- res3_9
I0821 16:53:55.448858  4314 net.cpp:414] res3_9_res3_9_0_split -> res3_9_res3_9_0_split_0
I0821 16:53:55.448866  4314 net.cpp:414] res3_9_res3_9_0_split -> res3_9_res3_9_0_split_1
I0821 16:53:55.448920  4314 net.cpp:135] Setting up res3_9_res3_9_0_split
I0821 16:53:55.448930  4314 net.cpp:142] Top shape: 128 256 14 12 (5505024)
I0821 16:53:55.448935  4314 net.cpp:142] Top shape: 128 256 14 12 (5505024)
I0821 16:53:55.448940  4314 net.cpp:150] Memory required for data: 5521540608
I0821 16:53:55.448945  4314 layer_factory.hpp:77] Creating layer conv3_10
I0821 16:53:55.448961  4314 net.cpp:88] Creating Layer conv3_10
I0821 16:53:55.448966  4314 net.cpp:440] conv3_10 <- res3_9_res3_9_0_split_0
I0821 16:53:55.448976  4314 net.cpp:414] conv3_10 -> conv3_10
I0821 16:53:55.476066  4314 net.cpp:135] Setting up conv3_10
I0821 16:53:55.476089  4314 net.cpp:142] Top shape: 128 256 14 12 (5505024)
I0821 16:53:55.476094  4314 net.cpp:150] Memory required for data: 5543560704
I0821 16:53:55.476106  4314 layer_factory.hpp:77] Creating layer bn3_10
I0821 16:53:55.476119  4314 net.cpp:88] Creating Layer bn3_10
I0821 16:53:55.476125  4314 net.cpp:440] bn3_10 <- conv3_10
I0821 16:53:55.476135  4314 net.cpp:401] bn3_10 -> conv3_10 (in-place)
I0821 16:53:55.476418  4314 net.cpp:135] Setting up bn3_10
I0821 16:53:55.476428  4314 net.cpp:142] Top shape: 128 256 14 12 (5505024)
I0821 16:53:55.476433  4314 net.cpp:150] Memory required for data: 5565580800
I0821 16:53:55.476444  4314 layer_factory.hpp:77] Creating layer scale_conv3_10
I0821 16:53:55.476454  4314 net.cpp:88] Creating Layer scale_conv3_10
I0821 16:53:55.476459  4314 net.cpp:440] scale_conv3_10 <- conv3_10
I0821 16:53:55.476469  4314 net.cpp:401] scale_conv3_10 -> conv3_10 (in-place)
I0821 16:53:55.476524  4314 layer_factory.hpp:77] Creating layer scale_conv3_10
I0821 16:53:55.476686  4314 net.cpp:135] Setting up scale_conv3_10
I0821 16:53:55.476697  4314 net.cpp:142] Top shape: 128 256 14 12 (5505024)
I0821 16:53:55.476702  4314 net.cpp:150] Memory required for data: 5587600896
I0821 16:53:55.476711  4314 layer_factory.hpp:77] Creating layer relu3_10
I0821 16:53:55.476722  4314 net.cpp:88] Creating Layer relu3_10
I0821 16:53:55.476727  4314 net.cpp:440] relu3_10 <- conv3_10
I0821 16:53:55.476733  4314 net.cpp:401] relu3_10 -> conv3_10 (in-place)
I0821 16:53:55.476886  4314 net.cpp:135] Setting up relu3_10
I0821 16:53:55.476897  4314 net.cpp:142] Top shape: 128 256 14 12 (5505024)
I0821 16:53:55.476902  4314 net.cpp:150] Memory required for data: 5609620992
I0821 16:53:55.476908  4314 layer_factory.hpp:77] Creating layer conv3_11
I0821 16:53:55.476925  4314 net.cpp:88] Creating Layer conv3_11
I0821 16:53:55.476930  4314 net.cpp:440] conv3_11 <- conv3_10
I0821 16:53:55.476939  4314 net.cpp:414] conv3_11 -> conv3_11
I0821 16:53:55.517908  4314 net.cpp:135] Setting up conv3_11
I0821 16:53:55.517948  4314 net.cpp:142] Top shape: 128 256 14 12 (5505024)
I0821 16:53:55.517956  4314 net.cpp:150] Memory required for data: 5631641088
I0821 16:53:55.517971  4314 layer_factory.hpp:77] Creating layer bn3_11
I0821 16:53:55.517988  4314 net.cpp:88] Creating Layer bn3_11
I0821 16:53:55.517997  4314 net.cpp:440] bn3_11 <- conv3_11
I0821 16:53:55.518008  4314 net.cpp:401] bn3_11 -> conv3_11 (in-place)
I0821 16:53:55.518311  4314 net.cpp:135] Setting up bn3_11
I0821 16:53:55.518323  4314 net.cpp:142] Top shape: 128 256 14 12 (5505024)
I0821 16:53:55.518329  4314 net.cpp:150] Memory required for data: 5653661184
I0821 16:53:55.518340  4314 layer_factory.hpp:77] Creating layer scale_conv3_11
I0821 16:53:55.518350  4314 net.cpp:88] Creating Layer scale_conv3_11
I0821 16:53:55.518357  4314 net.cpp:440] scale_conv3_11 <- conv3_11
I0821 16:53:55.518366  4314 net.cpp:401] scale_conv3_11 -> conv3_11 (in-place)
I0821 16:53:55.518421  4314 layer_factory.hpp:77] Creating layer scale_conv3_11
I0821 16:53:55.518584  4314 net.cpp:135] Setting up scale_conv3_11
I0821 16:53:55.518595  4314 net.cpp:142] Top shape: 128 256 14 12 (5505024)
I0821 16:53:55.518600  4314 net.cpp:150] Memory required for data: 5675681280
I0821 16:53:55.518610  4314 layer_factory.hpp:77] Creating layer relu3_11
I0821 16:53:55.518620  4314 net.cpp:88] Creating Layer relu3_11
I0821 16:53:55.518628  4314 net.cpp:440] relu3_11 <- conv3_11
I0821 16:53:55.518635  4314 net.cpp:401] relu3_11 -> conv3_11 (in-place)
I0821 16:53:55.518826  4314 net.cpp:135] Setting up relu3_11
I0821 16:53:55.518837  4314 net.cpp:142] Top shape: 128 256 14 12 (5505024)
I0821 16:53:55.518842  4314 net.cpp:150] Memory required for data: 5697701376
I0821 16:53:55.518852  4314 layer_factory.hpp:77] Creating layer res3_11
I0821 16:53:55.518885  4314 net.cpp:88] Creating Layer res3_11
I0821 16:53:55.518893  4314 net.cpp:440] res3_11 <- res3_9_res3_9_0_split_1
I0821 16:53:55.518900  4314 net.cpp:440] res3_11 <- conv3_11
I0821 16:53:55.518908  4314 net.cpp:414] res3_11 -> res3_11
I0821 16:53:55.518949  4314 net.cpp:135] Setting up res3_11
I0821 16:53:55.518960  4314 net.cpp:142] Top shape: 128 256 14 12 (5505024)
I0821 16:53:55.518965  4314 net.cpp:150] Memory required for data: 5719721472
I0821 16:53:55.518970  4314 layer_factory.hpp:77] Creating layer res3_11_res3_11_0_split
I0821 16:53:55.518981  4314 net.cpp:88] Creating Layer res3_11_res3_11_0_split
I0821 16:53:55.518988  4314 net.cpp:440] res3_11_res3_11_0_split <- res3_11
I0821 16:53:55.518996  4314 net.cpp:414] res3_11_res3_11_0_split -> res3_11_res3_11_0_split_0
I0821 16:53:55.519003  4314 net.cpp:414] res3_11_res3_11_0_split -> res3_11_res3_11_0_split_1
I0821 16:53:55.519059  4314 net.cpp:135] Setting up res3_11_res3_11_0_split
I0821 16:53:55.519068  4314 net.cpp:142] Top shape: 128 256 14 12 (5505024)
I0821 16:53:55.519075  4314 net.cpp:142] Top shape: 128 256 14 12 (5505024)
I0821 16:53:55.519079  4314 net.cpp:150] Memory required for data: 5763761664
I0821 16:53:55.519084  4314 layer_factory.hpp:77] Creating layer conv3_12
I0821 16:53:55.519099  4314 net.cpp:88] Creating Layer conv3_12
I0821 16:53:55.519107  4314 net.cpp:440] conv3_12 <- res3_11_res3_11_0_split_0
I0821 16:53:55.519119  4314 net.cpp:414] conv3_12 -> conv3_12
I0821 16:53:55.560344  4314 net.cpp:135] Setting up conv3_12
I0821 16:53:55.560387  4314 net.cpp:142] Top shape: 128 256 14 12 (5505024)
I0821 16:53:55.560395  4314 net.cpp:150] Memory required for data: 5785781760
I0821 16:53:55.560410  4314 layer_factory.hpp:77] Creating layer bn3_12
I0821 16:53:55.560429  4314 net.cpp:88] Creating Layer bn3_12
I0821 16:53:55.560438  4314 net.cpp:440] bn3_12 <- conv3_12
I0821 16:53:55.560448  4314 net.cpp:401] bn3_12 -> conv3_12 (in-place)
I0821 16:53:55.561290  4314 net.cpp:135] Setting up bn3_12
I0821 16:53:55.561691  4314 net.cpp:142] Top shape: 128 256 14 12 (5505024)
I0821 16:53:55.561702  4314 net.cpp:150] Memory required for data: 5807801856
I0821 16:53:55.562088  4314 layer_factory.hpp:77] Creating layer scale_conv3_12
I0821 16:53:55.562135  4314 net.cpp:88] Creating Layer scale_conv3_12
I0821 16:53:55.562144  4314 net.cpp:440] scale_conv3_12 <- conv3_12
I0821 16:53:55.562151  4314 net.cpp:401] scale_conv3_12 -> conv3_12 (in-place)
I0821 16:53:55.562669  4314 layer_factory.hpp:77] Creating layer scale_conv3_12
I0821 16:53:55.563840  4314 net.cpp:135] Setting up scale_conv3_12
I0821 16:53:55.564055  4314 net.cpp:142] Top shape: 128 256 14 12 (5505024)
I0821 16:53:55.564112  4314 net.cpp:150] Memory required for data: 5829821952
I0821 16:53:55.564199  4314 layer_factory.hpp:77] Creating layer relu3_12
I0821 16:53:55.564440  4314 net.cpp:88] Creating Layer relu3_12
I0821 16:53:55.564560  4314 net.cpp:440] relu3_12 <- conv3_12
I0821 16:53:55.564652  4314 net.cpp:401] relu3_12 -> conv3_12 (in-place)
I0821 16:53:55.565848  4314 net.cpp:135] Setting up relu3_12
I0821 16:53:55.566201  4314 net.cpp:142] Top shape: 128 256 14 12 (5505024)
I0821 16:53:55.566242  4314 net.cpp:150] Memory required for data: 5851842048
I0821 16:53:55.566331  4314 layer_factory.hpp:77] Creating layer conv3_13
I0821 16:53:55.566588  4314 net.cpp:88] Creating Layer conv3_13
I0821 16:53:55.566645  4314 net.cpp:440] conv3_13 <- conv3_12
I0821 16:53:55.566658  4314 net.cpp:414] conv3_13 -> conv3_13
I0821 16:53:55.610215  4314 net.cpp:135] Setting up conv3_13
I0821 16:53:55.610427  4314 net.cpp:142] Top shape: 128 256 14 12 (5505024)
I0821 16:53:55.610481  4314 net.cpp:150] Memory required for data: 5873862144
I0821 16:53:55.610651  4314 layer_factory.hpp:77] Creating layer bn3_13
I0821 16:53:55.611135  4314 net.cpp:88] Creating Layer bn3_13
I0821 16:53:55.611204  4314 net.cpp:440] bn3_13 <- conv3_13
I0821 16:53:55.611222  4314 net.cpp:401] bn3_13 -> conv3_13 (in-place)
I0821 16:53:55.612748  4314 net.cpp:135] Setting up bn3_13
I0821 16:53:55.612761  4314 net.cpp:142] Top shape: 128 256 14 12 (5505024)
I0821 16:53:55.612766  4314 net.cpp:150] Memory required for data: 5895882240
I0821 16:53:55.612790  4314 layer_factory.hpp:77] Creating layer scale_conv3_13
I0821 16:53:55.612803  4314 net.cpp:88] Creating Layer scale_conv3_13
I0821 16:53:55.612809  4314 net.cpp:440] scale_conv3_13 <- conv3_13
I0821 16:53:55.612817  4314 net.cpp:401] scale_conv3_13 -> conv3_13 (in-place)
I0821 16:53:55.613018  4314 layer_factory.hpp:77] Creating layer scale_conv3_13
I0821 16:53:55.614365  4314 net.cpp:135] Setting up scale_conv3_13
I0821 16:53:55.614379  4314 net.cpp:142] Top shape: 128 256 14 12 (5505024)
I0821 16:53:55.614385  4314 net.cpp:150] Memory required for data: 5917902336
I0821 16:53:55.614395  4314 layer_factory.hpp:77] Creating layer relu3_13
I0821 16:53:55.614496  4314 net.cpp:88] Creating Layer relu3_13
I0821 16:53:55.614651  4314 net.cpp:440] relu3_13 <- conv3_13
I0821 16:53:55.614795  4314 net.cpp:401] relu3_13 -> conv3_13 (in-place)
I0821 16:53:55.615929  4314 net.cpp:135] Setting up relu3_13
I0821 16:53:55.615942  4314 net.cpp:142] Top shape: 128 256 14 12 (5505024)
I0821 16:53:55.615954  4314 net.cpp:150] Memory required for data: 5939922432
I0821 16:53:55.615962  4314 layer_factory.hpp:77] Creating layer res3_13
I0821 16:53:55.615983  4314 net.cpp:88] Creating Layer res3_13
I0821 16:53:55.615993  4314 net.cpp:440] res3_13 <- res3_11_res3_11_0_split_1
I0821 16:53:55.616000  4314 net.cpp:440] res3_13 <- conv3_13
I0821 16:53:55.616009  4314 net.cpp:414] res3_13 -> res3_13
I0821 16:53:55.616053  4314 net.cpp:135] Setting up res3_13
I0821 16:53:55.616063  4314 net.cpp:142] Top shape: 128 256 14 12 (5505024)
I0821 16:53:55.616094  4314 net.cpp:150] Memory required for data: 5961942528
I0821 16:53:55.616147  4314 layer_factory.hpp:77] Creating layer res3_13_res3_13_0_split
I0821 16:53:55.616253  4314 net.cpp:88] Creating Layer res3_13_res3_13_0_split
I0821 16:53:55.616314  4314 net.cpp:440] res3_13_res3_13_0_split <- res3_13
I0821 16:53:55.616410  4314 net.cpp:414] res3_13_res3_13_0_split -> res3_13_res3_13_0_split_0
I0821 16:53:55.616554  4314 net.cpp:414] res3_13_res3_13_0_split -> res3_13_res3_13_0_split_1
I0821 16:53:55.617799  4314 net.cpp:135] Setting up res3_13_res3_13_0_split
I0821 16:53:55.618489  4314 net.cpp:142] Top shape: 128 256 14 12 (5505024)
I0821 16:53:55.618592  4314 net.cpp:142] Top shape: 128 256 14 12 (5505024)
I0821 16:53:55.618628  4314 net.cpp:150] Memory required for data: 6005982720
I0821 16:53:55.618872  4314 layer_factory.hpp:77] Creating layer conv3_14
I0821 16:53:55.618892  4314 net.cpp:88] Creating Layer conv3_14
I0821 16:53:55.618899  4314 net.cpp:440] conv3_14 <- res3_13_res3_13_0_split_0
I0821 16:53:55.618911  4314 net.cpp:414] conv3_14 -> conv3_14
I0821 16:53:55.657853  4314 net.cpp:135] Setting up conv3_14
I0821 16:53:55.658313  4314 net.cpp:142] Top shape: 128 256 14 12 (5505024)
I0821 16:53:55.658319  4314 net.cpp:150] Memory required for data: 6028002816
I0821 16:53:55.658335  4314 layer_factory.hpp:77] Creating layer bn3_14
I0821 16:53:55.658349  4314 net.cpp:88] Creating Layer bn3_14
I0821 16:53:55.658356  4314 net.cpp:440] bn3_14 <- conv3_14
I0821 16:53:55.658365  4314 net.cpp:401] bn3_14 -> conv3_14 (in-place)
I0821 16:53:55.660076  4314 net.cpp:135] Setting up bn3_14
I0821 16:53:55.660449  4314 net.cpp:142] Top shape: 128 256 14 12 (5505024)
I0821 16:53:55.660511  4314 net.cpp:150] Memory required for data: 6050022912
I0821 16:53:55.660598  4314 layer_factory.hpp:77] Creating layer scale_conv3_14
I0821 16:53:55.661073  4314 net.cpp:88] Creating Layer scale_conv3_14
I0821 16:53:55.661260  4314 net.cpp:440] scale_conv3_14 <- conv3_14
I0821 16:53:55.661334  4314 net.cpp:401] scale_conv3_14 -> conv3_14 (in-place)
I0821 16:53:55.661397  4314 layer_factory.hpp:77] Creating layer scale_conv3_14
I0821 16:53:55.662879  4314 net.cpp:135] Setting up scale_conv3_14
I0821 16:53:55.662892  4314 net.cpp:142] Top shape: 128 256 14 12 (5505024)
I0821 16:53:55.662897  4314 net.cpp:150] Memory required for data: 6072043008
I0821 16:53:55.662906  4314 layer_factory.hpp:77] Creating layer relu3_14
I0821 16:53:55.662917  4314 net.cpp:88] Creating Layer relu3_14
I0821 16:53:55.662923  4314 net.cpp:440] relu3_14 <- conv3_14
I0821 16:53:55.662930  4314 net.cpp:401] relu3_14 -> conv3_14 (in-place)
I0821 16:53:55.664417  4314 net.cpp:135] Setting up relu3_14
I0821 16:53:55.664427  4314 net.cpp:142] Top shape: 128 256 14 12 (5505024)
I0821 16:53:55.664433  4314 net.cpp:150] Memory required for data: 6094063104
I0821 16:53:55.664450  4314 layer_factory.hpp:77] Creating layer conv3_15
I0821 16:53:55.664469  4314 net.cpp:88] Creating Layer conv3_15
I0821 16:53:55.664474  4314 net.cpp:440] conv3_15 <- conv3_14
I0821 16:53:55.664482  4314 net.cpp:414] conv3_15 -> conv3_15
I0821 16:53:55.713946  4314 net.cpp:135] Setting up conv3_15
I0821 16:53:55.714321  4314 net.cpp:142] Top shape: 128 256 14 12 (5505024)
I0821 16:53:55.714329  4314 net.cpp:150] Memory required for data: 6116083200
I0821 16:53:55.714342  4314 layer_factory.hpp:77] Creating layer bn3_15
I0821 16:53:55.714354  4314 net.cpp:88] Creating Layer bn3_15
I0821 16:53:55.714363  4314 net.cpp:440] bn3_15 <- conv3_15
I0821 16:53:55.714375  4314 net.cpp:401] bn3_15 -> conv3_15 (in-place)
I0821 16:53:55.715698  4314 net.cpp:135] Setting up bn3_15
I0821 16:53:55.716037  4314 net.cpp:142] Top shape: 128 256 14 12 (5505024)
I0821 16:53:55.716102  4314 net.cpp:150] Memory required for data: 6138103296
I0821 16:53:55.716267  4314 layer_factory.hpp:77] Creating layer scale_conv3_15
I0821 16:53:55.716892  4314 net.cpp:88] Creating Layer scale_conv3_15
I0821 16:53:55.717283  4314 net.cpp:440] scale_conv3_15 <- conv3_15
I0821 16:53:55.717360  4314 net.cpp:401] scale_conv3_15 -> conv3_15 (in-place)
I0821 16:53:55.717424  4314 layer_factory.hpp:77] Creating layer scale_conv3_15
I0821 16:53:55.718871  4314 net.cpp:135] Setting up scale_conv3_15
I0821 16:53:55.718883  4314 net.cpp:142] Top shape: 128 256 14 12 (5505024)
I0821 16:53:55.718888  4314 net.cpp:150] Memory required for data: 6160123392
I0821 16:53:55.718896  4314 layer_factory.hpp:77] Creating layer relu3_15
I0821 16:53:55.718906  4314 net.cpp:88] Creating Layer relu3_15
I0821 16:53:55.718914  4314 net.cpp:440] relu3_15 <- conv3_15
I0821 16:53:55.718945  4314 net.cpp:401] relu3_15 -> conv3_15 (in-place)
I0821 16:53:55.725212  4314 net.cpp:135] Setting up relu3_15
I0821 16:53:55.725235  4314 net.cpp:142] Top shape: 128 256 14 12 (5505024)
I0821 16:53:55.725241  4314 net.cpp:150] Memory required for data: 6182143488
I0821 16:53:55.725258  4314 layer_factory.hpp:77] Creating layer res3_15
I0821 16:53:55.725277  4314 net.cpp:88] Creating Layer res3_15
I0821 16:53:55.725286  4314 net.cpp:440] res3_15 <- res3_13_res3_13_0_split_1
I0821 16:53:55.725292  4314 net.cpp:440] res3_15 <- conv3_15
I0821 16:53:55.725299  4314 net.cpp:414] res3_15 -> res3_15
I0821 16:53:55.725347  4314 net.cpp:135] Setting up res3_15
I0821 16:53:55.725355  4314 net.cpp:142] Top shape: 128 256 14 12 (5505024)
I0821 16:53:55.725360  4314 net.cpp:150] Memory required for data: 6204163584
I0821 16:53:55.725364  4314 layer_factory.hpp:77] Creating layer res3_15_res3_15_0_split
I0821 16:53:55.725375  4314 net.cpp:88] Creating Layer res3_15_res3_15_0_split
I0821 16:53:55.725380  4314 net.cpp:440] res3_15_res3_15_0_split <- res3_15
I0821 16:53:55.725387  4314 net.cpp:414] res3_15_res3_15_0_split -> res3_15_res3_15_0_split_0
I0821 16:53:55.725397  4314 net.cpp:414] res3_15_res3_15_0_split -> res3_15_res3_15_0_split_1
I0821 16:53:55.725450  4314 net.cpp:135] Setting up res3_15_res3_15_0_split
I0821 16:53:55.725467  4314 net.cpp:142] Top shape: 128 256 14 12 (5505024)
I0821 16:53:55.725473  4314 net.cpp:142] Top shape: 128 256 14 12 (5505024)
I0821 16:53:55.725477  4314 net.cpp:150] Memory required for data: 6248203776
I0821 16:53:55.725482  4314 layer_factory.hpp:77] Creating layer conv3_16
I0821 16:53:55.725497  4314 net.cpp:88] Creating Layer conv3_16
I0821 16:53:55.725503  4314 net.cpp:440] conv3_16 <- res3_15_res3_15_0_split_0
I0821 16:53:55.725522  4314 net.cpp:414] conv3_16 -> conv3_16
I0821 16:53:55.765871  4314 net.cpp:135] Setting up conv3_16
I0821 16:53:55.766499  4314 net.cpp:142] Top shape: 128 256 14 12 (5505024)
I0821 16:53:55.766585  4314 net.cpp:150] Memory required for data: 6270223872
I0821 16:53:55.766755  4314 layer_factory.hpp:77] Creating layer bn3_16
I0821 16:53:55.766993  4314 net.cpp:88] Creating Layer bn3_16
I0821 16:53:55.767071  4314 net.cpp:440] bn3_16 <- conv3_16
I0821 16:53:55.767171  4314 net.cpp:401] bn3_16 -> conv3_16 (in-place)
I0821 16:53:55.768775  4314 net.cpp:135] Setting up bn3_16
I0821 16:53:55.768785  4314 net.cpp:142] Top shape: 128 256 14 12 (5505024)
I0821 16:53:55.768790  4314 net.cpp:150] Memory required for data: 6292243968
I0821 16:53:55.768815  4314 layer_factory.hpp:77] Creating layer scale_conv3_16
I0821 16:53:55.768831  4314 net.cpp:88] Creating Layer scale_conv3_16
I0821 16:53:55.768836  4314 net.cpp:440] scale_conv3_16 <- conv3_16
I0821 16:53:55.768843  4314 net.cpp:401] scale_conv3_16 -> conv3_16 (in-place)
I0821 16:53:55.769280  4314 layer_factory.hpp:77] Creating layer scale_conv3_16
I0821 16:53:55.770496  4314 net.cpp:135] Setting up scale_conv3_16
I0821 16:53:55.770859  4314 net.cpp:142] Top shape: 128 256 14 12 (5505024)
I0821 16:53:55.770895  4314 net.cpp:150] Memory required for data: 6314264064
I0821 16:53:55.771006  4314 layer_factory.hpp:77] Creating layer relu3_16
I0821 16:53:55.771131  4314 net.cpp:88] Creating Layer relu3_16
I0821 16:53:55.771179  4314 net.cpp:440] relu3_16 <- conv3_16
I0821 16:53:55.771309  4314 net.cpp:401] relu3_16 -> conv3_16 (in-place)
I0821 16:53:55.772914  4314 net.cpp:135] Setting up relu3_16
I0821 16:53:55.773203  4314 net.cpp:142] Top shape: 128 256 14 12 (5505024)
I0821 16:53:55.773245  4314 net.cpp:150] Memory required for data: 6336284160
I0821 16:53:55.773355  4314 layer_factory.hpp:77] Creating layer conv3_17
I0821 16:53:55.773399  4314 net.cpp:88] Creating Layer conv3_17
I0821 16:53:55.773404  4314 net.cpp:440] conv3_17 <- conv3_16
I0821 16:53:55.773412  4314 net.cpp:414] conv3_17 -> conv3_17
I0821 16:53:55.803366  4314 net.cpp:135] Setting up conv3_17
I0821 16:53:55.803508  4314 net.cpp:142] Top shape: 128 256 14 12 (5505024)
I0821 16:53:55.803601  4314 net.cpp:150] Memory required for data: 6358304256
I0821 16:53:55.804244  4314 layer_factory.hpp:77] Creating layer bn3_17
I0821 16:53:55.804664  4314 net.cpp:88] Creating Layer bn3_17
I0821 16:53:55.804793  4314 net.cpp:440] bn3_17 <- conv3_17
I0821 16:53:55.804802  4314 net.cpp:401] bn3_17 -> conv3_17 (in-place)
I0821 16:53:55.806373  4314 net.cpp:135] Setting up bn3_17
I0821 16:53:55.806388  4314 net.cpp:142] Top shape: 128 256 14 12 (5505024)
I0821 16:53:55.806392  4314 net.cpp:150] Memory required for data: 6380324352
I0821 16:53:55.806409  4314 layer_factory.hpp:77] Creating layer scale_conv3_17
I0821 16:53:55.806421  4314 net.cpp:88] Creating Layer scale_conv3_17
I0821 16:53:55.806426  4314 net.cpp:440] scale_conv3_17 <- conv3_17
I0821 16:53:55.806432  4314 net.cpp:401] scale_conv3_17 -> conv3_17 (in-place)
I0821 16:53:55.806490  4314 layer_factory.hpp:77] Creating layer scale_conv3_17
I0821 16:53:55.807945  4314 net.cpp:135] Setting up scale_conv3_17
I0821 16:53:55.807955  4314 net.cpp:142] Top shape: 128 256 14 12 (5505024)
I0821 16:53:55.807958  4314 net.cpp:150] Memory required for data: 6402344448
I0821 16:53:55.807966  4314 layer_factory.hpp:77] Creating layer relu3_17
I0821 16:53:55.807976  4314 net.cpp:88] Creating Layer relu3_17
I0821 16:53:55.807979  4314 net.cpp:440] relu3_17 <- conv3_17
I0821 16:53:55.807986  4314 net.cpp:401] relu3_17 -> conv3_17 (in-place)
I0821 16:53:55.809449  4314 net.cpp:135] Setting up relu3_17
I0821 16:53:55.809460  4314 net.cpp:142] Top shape: 128 256 14 12 (5505024)
I0821 16:53:55.809464  4314 net.cpp:150] Memory required for data: 6424364544
I0821 16:53:55.809470  4314 layer_factory.hpp:77] Creating layer res3_17
I0821 16:53:55.809478  4314 net.cpp:88] Creating Layer res3_17
I0821 16:53:55.809485  4314 net.cpp:440] res3_17 <- res3_15_res3_15_0_split_1
I0821 16:53:55.809491  4314 net.cpp:440] res3_17 <- conv3_17
I0821 16:53:55.809501  4314 net.cpp:414] res3_17 -> res3_17
I0821 16:53:55.809736  4314 net.cpp:135] Setting up res3_17
I0821 16:53:55.809932  4314 net.cpp:142] Top shape: 128 256 14 12 (5505024)
I0821 16:53:55.809959  4314 net.cpp:150] Memory required for data: 6446384640
I0821 16:53:55.810003  4314 layer_factory.hpp:77] Creating layer conv4_1
I0821 16:53:55.810590  4314 net.cpp:88] Creating Layer conv4_1
I0821 16:53:55.810866  4314 net.cpp:440] conv4_1 <- res3_17
I0821 16:53:55.810935  4314 net.cpp:414] conv4_1 -> conv4_1
I0821 16:53:55.837855  4314 net.cpp:135] Setting up conv4_1
I0821 16:53:55.837911  4314 net.cpp:142] Top shape: 128 512 7 6 (2752512)
I0821 16:53:55.837924  4314 net.cpp:150] Memory required for data: 6457394688
I0821 16:53:55.837944  4314 layer_factory.hpp:77] Creating layer bn4_1
I0821 16:53:55.837967  4314 net.cpp:88] Creating Layer bn4_1
I0821 16:53:55.837981  4314 net.cpp:440] bn4_1 <- conv4_1
I0821 16:53:55.837996  4314 net.cpp:401] bn4_1 -> conv4_1 (in-place)
I0821 16:53:55.838567  4314 net.cpp:135] Setting up bn4_1
I0821 16:53:55.838587  4314 net.cpp:142] Top shape: 128 512 7 6 (2752512)
I0821 16:53:55.838596  4314 net.cpp:150] Memory required for data: 6468404736
I0821 16:53:55.838616  4314 layer_factory.hpp:77] Creating layer scale_conv4_1
I0821 16:53:55.838636  4314 net.cpp:88] Creating Layer scale_conv4_1
I0821 16:53:55.838647  4314 net.cpp:440] scale_conv4_1 <- conv4_1
I0821 16:53:55.838660  4314 net.cpp:401] scale_conv4_1 -> conv4_1 (in-place)
I0821 16:53:55.838752  4314 layer_factory.hpp:77] Creating layer scale_conv4_1
I0821 16:53:55.839072  4314 net.cpp:135] Setting up scale_conv4_1
I0821 16:53:55.839092  4314 net.cpp:142] Top shape: 128 512 7 6 (2752512)
I0821 16:53:55.839100  4314 net.cpp:150] Memory required for data: 6479414784
I0821 16:53:55.839118  4314 layer_factory.hpp:77] Creating layer relu4_1
I0821 16:53:55.839149  4314 net.cpp:88] Creating Layer relu4_1
I0821 16:53:55.839162  4314 net.cpp:440] relu4_1 <- conv4_1
I0821 16:53:55.839179  4314 net.cpp:401] relu4_1 -> conv4_1 (in-place)
I0821 16:53:55.839438  4314 net.cpp:135] Setting up relu4_1
I0821 16:53:55.839457  4314 net.cpp:142] Top shape: 128 512 7 6 (2752512)
I0821 16:53:55.839467  4314 net.cpp:150] Memory required for data: 6490424832
I0821 16:53:55.839509  4314 layer_factory.hpp:77] Creating layer conv4_1_relu4_1_0_split
I0821 16:53:55.839540  4314 net.cpp:88] Creating Layer conv4_1_relu4_1_0_split
I0821 16:53:55.839551  4314 net.cpp:440] conv4_1_relu4_1_0_split <- conv4_1
I0821 16:53:55.839565  4314 net.cpp:414] conv4_1_relu4_1_0_split -> conv4_1_relu4_1_0_split_0
I0821 16:53:55.839581  4314 net.cpp:414] conv4_1_relu4_1_0_split -> conv4_1_relu4_1_0_split_1
I0821 16:53:55.839686  4314 net.cpp:135] Setting up conv4_1_relu4_1_0_split
I0821 16:53:55.839709  4314 net.cpp:142] Top shape: 128 512 7 6 (2752512)
I0821 16:53:55.839730  4314 net.cpp:142] Top shape: 128 512 7 6 (2752512)
I0821 16:53:55.839745  4314 net.cpp:150] Memory required for data: 6512444928
I0821 16:53:55.839761  4314 layer_factory.hpp:77] Creating layer conv4_2
I0821 16:53:55.839800  4314 net.cpp:88] Creating Layer conv4_2
I0821 16:53:55.839824  4314 net.cpp:440] conv4_2 <- conv4_1_relu4_1_0_split_0
I0821 16:53:55.839856  4314 net.cpp:414] conv4_2 -> conv4_2
I0821 16:53:55.967543  4314 net.cpp:135] Setting up conv4_2
I0821 16:53:55.967588  4314 net.cpp:142] Top shape: 128 512 7 6 (2752512)
I0821 16:53:55.967598  4314 net.cpp:150] Memory required for data: 6523454976
I0821 16:53:55.967653  4314 layer_factory.hpp:77] Creating layer bn4_2
I0821 16:53:55.967684  4314 net.cpp:88] Creating Layer bn4_2
I0821 16:53:55.967700  4314 net.cpp:440] bn4_2 <- conv4_2
I0821 16:53:55.967720  4314 net.cpp:401] bn4_2 -> conv4_2 (in-place)
I0821 16:53:55.968050  4314 net.cpp:135] Setting up bn4_2
I0821 16:53:55.968065  4314 net.cpp:142] Top shape: 128 512 7 6 (2752512)
I0821 16:53:55.968073  4314 net.cpp:150] Memory required for data: 6534465024
I0821 16:53:55.968083  4314 layer_factory.hpp:77] Creating layer scale_conv4_2
I0821 16:53:55.968114  4314 net.cpp:88] Creating Layer scale_conv4_2
I0821 16:53:55.968122  4314 net.cpp:440] scale_conv4_2 <- conv4_2
I0821 16:53:55.968129  4314 net.cpp:401] scale_conv4_2 -> conv4_2 (in-place)
I0821 16:53:55.968199  4314 layer_factory.hpp:77] Creating layer scale_conv4_2
I0821 16:53:55.968396  4314 net.cpp:135] Setting up scale_conv4_2
I0821 16:53:55.968410  4314 net.cpp:142] Top shape: 128 512 7 6 (2752512)
I0821 16:53:55.968418  4314 net.cpp:150] Memory required for data: 6545475072
I0821 16:53:55.968428  4314 layer_factory.hpp:77] Creating layer relu4_2
I0821 16:53:55.968439  4314 net.cpp:88] Creating Layer relu4_2
I0821 16:53:55.968446  4314 net.cpp:440] relu4_2 <- conv4_2
I0821 16:53:55.968454  4314 net.cpp:401] relu4_2 -> conv4_2 (in-place)
I0821 16:53:55.968613  4314 net.cpp:135] Setting up relu4_2
I0821 16:53:55.968624  4314 net.cpp:142] Top shape: 128 512 7 6 (2752512)
I0821 16:53:55.968629  4314 net.cpp:150] Memory required for data: 6556485120
I0821 16:53:55.968644  4314 layer_factory.hpp:77] Creating layer conv4_3
I0821 16:53:55.968668  4314 net.cpp:88] Creating Layer conv4_3
I0821 16:53:55.968675  4314 net.cpp:440] conv4_3 <- conv4_2
I0821 16:53:55.968684  4314 net.cpp:414] conv4_3 -> conv4_3
I0821 16:53:56.076906  4314 net.cpp:135] Setting up conv4_3
I0821 16:53:56.076951  4314 net.cpp:142] Top shape: 128 512 7 6 (2752512)
I0821 16:53:56.076958  4314 net.cpp:150] Memory required for data: 6567495168
I0821 16:53:56.076973  4314 layer_factory.hpp:77] Creating layer bn4_3
I0821 16:53:56.076989  4314 net.cpp:88] Creating Layer bn4_3
I0821 16:53:56.076999  4314 net.cpp:440] bn4_3 <- conv4_3
I0821 16:53:56.077011  4314 net.cpp:401] bn4_3 -> conv4_3 (in-place)
I0821 16:53:56.077348  4314 net.cpp:135] Setting up bn4_3
I0821 16:53:56.077368  4314 net.cpp:142] Top shape: 128 512 7 6 (2752512)
I0821 16:53:56.077373  4314 net.cpp:150] Memory required for data: 6578505216
I0821 16:53:56.077384  4314 layer_factory.hpp:77] Creating layer scale_conv4_3
I0821 16:53:56.077414  4314 net.cpp:88] Creating Layer scale_conv4_3
I0821 16:53:56.077422  4314 net.cpp:440] scale_conv4_3 <- conv4_3
I0821 16:53:56.077435  4314 net.cpp:401] scale_conv4_3 -> conv4_3 (in-place)
I0821 16:53:56.077502  4314 layer_factory.hpp:77] Creating layer scale_conv4_3
I0821 16:53:56.077724  4314 net.cpp:135] Setting up scale_conv4_3
I0821 16:53:56.077739  4314 net.cpp:142] Top shape: 128 512 7 6 (2752512)
I0821 16:53:56.077744  4314 net.cpp:150] Memory required for data: 6589515264
I0821 16:53:56.077754  4314 layer_factory.hpp:77] Creating layer relu4_3
I0821 16:53:56.077766  4314 net.cpp:88] Creating Layer relu4_3
I0821 16:53:56.077775  4314 net.cpp:440] relu4_3 <- conv4_3
I0821 16:53:56.077781  4314 net.cpp:401] relu4_3 -> conv4_3 (in-place)
I0821 16:53:56.077944  4314 net.cpp:135] Setting up relu4_3
I0821 16:53:56.077955  4314 net.cpp:142] Top shape: 128 512 7 6 (2752512)
I0821 16:53:56.077960  4314 net.cpp:150] Memory required for data: 6600525312
I0821 16:53:56.077973  4314 layer_factory.hpp:77] Creating layer res4_3
I0821 16:53:56.077986  4314 net.cpp:88] Creating Layer res4_3
I0821 16:53:56.077994  4314 net.cpp:440] res4_3 <- conv4_1_relu4_1_0_split_1
I0821 16:53:56.078001  4314 net.cpp:440] res4_3 <- conv4_3
I0821 16:53:56.078011  4314 net.cpp:414] res4_3 -> res4_3
I0821 16:53:56.078055  4314 net.cpp:135] Setting up res4_3
I0821 16:53:56.078066  4314 net.cpp:142] Top shape: 128 512 7 6 (2752512)
I0821 16:53:56.078071  4314 net.cpp:150] Memory required for data: 6611535360
I0821 16:53:56.078075  4314 layer_factory.hpp:77] Creating layer res4_3_res4_3_0_split
I0821 16:53:56.078084  4314 net.cpp:88] Creating Layer res4_3_res4_3_0_split
I0821 16:53:56.078089  4314 net.cpp:440] res4_3_res4_3_0_split <- res4_3
I0821 16:53:56.078096  4314 net.cpp:414] res4_3_res4_3_0_split -> res4_3_res4_3_0_split_0
I0821 16:53:56.078105  4314 net.cpp:414] res4_3_res4_3_0_split -> res4_3_res4_3_0_split_1
I0821 16:53:56.078163  4314 net.cpp:135] Setting up res4_3_res4_3_0_split
I0821 16:53:56.078173  4314 net.cpp:142] Top shape: 128 512 7 6 (2752512)
I0821 16:53:56.078179  4314 net.cpp:142] Top shape: 128 512 7 6 (2752512)
I0821 16:53:56.078184  4314 net.cpp:150] Memory required for data: 6633555456
I0821 16:53:56.078188  4314 layer_factory.hpp:77] Creating layer conv4_4
I0821 16:53:56.078212  4314 net.cpp:88] Creating Layer conv4_4
I0821 16:53:56.078220  4314 net.cpp:440] conv4_4 <- res4_3_res4_3_0_split_0
I0821 16:53:56.078230  4314 net.cpp:414] conv4_4 -> conv4_4
I0821 16:53:56.186208  4314 net.cpp:135] Setting up conv4_4
I0821 16:53:56.186244  4314 net.cpp:142] Top shape: 128 512 7 6 (2752512)
I0821 16:53:56.186254  4314 net.cpp:150] Memory required for data: 6644565504
I0821 16:53:56.186269  4314 layer_factory.hpp:77] Creating layer bn4_4
I0821 16:53:56.186285  4314 net.cpp:88] Creating Layer bn4_4
I0821 16:53:56.186295  4314 net.cpp:440] bn4_4 <- conv4_4
I0821 16:53:56.186305  4314 net.cpp:401] bn4_4 -> conv4_4 (in-place)
I0821 16:53:56.186643  4314 net.cpp:135] Setting up bn4_4
I0821 16:53:56.186656  4314 net.cpp:142] Top shape: 128 512 7 6 (2752512)
I0821 16:53:56.186661  4314 net.cpp:150] Memory required for data: 6655575552
I0821 16:53:56.186671  4314 layer_factory.hpp:77] Creating layer scale_conv4_4
I0821 16:53:56.186683  4314 net.cpp:88] Creating Layer scale_conv4_4
I0821 16:53:56.186688  4314 net.cpp:440] scale_conv4_4 <- conv4_4
I0821 16:53:56.186695  4314 net.cpp:401] scale_conv4_4 -> conv4_4 (in-place)
I0821 16:53:56.186753  4314 layer_factory.hpp:77] Creating layer scale_conv4_4
I0821 16:53:56.186945  4314 net.cpp:135] Setting up scale_conv4_4
I0821 16:53:56.186959  4314 net.cpp:142] Top shape: 128 512 7 6 (2752512)
I0821 16:53:56.186964  4314 net.cpp:150] Memory required for data: 6666585600
I0821 16:53:56.186972  4314 layer_factory.hpp:77] Creating layer relu4_4
I0821 16:53:56.187000  4314 net.cpp:88] Creating Layer relu4_4
I0821 16:53:56.187012  4314 net.cpp:440] relu4_4 <- conv4_4
I0821 16:53:56.187019  4314 net.cpp:401] relu4_4 -> conv4_4 (in-place)
I0821 16:53:56.187187  4314 net.cpp:135] Setting up relu4_4
I0821 16:53:56.187199  4314 net.cpp:142] Top shape: 128 512 7 6 (2752512)
I0821 16:53:56.187204  4314 net.cpp:150] Memory required for data: 6677595648
I0821 16:53:56.187212  4314 layer_factory.hpp:77] Creating layer conv4_5
I0821 16:53:56.187229  4314 net.cpp:88] Creating Layer conv4_5
I0821 16:53:56.187258  4314 net.cpp:440] conv4_5 <- conv4_4
I0821 16:53:56.187268  4314 net.cpp:414] conv4_5 -> conv4_5
I0821 16:53:56.295300  4314 net.cpp:135] Setting up conv4_5
I0821 16:53:56.295339  4314 net.cpp:142] Top shape: 128 512 7 6 (2752512)
I0821 16:53:56.295346  4314 net.cpp:150] Memory required for data: 6688605696
I0821 16:53:56.295362  4314 layer_factory.hpp:77] Creating layer bn4_5
I0821 16:53:56.295378  4314 net.cpp:88] Creating Layer bn4_5
I0821 16:53:56.295387  4314 net.cpp:440] bn4_5 <- conv4_5
I0821 16:53:56.295408  4314 net.cpp:401] bn4_5 -> conv4_5 (in-place)
I0821 16:53:56.295758  4314 net.cpp:135] Setting up bn4_5
I0821 16:53:56.295770  4314 net.cpp:142] Top shape: 128 512 7 6 (2752512)
I0821 16:53:56.295776  4314 net.cpp:150] Memory required for data: 6699615744
I0821 16:53:56.295786  4314 layer_factory.hpp:77] Creating layer scale_conv4_5
I0821 16:53:56.295814  4314 net.cpp:88] Creating Layer scale_conv4_5
I0821 16:53:56.295820  4314 net.cpp:440] scale_conv4_5 <- conv4_5
I0821 16:53:56.295827  4314 net.cpp:401] scale_conv4_5 -> conv4_5 (in-place)
I0821 16:53:56.295894  4314 layer_factory.hpp:77] Creating layer scale_conv4_5
I0821 16:53:56.296089  4314 net.cpp:135] Setting up scale_conv4_5
I0821 16:53:56.296102  4314 net.cpp:142] Top shape: 128 512 7 6 (2752512)
I0821 16:53:56.296108  4314 net.cpp:150] Memory required for data: 6710625792
I0821 16:53:56.296118  4314 layer_factory.hpp:77] Creating layer relu4_5
I0821 16:53:56.296128  4314 net.cpp:88] Creating Layer relu4_5
I0821 16:53:56.296139  4314 net.cpp:440] relu4_5 <- conv4_5
I0821 16:53:56.296150  4314 net.cpp:401] relu4_5 -> conv4_5 (in-place)
I0821 16:53:56.296309  4314 net.cpp:135] Setting up relu4_5
I0821 16:53:56.296320  4314 net.cpp:142] Top shape: 128 512 7 6 (2752512)
I0821 16:53:56.296325  4314 net.cpp:150] Memory required for data: 6721635840
I0821 16:53:56.296332  4314 layer_factory.hpp:77] Creating layer res4_5
I0821 16:53:56.296342  4314 net.cpp:88] Creating Layer res4_5
I0821 16:53:56.296350  4314 net.cpp:440] res4_5 <- res4_3_res4_3_0_split_1
I0821 16:53:56.296357  4314 net.cpp:440] res4_5 <- conv4_5
I0821 16:53:56.296366  4314 net.cpp:414] res4_5 -> res4_5
I0821 16:53:56.296409  4314 net.cpp:135] Setting up res4_5
I0821 16:53:56.296419  4314 net.cpp:142] Top shape: 128 512 7 6 (2752512)
I0821 16:53:56.296424  4314 net.cpp:150] Memory required for data: 6732645888
I0821 16:53:56.296429  4314 layer_factory.hpp:77] Creating layer bn_pre_fc5
I0821 16:53:56.296437  4314 net.cpp:88] Creating Layer bn_pre_fc5
I0821 16:53:56.296442  4314 net.cpp:440] bn_pre_fc5 <- res4_5
I0821 16:53:56.296450  4314 net.cpp:414] bn_pre_fc5 -> pre_fc5
I0821 16:53:56.296764  4314 net.cpp:135] Setting up bn_pre_fc5
I0821 16:53:56.296775  4314 net.cpp:142] Top shape: 128 512 7 6 (2752512)
I0821 16:53:56.296780  4314 net.cpp:150] Memory required for data: 6743655936
I0821 16:53:56.296790  4314 layer_factory.hpp:77] Creating layer scale_pre_fc5
I0821 16:53:56.296806  4314 net.cpp:88] Creating Layer scale_pre_fc5
I0821 16:53:56.296813  4314 net.cpp:440] scale_pre_fc5 <- pre_fc5
I0821 16:53:56.296821  4314 net.cpp:401] scale_pre_fc5 -> pre_fc5 (in-place)
I0821 16:53:56.296880  4314 layer_factory.hpp:77] Creating layer scale_pre_fc5
I0821 16:53:56.297070  4314 net.cpp:135] Setting up scale_pre_fc5
I0821 16:53:56.297083  4314 net.cpp:142] Top shape: 128 512 7 6 (2752512)
I0821 16:53:56.297088  4314 net.cpp:150] Memory required for data: 6754665984
I0821 16:53:56.297103  4314 layer_factory.hpp:77] Creating layer dropout_pre_fc5
I0821 16:53:56.297123  4314 net.cpp:88] Creating Layer dropout_pre_fc5
I0821 16:53:56.297129  4314 net.cpp:440] dropout_pre_fc5 <- pre_fc5
I0821 16:53:56.297137  4314 net.cpp:401] dropout_pre_fc5 -> pre_fc5 (in-place)
I0821 16:53:56.298122  4314 net.cpp:135] Setting up dropout_pre_fc5
I0821 16:53:56.298151  4314 net.cpp:142] Top shape: 128 512 7 6 (2752512)
I0821 16:53:56.298161  4314 net.cpp:150] Memory required for data: 6765676032
I0821 16:53:56.298183  4314 layer_factory.hpp:77] Creating layer fc5
I0821 16:53:56.298588  4314 net.cpp:88] Creating Layer fc5
I0821 16:53:56.298619  4314 net.cpp:440] fc5 <- pre_fc5
I0821 16:53:56.298631  4314 net.cpp:414] fc5 -> fc5
I0821 16:53:56.435822  4314 net.cpp:135] Setting up fc5
I0821 16:53:56.435866  4314 net.cpp:142] Top shape: 128 512 (65536)
I0821 16:53:56.435873  4314 net.cpp:150] Memory required for data: 6765938176
I0821 16:53:56.435912  4314 layer_factory.hpp:77] Creating layer bn5
I0821 16:53:56.435937  4314 net.cpp:88] Creating Layer bn5
I0821 16:53:56.435950  4314 net.cpp:440] bn5 <- fc5
I0821 16:53:56.435961  4314 net.cpp:401] bn5 -> fc5 (in-place)
I0821 16:53:56.436282  4314 net.cpp:135] Setting up bn5
I0821 16:53:56.436295  4314 net.cpp:142] Top shape: 128 512 (65536)
I0821 16:53:56.436300  4314 net.cpp:150] Memory required for data: 6766200320
I0821 16:53:56.436311  4314 layer_factory.hpp:77] Creating layer scale5
I0821 16:53:56.436322  4314 net.cpp:88] Creating Layer scale5
I0821 16:53:56.436328  4314 net.cpp:440] scale5 <- fc5
I0821 16:53:56.436336  4314 net.cpp:401] scale5 -> fc5 (in-place)
I0821 16:53:56.436404  4314 layer_factory.hpp:77] Creating layer scale5
I0821 16:53:56.436604  4314 net.cpp:135] Setting up scale5
I0821 16:53:56.436615  4314 net.cpp:142] Top shape: 128 512 (65536)
I0821 16:53:56.436620  4314 net.cpp:150] Memory required for data: 6766462464
I0821 16:53:56.436630  4314 layer_factory.hpp:77] Creating layer norm1
I0821 16:53:56.436645  4314 net.cpp:88] Creating Layer norm1
I0821 16:53:56.436653  4314 net.cpp:440] norm1 <- fc5
I0821 16:53:56.436671  4314 net.cpp:414] norm1 -> norm1
I0821 16:53:56.436772  4314 net.cpp:135] Setting up norm1
I0821 16:53:56.436784  4314 net.cpp:142] Top shape: 128 512 1 1 (65536)
I0821 16:53:56.436789  4314 net.cpp:150] Memory required for data: 6766724608
I0821 16:53:56.436794  4314 layer_factory.hpp:77] Creating layer fc6_l2
I0821 16:53:56.436811  4314 net.cpp:88] Creating Layer fc6_l2
I0821 16:53:56.436820  4314 net.cpp:440] fc6_l2 <- norm1
I0821 16:53:56.436830  4314 net.cpp:414] fc6_l2 -> fc6
I0821 16:53:57.210681  4314 net.cpp:135] Setting up fc6_l2
I0821 16:53:57.210729  4314 net.cpp:142] Top shape: 128 180855 (23149440)
I0821 16:53:57.210736  4314 net.cpp:150] Memory required for data: 6859322368
I0821 16:53:57.210748  4314 layer_factory.hpp:77] Creating layer combined_margin
I0821 16:53:57.210772  4314 net.cpp:88] Creating Layer combined_margin
I0821 16:53:57.210780  4314 net.cpp:440] combined_margin <- fc6
I0821 16:53:57.210788  4314 net.cpp:440] combined_margin <- label_data_1_split_0
I0821 16:53:57.210795  4314 net.cpp:414] combined_margin -> fc6_margin
I0821 16:53:57.210865  4314 net.cpp:135] Setting up combined_margin
I0821 16:53:57.210875  4314 net.cpp:142] Top shape: 128 180855 (23149440)
I0821 16:53:57.210880  4314 net.cpp:150] Memory required for data: 6951920128
I0821 16:53:57.210883  4314 layer_factory.hpp:77] Creating layer fc6_margin_scale
I0821 16:53:57.210897  4314 net.cpp:88] Creating Layer fc6_margin_scale
I0821 16:53:57.210904  4314 net.cpp:440] fc6_margin_scale <- fc6_margin
I0821 16:53:57.210922  4314 net.cpp:414] fc6_margin_scale -> fc6_margin_scale
I0821 16:53:57.211899  4314 net.cpp:135] Setting up fc6_margin_scale
I0821 16:53:57.211913  4314 net.cpp:142] Top shape: 128 180855 (23149440)
I0821 16:53:57.211928  4314 net.cpp:150] Memory required for data: 7044517888
I0821 16:53:57.211935  4314 layer_factory.hpp:77] Creating layer softmax_loss
I0821 16:53:57.212205  4314 net.cpp:88] Creating Layer softmax_loss
I0821 16:53:57.212218  4314 net.cpp:440] softmax_loss <- fc6_margin_scale
I0821 16:53:57.212224  4314 net.cpp:440] softmax_loss <- label_data_1_split_1
I0821 16:53:57.212234  4314 net.cpp:414] softmax_loss -> softmax_loss
…
